checkpoints/model_weights_epoch_20.pt (torch, 36335 bytes, 18 tensors)

lstm.weight_ih_l0 f4 [64, 1]
00000000: b69c 933e 619b 8fbe 1a1a a6bd e5c7 b8bd
00000010: 185c c6bd 3d2c cfbe be48 10be e63f e43d
00000020: 2e3b 76be 78b0 8f3e 4eda 70be b9f9 173d
00000030: c089 4abd a54d 98be e002 59be 3f53 f7bc
00000040: 2946 983d 525c 32be 12e2 87bd c7fb 9cbe
00000050: f280 633e 7493 bfbe 8944 24be ae09 08be
00000060: bcd5 dcbe 9b98 af3d cb5a 803e f147 0dbe
00000070: 8148 6a3e 5e86 9abd 44b7 a43d 76d2 c2be
00000080: 3f53 a93e faf8 113e 571a 523d 7b9b 5fbe
00000090: 29f5 003e 7943 5d3e 9d14 473e ae7f a7be
000000a0: 5cb6 413e 487f 04be 2d62 a2be 5b99 313b
000000b0: 7da5 5c3e e664 82be 6b68 9e3e 0733 14bd
000000c0: a780 993e c9d7 4a3e e248 12be 7b55 a63d
000000d0: 5247 ab3e 4351 01be e03a bb3e 01b1 223e
000000e0: 8a4c 86be 96b7 a63e 1338 3e3e e314 01be
000000f0: c4a5 53bd ca12 5b3d 850b 59ba fde1 2c3d
0.28830498 -0.28048232 -0.08110447 -0.09022502 -0.09685534 -0.4046344 -0.14090249 0.11145
-0.24046013 0.28064322 -0.23520777 0.03710339 -0.049447775 -0.29746738 -0.21192503 -0.030191062
0.07435257 -0.1741803 -0.06634916 -0.3066084 0.22217157 -0.37417185 -0.16041769 -0.13284943
-0.43131816 0.08574029 0.2506927 -0.13796975 0.2287922 -0.0754516 0.08042768 -0.38051194
0.33071324 0.14255133 0.05129465 -0.21836655 0.12593521 0.2160777 0.19441457 -0.327146
0.18917221 -0.12939179 -0.31715527 0.0027099464 0.21547504 -0.25467604 0.3093904 -0.036181476
0.29980966 0.19808878 -0.14285615 0.08121773 0.3345285 -0.12628655 0.36568356 0.15887834
-0.2623027 0.3256194 0.18576078 -0.12605624 -0.05167176 0.053484716 -0.00082796096 0.042207707

lstm.weight_hh_l0 f4 [64, 16]
00000000: de4a dbbd f6c0 b93e 4a6e 5c3d 7013 6b3e
00000010: 2db7 ef3d 4569 68be 5bc4 3e3e f9c1 3ebe
00000020: 762b edbd a15d 633c 891b 18bd e75d ab3e
00000030: d54a 51bd e76a 46bd d06c 06be f37a 863e
00000040: 8573 58be 4d97 f7bc 4a1d cabd f685 823e
00000050: 2716 33be 1d9e fb3c 5f09 78be 0cd2 233e
00000060: d7e5 f7bd 9393 6cbe f4cc 43bd 9d13 003c
00000070: 00e0 fcbd f56a 133e b54b 75bd 2c60 a93e
00000080: 0a07 c63e 99a7 41be ed5d 3bbe f916 8ebe
00000090: 272d f83d 9803 af3e 5e3e afbd 6fb8 04bd
000000a0: 6d2d 08bd 231a 48bd 2862 35be 437d 61be
000000b0: db91 b83c 572d 9abd f28b 1e3e 0f16 b2be
000000c0: 03db 933e d033 693e 8af2 8b3e a402 eb3d
000000d0: 2901 923e 744e a4be 2da3 c03e a0ed e23d
000000e0: aeb3 033d 3960 6f3c 7c6a 38bd a51f 923e
000000f0: e8e0 9c3e 5c26 d43d 21c3 90be 9a39 963e
00000100: 52cb 8e3d 1780 d1bd 3ef0 033e 51ac 3d3b
00000110: 76e3 adbd 608b 2fbe 6178 023e 0151 283e
00000120: 0271 5fbe 37dc 76be 6b41 35bc 5731 783e
00000130: ab8d f03d fde2 8fbd 5738 83bd ec80 e83d
00000140: baac 093e 5f03 ae3d 095c 123e 3794 cabd
00000150: d773 7c3e 0f5e 72bb d607 0f3d 8865 27be
00000160: 69d9 593d f9d5 8abe 91a4 15bd b4b1 f13d
00000170: 70de 553e bd84 153e 6cf6 073e 9c6d 0b3e
00000180: aa43 bbbd ce2a 753e 2379 f43d 500f 903e
00000190: 5cae 853e 11eb b7bd 081f 143d 4c2d 9abd
000001a0: 7dd8 56bd 7af5 85be 6540 de3d 99d0 58bd
000001b0: d966 563e bc63 5a3e c421 d53c 632b cdbd
000001c0: 1fd9 153e a84b 32b9 e01f 583d 09fd 3d3d
000001d0: bef4 bf3d 07be cf3d 4081 f03d c5df 013e
000001e0: d709 2d3d 7225 26be ac22 dfbd 11a3 373e
000001f0: efd6 9a3e d9e1 39be 0e27 3bbe d5a8 d4bd
00000200: 2e25 99bd 38e7 eb3d 7263 693e 1319 eabd
00000210: 5a8a 953e d1d9 96be 5865 8c3e 3d1e 2a3e
00000220: 8b69 98bd 16d3 ca3d 8bfb 9d3d beb6 103e
00000230: 7fc8 86be d4d3 9bbc 26be 8ebe 369c 1abe
00000240: 1faa 1ebe 4149 853e badc 61be f6ee c23d
00000250: c395 21be 5050 05be d957 0ebe 1f2f 233e
00000260: 8bcb ccbd 8305 9dbd a548 f1bd 3cc8 163e
00000270: a927 d53d f75a 453e 4c2f 4dbe 001d 17be
00000280: 6c07 9a3e 4ee6 223c 7745 613d 7a53 783e
00000290: a5e7 743e d2f5 1abe e6c7 973e 8410 7cbd
000002a0: 35d1 89bd f06b 2dbe ffbe 523e 75a4 813e
000002b0: 0dd2 673e 1af8 c0bc f4a7 52bd c091 993d
000002c0: 0f9c cc3d c84e 533d bbde 7f3e 394f 813e
000002d0: c7d2 543d 8f67 03be 035e 8d3e 3def 353a
000002e0: 1a9c 82bd 5131 29be 3357 99be 40ed 503e
000002f0: ff94 c23d 7561 293e 2869 893d 4c8a 44be
00000300: b656 dabc 55e8 1b3e 4e4a a63d 0ab5 d43c
00000310: c5c8 42bd acb9 90bd ae67 15be 2bc7 a53d
00000320: 5358 59bd 1486 48bc f5e4 fc3d fd69 873e
00000330: 2e9d 92bc 16f1 3d3e 5ea4 9cbe 8693 9c3b
00000340: ea8e d3bc 02b8 0f3e c835 0abe f804 143e
00000350: ae3b a43e 4a2a 1f3d e24a 603d 0c72 95be
00000360: 986f 163e 5188 f3bc 9242 4cbe c82a e63d
00000370: 59bf 05be 88c9 5abe 38a7 6b3d 7d30 d73b
00000380: bfaa 603d 3ddd 903e 9e16 37bd 7a4a 4f3e
00000390: b9bd 24bc a6cf 73bc 813c 62bc eb04 143e
000003a0: 5956 80be 4ca0 c7be 1f79 75be 9ffb 763e
000003b0: 3db6 ac3e 6543 923d 6686 013e 50d8 8e3e
000003c0: b055 f5bb 6e90 dcbd b8dc 73bd b88e 743c
000003d0: 5fed dbbc 76cc acba 7b25 acbc 42c2 d73d
000003e0: fb6e 3dbe 3066 4c3c 997e a13d 9276 903d
000003f0: 3468 b73d 7e95 d83d d4b4 2abe 940d 77be
-0.10707639 0.3628003 0.053816117 0.22956634 0.1170486 -0.22696407 0.18629591 -0.18628682
-0.11580555 0.013877303 -0.037135635 0.3347008 -0.051096756 -0.048441794 -0.13127446 0.26265678
-0.21137817 -0.030223513 -0.09868868 0.2549283 -0.17488919 0.030715043 -0.24222325 0.15998095
-0.12104385 -0.2310317 -0.04780288 0.007817176 -0.12347412 0.1439627 -0.059886653 0.33081186
0.38677245 -0.1891159 -0.18297549 -0.27751902 0.12117987 0.3418243 -0.085568175 -0.032402452
-0.033246446 -0.04885305 -0.17713225 -0.2202044 0.022530487 -0.07528179 0.15483072 -0.34782454
0.2887803 0.22773671 0.2733348 0.11475113 0.2851651 -0.32091105 0.37624493 0.110804796
0.032153778 0.014610344 -0.045023426 0.28539768 0.3064034 0.10358879 -0.28273872 0.29340822
0.06972374 -0.10229509 0.12884614 0.002894182 -0.0849065 -0.17143011 0.12741233 0.1643715
-0.21820453 -0.24107443 -0.01106296 0.24237572 0.11745771 -0.070257165 -0.0640723 0.11352715
0.13444796 0.08496737 0.14292921 -0.09891551 0.24653564 -0.0036982333 0.034919582 -0.16347325
0.053185854 -0.27116373 -0.036533896 0.11801472 0.20885634 0.14601417 0.13277596 0.13616031
-0.09143765 0.2394211 0.119371675 0.28136683 0.26109588 -0.08980382 0.036162406 -0.07528171
-0.052452553 -0.26163846 0.10852126 -0.05293331 0.20937671 0.21327108 0.026017077 -0.10018041
0.14633606 -0.00017003587 0.052764773 0.04638389 0.09372853 0.10143667 0.117434025 0.12683018
0.042245712 -0.16225222 -0.10895285 0.17933299 0.30242106 -0.1815256 -0.18276617 -0.10383765
-0.074777946 0.11518711 0.22791842 -0.11430564 0.29207116 -0.29463056 0.2742107 0.16613097
-0.07442006 0.09903543 0.07713994 0.1413221 -0.2632484 -0.019021906 -0.27879447 -0.15098652
-0.15494584 0.2603245 -0.22056857 0.095182344 -0.15779786 -0.13018918 -0.13900699 0.15935944
-0.0999976 -0.07667067 -0.11781434 0.14724821 0.10407955 0.19272982 -0.20037574 -0.14757156
0.30083787 0.009942604 0.054997887 0.24250594 0.2391649 -0.15132836 0.29644698 -0.061539188
-0.06729356 -0.16935706 0.20580672 0.25320783 0.22638722 -0.023555804 -0.051429704 0.07498503
0.09990703 0.051588804 0.24987309 0.25255755 0.051958825 -0.12832473 0.27610788 0.00069402513
-0.0637743 -0.16522719 -0.2994934 0.20403004 0.09501075 0.16541083 0.0670951 -0.19193381
-0.026652675 0.15225346 0.08119641 0.025965232 -0.04755475 -0.07066664 -0.14590332 0.08094629
-0.05306275 -0.012238998 0.123483576 0.2644805 -0.017897215 0.18548998 -0.30594152 0.0047783284
-0.025824983 0.14035037 -0.13497078 0.1445502 0.32076782 0.03885869 0.054758914 -0.29188573
0.14691007 -0.029728087 -0.1994727 0.112386286 -0.13061275 -0.2136594 0.05753252 0.0065670596
0.054850336 0.2829379 -0.044699304 0.20243254 -0.010054999 -0.01488105 -0.013808371 0.14455001
-0.25065878 -0.38989484 -0.23971985 0.24119423 0.33732787 0.07141761 0.12648925 0.27899408
-0.0074870214 -0.10769735 -0.059536666 0.014926605 -0.026846586 -0.0013183493 -0.021013966 0.105350986
-0.18499367 0.012475535 0.07885475 0.070538655 0.08955422 0.10575388 -0.16670543 -0.24126273

lstm.bias_ih_l0 f4 [64]
00000000: 1550 1e3e 3c50 263e 7494 01be abf9 70bb
00000010: d2d4 363e 9aeb d0bd 8ec3 c33a 0b95 1f3d
00000020: 180b dc3c df9e ccbd a29f 04bd 4873 cd3d
00000030: 3339 0dbc 7be0 af3d 30fd 80bd 10ca 793d
00000040: 0b10 493c 2b32 0b3e 330c 473e 4743 5c3e
00000050: 7f37 573e 58b0 283d 2f55 7a3e 0b94 49be
00000060: d36a 74bd 6496 76be 75a8 70bd 9515 7e3e
00000070: a71a 1f3e 1577 45be 66e4 013d 8f0a e93d
00000080: e8a3 883e 292c 063e e6cc e13d c670 8bbd
00000090: 18a7 563e 8dee 16be 57b6 be3d 26b0 9cbd
000000a0: 4cd4 51be 9aa8 85be b569 15be 1913 ee3d
000000b0: 9459 9e3d 1201 1a3e e035 53bb ebd2 513e
000000c0: 1800 c03d 78ec c63c 07af 743e 2ab5 9b3d
000000d0: f819 e0bd 0b4c b1bd e839 0e3e 2cc0 24be
000000e0: b512 6d3e 23ff 063e 0f93 03be 7353 0b3e
000000f0: 1284 86bd 4ae1 1fbe 57af 573e efbb 6e3d
0.15460236 0.16241544 -0.12654287 -0.0036769907 0.17854622 -0.102011874 0.0014935599 0.038960498
0.026860759 -0.0999124 -0.0323788 0.10031754 -0.008619594 0.08587738 -0.06298292 0.060983717
0.012271891 0.13593356 0.19438247 0.2151004 0.21017264 0.0411838 0.24446557 -0.1968538
-0.059672188 -0.24080807 -0.058754403 0.2481292 0.15537511 -0.19283707 0.03171196 0.11378967
0.2668755 0.13102783 0.110254094 -0.06808619 0.20962179 -0.14739437 0.09312122 -0.07650785
-0.20491141 -0.26105195 -0.14591105 0.11624736 0.077319294 0.15039471 -0.0032228157 0.20490615
0.09375018 0.024282679 0.23894893 0.07602914 -0.10942453 -0.08657082 0.13889277 -0.16088933
0.23151667 0.13183264 -0.12849067 0.13606052 -0.06568159 -0.15613285 0.2106298 0.058284696

lstm.bias_hh_l0 f4 [64]
00000000: a49d 13bd 081e fcbd ebcd af3d d1be 11bd
00000010: 4d0f 903d 470a 983d 7784 8a3c 495f 503e
00000020: ba19 873e 6853 833e 51b1 1fbd 6bd2 703e
00000030: 31ad 7b3e 255d d93d 4de3 973e 5599 7dbd
00000040: bb56 1f3e 6972 6dbd 53f1 33be 83d2 7b3e
00000050: 120f 5f3d 73eb 55be c166 4f3e 23e0 bfbd
00000060: 59e4 aabc eff2 80bd 391f 4f3e d2fc 60bc
00000070: 0beb 4cbe de24 de3c 8a8c 043e 7db0 3a3e
00000080: e2ac 1bbe 703d 653d 0581 553e a64d 873b
00000090: 6abe ae3d 5db5 503d 75bb 773e 7d98 3b3e
000000a0: fd07 b13d ed12 863d f1a7 473e 07d2 523e
000000b0: eab4 ed3c 6b74 b03d e228 27be a9ea 2dbe
000000c0: 200c c83e 97cb a7bc 7509 9b3d 467c a83e
000000d0: c216 4e3e 1bf5 c53d 204a 42be f8c6 2d3c
000000e0: bbca 86bd b325 d33d 7ddc 4d3e 0e56 ea3d
000000f0: c0b8 a13e e42b a0bd ce88 863d 4d46 173e
-0.03603901 -0.123104155 0.085841976 -0.035582367 0.070341684 0.07423835 0.016908867 0.20348848
0.26386815 0.2564957 -0.03898746 0.23517768 0.24577786 0.10613469 0.29665604 -0.061913807
0.15560429 -0.05797044 -0.17572527 0.24592023 0.05445773 -0.20890598 0.20254041 -0.093689226
-0.020860838 -0.06296336 0.20226754 -0.013732152 -0.20011537 0.027117189 0.12944236 0.18231387
-0.15202668 0.055966794 0.20849998 0.0041291295 0.08532412 0.05095421 0.24192603 0.18319888
0.08644102 0.065465786 0.19497658 0.20587932 0.02901693 0.08615955 -0.1632419 -0.16984047
0.3907175 -0.020482821 0.07570163 0.32907313 0.20125869 0.09665891 -0.18973589 0.01060652
-0.065816365 0.10309925 0.20103641 0.11442195 0.31586266 -0.078208715 0.06569062 0.14772911

lstm.weight_ih_l1 f4 [64, 16]
00000000: a4ff 833d 5af6 5c3d e7be 243e 9233 913e
00000010: 0b99 863e 31fa a7be 13f6 783d a648 91be
00000020: 6084 09be 5c28 b5be 7f15 76be 5ea3 0f3e
00000030: 92a8 90ba 8038 b13d d9de 4c3e 805f 9d3c
00000040: c293 8e3d cdc4 bb3e 9790 dc3d 8587 373e
00000050: 2499 913e ae6a 99bd d1cb 17be db84 b43d
00000060: d7e5 82be 5eb8 b5bc e5ae 3cbe 4d28 f13d
00000070: dc16 853e d828 58be eac5 4a3e d75a d03d
00000080: 6064 dfbd 8929 473e b1f8 983e e079 9e3d
00000090: d08f 0d3e 8512 27bc ebf7 3c3e fb8f bd3e
000000a0: 3b63 223c bbe7 573e db6b 07be a9f1 413e
000000b0: c999 0c3e 32ba 843d 8562 25be a1d8 8c3d
000000c0: 682c 453e 9c34 3c3e a45a 7b3e 0366 57be
000000d0: 1045 853d 393f bbbd 39ef 653e 1761 493d
000000e0: e390 a3bd 70f0 8e3d 6e5e 863d 0df6 753e
000000f0: d2b7 883e 56ce 253e 7d92 d53d 66b5 d03d
00000100: 45e0 8a3e ef18 a53e edee 423e 00fb 4e3c
00000110: 8556 56bd b786 dc3d 1b49 5a3e 748e bcbd
00000120: 312f e4bd af1f b3bd 007c 1fbe 7232 ee3c
00000130: 0639 7d3e ae8b 5ebe 959d b93e f820 253e
00000140: efa7 a13e ee8d 59bb 4ab1 513d fd98 db3d
00000150: dc51 89bd 5561 853e 0bf4 76bd d09a 173e
00000160: 7437 1c3e bc3a 3ebe 8a1c 05be 6b5e 8a3e
00000170: f177 3cbc 90ed 91bd 649d aa3e d600 41be
00000180: a43a a83a 1eb3 86bc 52c7 833e d0c8 19be
00000190: 268a 02be 8156 7c3e e834 a1bc f0c8 9abe
000001a0: 03c1 713e ae1c a0be 6bbe b93d 8a31 813d
000001b0: 8bfb 163e 8db2 9fbe b396 fdbc 8247 83bd
000001c0: fd89 77be 626f 5e3e 6098 a03e 72db 093e
000001d0: 5810 50be 50f1 eabd 8bb5 083e 92c0 8b3d
000001e0: e061 a0be 1573 1e3d af07 673e 3b64 82bd
000001f0: 3a14 80be 0db4 15bd 27e3 e33a f8a5 ac3e
00000200: 5c4a 03be 4e18 973e d943 3c3e 720b 94be
00000210: c27f f03c 5a21 33be 4342 21be f534 01be
00000220: a626 d53d a7de f0bd 415e a43d ba77 a53d
00000230: bfd8 bd3c 16a6 a1be 3eea 1fbd 0683 a63e
00000240: 5b97 263e 8299 923d a758 3cbe d51a 4cbd
00000250: 51a5 2d3e 0b1b 00be 67c2 2e3e ed19 f5bd
00000260: 139c 12be 5821 b6be e1ef 71bc 3bf2 893e
00000270: 61b0 5cbc a741 b7be c807 503e d2a7 d4bd
00000280: 2b6c 93be d457 ef3c c700 7b3e 4d7a 27be
00000290: bd7a 3abc 373a 5cbe 18de b33d 7aad ca3d
000002a0: 3562 0ebe 3870 ee3b 9275 fdbd 293d 37be
000002b0: 3a1c d7bd 8381 ac3e cb46 3c3c 83e8 f53c
000002c0: 4766 5b3e d08e 4d3e 1a6e 763d cb38 903d
000002d0: 05c9 48bd 010f 54bc a0c1 adbd c086 57be
000002e0: 1c5e 363d 00a9 7d3d cc17 a3bd 37c7 35be
000002f0: 1154 c93d c0c8 8bbd b964 463d b4d0 8b3e
00000300: a4d1 6ebe cf35 79be 609b c03e 360f 1cbd
00000310: c8ce 513e c730 4ebd 1036 3fbe d8d8 9cbd
00000320: 6a56 553d e7f1 033e a500 01be 858d 303e
00000330: 162f 3fbd 8d6f 373e 93d3 fb3d d000 8a3e
00000340: 427e 4a3e b968 45bd 042f 4d3e 2146 fe3b
00000350: 9306 5e3e 5201 a03d cd3e a43d fdcb 20bc
00000360: 2eae 12be 8378 c3bc 4017 25be c014 b63c
00000370: bc8f f0bd 5f36 ed3d 7aea 0ebd 1ba3 7bbd
00000380: 4474 993d 73ac 083e 3b9e babc 4869 fa3d
00000390: e2dc 7d3e c918 3ebe 8cc7 b33d ee2b f2bd
000003a0: e6a9 233e d71f 17be 48e1 c6bd b836 85bd
000003b0: 9708 663e 8580 953c 49ea 67bc ddc3 513e
000003c0: ea26 87bd 6252 a03c 51b6 86bd 306a 5ebe
000003d0: 754f a3bd a0f4 803e e5dc 89bc 004d 52be
000003e0: 2fcc 5bbd 9362 b0be dff2 aeba a39c 943e
000003f0: 7259 323e e247 c1be 65d2 81bd cfa6 563e
0.06445244 0.053945877 0.16088448 0.28359658 0.26288638 -0.32808068 0.06078155 -0.2837574
-0.13429403 -0.35382354 -0.24031638 0.14027163 -0.0011036566 0.08653355 0.20006885 0.019210577
0.06961776 0.36673585 0.10769766 0.1792279 0.2843715 -0.07491051 -0.14823844 0.08814403
-0.2556598 -0.02218264 -0.18426092 0.11775265 0.25994003 -0.2110933 0.1980206 0.10173576
-0.10907817 0.19449438 0.29877236 0.077380896 0.13824391 -0.0101972865 0.18453948 0.3702391
0.009911354 0.21084492 -0.13224737 0.18939842 0.1373054 0.064808264 -0.16150863 0.06877256
0.19255221 0.18379444 0.24546295 -0.21035008 0.06507313 -0.09142918 0.22454537 0.049164858
-0.07986619 0.069794536 0.0656098 0.24019642 0.26702744 0.16191992 0.10428331 0.10190849
0.2712423 0.32245585 0.19036455 0.012633085 -0.052328605 0.10767882 0.2131695 -0.09206858
-0.111418135 -0.087462775 -0.15574646 0.029076789 0.24728784 -0.21732971 0.36253038 0.16125858
0.31573436 -0.003319617 0.051194467 0.107225396 -0.067050666 0.2605082 -0.06029133 0.1480515
0.15255529 -0.18577093 -0.12999168 0.2702516 -0.011503206 -0.071253896 0.33323205 -0.18847975
0.0012834859 -0.016442832 0.25738007 -0.1501801 -0.12748012 0.24642374 -0.019678548 -0.30231428
0.23608784 -0.3127188 0.090695225 0.06308277 0.14744394 -0.3119091 -0.030955648 -0.064101234
-0.24173732 0.21722177 0.31366253 0.13462618 -0.20318735 -0.11471808 0.13350503 0.06823839
-0.31324673 0.03868397 0.22561525 -0.06366774 -0.25015432 -0.036548663 0.0017386422 0.33720374
-0.12821335 0.2951073 0.18385257 -0.28914982 0.029357795 -0.17493191 -0.15747933 -0.12617858
0.10407762 -0.117612176 0.0802579 0.08079477 0.023174642 -0.31572026 -0.03904175 0.32521838
0.16268675 0.071581855 -0.18393193 -0.049830277 0.16957594 -0.12510316 0.17066346 -0.119678356
-0.1431735 -0.35572314 -0.014766664 0.2694262 -0.013469786 -0.35792276 0.20315468 -0.10383572
-0.28793463 0.029216684 0.24512015 -0.16355248 -0.011381802 -0.21506582 0.087825954 0.09896369
-0.1390465 0.007276561 -0.123759404 -0.17894424 -0.10503431 0.3369256 0.011491488 0.030018097
0.21425734 0.2007401 0.060163595 0.070420824 -0.049019832 -0.01294303 -0.08484197 -0.21047497
0.044523343 0.06192875 -0.07963523 -0.17751776 0.098304875 -0.068253994 0.0484359 0.27307665
-0.23322159 -0.24336933 0.37618542 -0.038100444 0.20489037 -0.050339486 -0.18672967 -0.07658547
0.052084364 0.12885247 -0.12597902 0.17241485 -0.046675764 0.17913647 0.12296214 0.26953745
0.19774726 -0.048195574 0.20037466 0.007759825 0.21682195 0.07812752 0.08019791 -0.00981426
-0.14324257 -0.023861175 -0.1612215 0.022226691 -0.11746165 0.11582636 -0.034891583 -0.061434846
0.07492879 0.13347034 -0.022780528 0.12227112 0.24791291 -0.18564142 0.08778295 -0.11824785
0.1598278 -0.1475824 -0.09710938 -0.065045774 0.22464214 0.01824976 -0.014154979 0.20484872
-0.06599219 0.019570533 -0.06577743 -0.21720195 -0.079741396 0.25186634 -0.016828964 -0.20537186
-0.05366152 -0.34450206 -0.0013347528 0.29025754 0.17416933 -0.37750155 -0.06338958 0.2096207

lstm.weight_hh_l1 f4 [64, 16]
00000000: 5a67 623d c531 a0be ee0f 8f3d a262 653d
00000010: d7a9 aa3d f451 a1bd 2287 94bd c7fb 7bbe
00000020: 9881 563d 41d7 c7bd 6076 0abd 8139 783e
00000030: 5585 ecbd 9d27 87bd a39d 15be 6b0e 233e
00000040: d973 8a3e d269 51be 1873 753e 75af 403e
00000050: 55b3 403d f13a 783e eb91 003e 7d34 8dbe
00000060: 720d 553d 828e 5bbd b78b 95be edce 07be
00000070: 39dd 9b3d 108a 67bd 1824 113e 5594 82be
00000080: 18ac 8abc 6e6e adbe 547e 893e 459c 1e3e
00000090: 82a0 b73e f471 7cbe 25ba 223d ecaa 86be
000000a0: a96e 32be 4829 fa3d 780b 633d 1a3b b43d
000000b0: 97ad 7f3e be69 56bc 9f17 053e 4ed2 c3bd
000000c0: c43d a53d 426f cebd 082a 83bd 8549 583e
000000d0: 4a1f f7bd 79c1 8cbd 4da8 b43e 924f 8a3d
000000e0: 6875 9dbe 5e91 883e 6194 bdbd f130 e03d
000000f0: d1f4 97bc 5cff 1b3e fd1f b1bd b0c1 a4be
00000100: 7e87 ac3e 5be5 41be cee2 76be 943e 05bd
00000110: 5025 8c3d 6869 0dbe f147 c13c 558f 503e
00000120: 2dfd a8bd aaf4 73bd 6875 133e ddf9 013e
00000130: 1939 f43c d854 3a3e 2459 06be c787 8cbd
00000140: 6a62 85bd eb72 87be e3d1 be3d 4e14 1c3d
00000150: 35cc 40be 5655 71be e210 c9bd a47e e4bd
00000160: 8f7d f83d 4662 0cbe dcf1 f5bd c72c 583d
00000170: 9906 4dbe f91d febd 007e 87bd 5b43 163c
00000180: a5e7 87bd 043d 5dbe 260e 1c3e 235a 22bc
00000190: 8ba1 a93d 4d59 cdbc d5ab 243e 2f20 0d3e
000001a0: 22fd ddbd 2afd 963e 385a e63d 25cb 823e
000001b0: cce6 cd3d 480b 28be cc00 2c3e 9b0c 55be
000001c0: 5ca5 94bd 1fba 8dbd 7d0d b3bc 6b21 613d
000001d0: deb9 693e e1a9 3fbe ab70 6a3e 4dbd c73d
000001e0: b440 5d3e 3ee9 243e 72e1 65bd 8573 e53c
000001f0: 6b0d 4d3e 5e9e 473d 311d 573d 2058 723d
00000200: 4bcb 1bbe 5d8a 063e 6afb d73b 508d c53d
00000210: 05c2 873d 32e0 04be 1e02 50bd 0e1b 843d
00000220: 02ed 2dbd 12c4 c7bd 8bd4 bc3d f878 2f3e
00000230: 8093 9f3c 4fd5 eebd 06f2 793d d0d5 8bbe
00000240: 6ff8 6a3e 5a81 1a3c d945 33be 40ca ef3d
00000250: 3538 083e 094b 07be 1b1e c2bd ca57 41be
00000260: 1fd8 89be 5807 37be aea0 193c a10d 243e
00000270: 04a3 2dbc 4e0a 533e b7ad 093e 6aa7 143e
00000280: 976b 073c c440 b43c 7457 41bc 73ca 843e
00000290: 4d44 2d3e 06b1 d43d bc41 a8bd b093 bd3c
000002a0: 4348 bbbe 839a 0dbe 4195 63be dfcc 06be
000002b0: 84c0 dfbd 14dd 293e cdea cfbd b3c4 a93c
000002c0: d727 44bd 280b 563e 788a 95be ba37 ec3d
000002d0: 800e 923d 4494 f53d 2f2e 47be 7eb9 b7bd
000002e0: 512a 16be b701 0c3d e0ea 77be 5e98 75bd
000002f0: f337 aebd 3027 17be fd76 42be 6282 41be
00000300: 3f57 1a3e 6696 4ebe 54af a03e 99a5 5abd
00000310: c918 3a3e 3bd9 9cbe 08d5 4a3e 338a ecbd
00000320: a1fc 96bd d074 b63c b768 61be 580e 71bc
00000330: 7535 16bd 01c2 083e 3940 da3e 9685 4cbe
00000340: 3ade 8d3e 58ca 583d b7fa 71be 9ad8 5fbd
00000350: 8b0b fcbc 17b7 41be f31c 213e df9f f53b
00000360: 7994 89be 1b8a 44bd 9a98 1a3e e3df 213e
00000370: afe8 0f3d bd1a 0f3d 0e9b 0ebd f848 21be
00000380: 35c5 3f3e b3ad 013e 018a 113e f2c2 ae3e
00000390: 5314 6c3e b62f e4bd 18af 713e 4088 84be
000003a0: 52da 91be 6d19 0eba 4d1c 503d 1ca0 b2bd
000003b0: 0232 b83d fb37 933c 68a0 6d3c 404e a2be
000003c0: f99b 7a3e 28eb 44be f326 72be 90d5 eb3c
000003d0: c718 043e de16 113d 1718 433d 75cf 2abc
000003e0: 1121 073d 1132 6d3e f071 d63d 61b7 05be
000003f0: a289 b9bd 1861 3dbd 0faf 6cbd 2b03 053e
0.055274345 -0.3128797 0.0698546 0.056002267 0.08333176 -0.078769594 -0.07252337 -0.24607764
0.052369684 -0.09757853 -0.033804297 0.24240686 -0.115488686 -0.065993525 -0.14610915 0.15923469
0.2704151 -0.20450523 0.23969686 0.18816932 0.047046024 0.24241234 0.12555663 -0.27579108
0.052014776 -0.053602703 -0.29208156 -0.1326253 0.07610554 -0.05652815 0.14173925 -0.25503793
-0.016927764 -0.33873314 0.26854193 0.154893 0.35864645 -0.24652845 0.039728303 -0.26302278
-0.17425026 0.12214905 0.05543086 0.08800335 0.24968563 -0.013086734 0.12997292 -0.09561597
0.080684215 -0.100798145 -0.06404501 0.21121795 -0.12066515 -0.068728395 0.35284653 0.06753458
-0.30753636 0.26673406 -0.09256817 0.10946835 -0.018549355 0.1523413 -0.086486794 -0.32179022
0.33697122 -0.18935148 -0.24109957 -0.032530382 0.06843054 -0.1380974 0.023593875 0.20367177
-0.082514144 -0.0595595 0.14400256 0.12692972 0.029812383 0.18196428 -0.13119942 -0.06861835
-0.065129116 -0.26454863 0.093173765 0.0381053 -0.18827899 -0.2356771 -0.09817673 -0.11156967
0.121333234 -0.13709363 -0.12009022 0.052777078 -0.20022048 -0.124080606 -0.066158295 0.009171332
-0.066359796 -0.21605307 0.15239772 -0.009909186 0.08282765 -0.025066996 0.16081174 0.13781808
-0.10839297 0.29490024 0.112476766 0.25545612 0.10053787 -0.16410553 0.16797179 -0.2080559
-0.07258102 -0.069202654 -0.021857018 0.05496351 0.22824809 -0.18717147 0.22894542 0.09752903
0.21606714 0.161046 -0.056123205 0.028009186 0.2002465 0.048735015 0.052518073 0.059166074
-0.15214269 0.13138719 0.00659125 0.09646094 0.06628803 -0.12976149 -0.05078327 0.06450473
-0.042462356 -0.09754194 0.09220227 0.1713599 0.019479513 -0.11661779 0.061021827 -0.27311563
0.22946332 0.009430254 -0.17507114 0.11708498 0.13302691 -0.13212217 -0.094783984 -0.18881145
-0.269227 -0.17873895 0.009376688 0.16020824 -0.010597948 0.206094 0.13445173 0.14516988
0.0082653975 0.022003539 -0.011800636 0.25935706 0.16920586 0.10385327 -0.08215663 0.023141712
-0.3657857 -0.13828473 -0.22224905 -0.1316409 -0.10925391 0.16588241 -0.101522066 0.020723676
-0.047889557 0.20902693 -0.29207206 0.115340665 0.07131672 0.1199117 -0.19451211 -0.08970927
-0.1466458 0.034181323 -0.24210691 -0.05995976 -0.08506765 -0.14761043 -0.18990703 -0.18897393
0.15072344 -0.2017456 0.31383765 -0.053380582 0.18173517 -0.30634484 0.19807827 -0.11549797
-0.07372404 0.022272497 -0.22012602 -0.0147128925 -0.036672074 0.13355257 0.42627123 -0.19972834
0.27708608 0.052927345 -0.23630796 -0.054649927 -0.030767223 -0.189175 0.157337 0.0074958648
-0.26871088 -0.04798327 0.15097275 0.15808062 0.035134014 0.03493761 -0.03481584 -0.15750492
0.18727572 0.12663917 0.142128 0.34133106 0.23054628 -0.11141913 0.23601949 -0.258852
-0.28486878 -0.0005420659 0.05080824 -0.08721945 0.08993913 0.01797103 0.014503576 -0.31700325
0.24473561 -0.1923033 -0.2364767 0.028788358 0.12900077 0.0354222 0.047630396 -0.010425438
0.03299052 0.2316363 0.104709506 -0.13058235 -0.090594545 -0.046235174 -0.057784136 0.1298949

lstm.bias_ih_l1 f4 [64]
00000000: 8c6a e03d 65da 9f3e 7902 a83d 9708 a13d
00000010: 2169 26bc 8986 953e 2b8a 05be 2d7e 2dbd
00000020: 8300 5fbd 5cb5 8b3e 0412 d73c daab b1bd
00000030: 7409 c63d 9f4f 023e d928 233d e6a1 b9bd
00000040: e829 123e 801c 34be 1ed2 723b f45a 853e
00000050: df33 8ebd cf93 2d3e 12ef 2abd 2d74 8c3c
00000060: 61cb 653d c587 9f3d 62e5 f4bc c6af 0d3e
00000070: 9c9e 26be 881e 21be d1b8 573e 7a1f 19be
00000080: 1e9e 163e 7c38 123e d3cf 76bd 2c6e ddbd
00000090: 3e46 473e 8de1 2c3e 599e ac3d 3c34 c8bd
000000a0: 63e6 5d3d b322 953d e98b 0abe 640b 323d
000000b0: 4802 e5bd 5979 3d3e b49a 523c 5d1b 363e
000000c0: 85c5 a63e 5ecb 433e d669 683e ac1f ba3d
000000d0: f1fd 993d 8ac8 013e 3dbd 903c db9c bbbc
000000e0: f02b 93bd 61e4 1d3e 3c61 923e cd29 753d
000000f0: 0ef2 a6bd 658d 9b3d 0b5f fdbd c2b1 aebd
0.10957822 0.3122131 0.082035966 0.078629665 -0.010156901 0.29204205 -0.13040988 -0.04235666
-0.054443847 0.27286804 0.026253708 -0.08675356 0.09669772 0.12725686 0.039833877 -0.09064083
0.14273798 -0.17588997 0.003705151 0.26045954 -0.069434874 0.16950916 -0.0417319 0.01714524
0.05610216 0.07789568 -0.029894534 0.13836583 -0.16271442 -0.15734303 0.21066596 -0.14953414
0.14708754 0.1427936 -0.06025679 -0.10812029 0.19460389 0.16882916 0.0842864 -0.09775588
0.054174792 0.07282009 -0.13529934 0.043467894 -0.11182076 0.18503322 0.012854267 0.17783876
0.3257257 0.19120547 0.22696623 0.09088072 0.075191386 0.12674156 0.01766836 -0.022901943
-0.07186115 0.15419151 0.2858981 0.059854317 -0.08151637 0.07595328 -0.12371644 -0.08529998

lstm.bias_hh_l1 f4 [64]
00000000: 9ea0 033e dbc2 c23c a9db d9bd 1c62 0dbe
00000010: d26b ce3d 0a9e 1c3d e33f 55bd 6121 06be
00000020: 9098 063e 1b54 b83c 6ef7 813e 7875 6bbe
00000030: b984 8c3e e8e6 793e 1ecd c4bd decc a3bb
00000040: 62a2 7d3e cd80 f43c be41 35be 93f8 e8bc
00000050: bf7d 7e3e 2be6 903d a201 52be afbe 9d3d
00000060: 647c b1bd 78f3 1e3c 9b3c 34be 302e 903c
00000070: f291 27be 8053 acbb ec78 0a3e 25a1 f73d
00000080: d9dc 4b3e 7b1d f4bd fda4 063e a777 873e
00000090: acc1 2a3e 0d3a 84be cf2e d13d 4089 bdbc
000000a0: 421e ecbd c9f8 543e 3703 d6bd efde 533e
000000b0: 8847 683e 13d1 dc3d 9fb9 b5bd e798 42be
000000c0: 6028 393e db04 953d 41d5 393e 0461 19be
000000d0: fe65 483e 88bb 1d3e 77d0 753d 5301 acbd
000000e0: 9f16 a23e 19fc 423e c1db 51be 1f65 283e
000000f0: 203b 66bd 4655 2fbd 29de f6bd 6122 2abd
0.1285424 0.023774555 -0.106376 -0.13806957 0.10079159 0.038236655 -0.05206288 -0.1309867
0.13144135 0.022501042 0.25384086 -0.2299403 0.2744501 0.2440449 -0.096094355 -0.0049987873
0.24768975 0.029846573 -0.1770086 -0.028438842 0.24852656 0.07075151 -0.20508435 0.07702386
-0.08666304 0.009701602 -0.17601244 0.017600149 -0.16364267 -0.0052589774 0.1352269 0.12091283
0.19908465 -0.119196855 0.13148876 0.26458475 0.16675442 -0.2582554 0.10214006 -0.023136735
-0.11529209 0.20798029 -0.10449832 0.20690511 0.22683537 0.10782065 -0.08873295 -0.1900364
0.18081808 0.07276317 0.18147756 -0.14978415 0.19570157 0.15403569 0.06001326 -0.0839869
0.31657884 0.1904148 -0.20493986 0.16444825 -0.05620873 -0.042805932 -0.120540924 -0.041536693

lstm.weight_ih_l2 f4 [64, 16]
00000000: 80c5 19be b557 073e 028e 433e deae f93d
00000010: e1a8 d0bd 0595 4dbd a3c9 853e cd57 2cbe
00000020: 766a 5e3c b2c7 47be d3fa df3c a74c 34be
00000030: 7ba7 013d ab33 2d3e a557 74bd 6064 28be
00000040: c17a 2cbd e2eb 5cbd c5dd 51bd 9089 9e3e
00000050: 9fe7 813e db23 96bc 91e1 f23d 0e15 983d
00000060: 058f 29bd 61f8 f93b bf9e ccbd bf20 693e
00000070: 741f 49bd 23f2 8d3e 3fd6 c3bd 3a0f 90be
00000080: bd2b f83d 271e af3d 4650 923e 6562 dd3b
00000090: 37fd 15bd 1a2c 97be e685 903e cba1 69be
000000a0: 47bb 51be 7aa8 e83d 09fe 493d 0ab6 aebd
000000b0: aeeb 283e 4e9b 6e3d 7630 403e 945d 1d3d
000000c0: 3927 66be 6233 e53c 22b5 bc3e 9d58 a8bd
000000d0: 65d9 b93d 9dc1 f83d 963a bb3d 38ad 6e3d
000000e0: 16ce 463e 8865 35be d169 35be 9c04 653e
000000f0: dbc1 373d a0af 7bbe 42eb 6cbd 842d 9d3d
00000100: f2f0 08bc 8ab0 87be 426a b3bc 788d c53c
00000110: d692 fc3d ee8b fd3d f200 86bd 379c 8abe
00000120: 05c5 64be dd4d 89bd 406a 0ebe 5fdb 3d3e
00000130: abbb bf3d 4e13 e03d 093a cd3c 39d3 c43d
00000140: 01fb 1a3d 478c 47bd a571 de3e 8dfb 283e
00000150: fad1 393e 837a 493e f742 e0bc f997 b9be
00000160: 0f4a 213e 865b 05be 4bac b2be f827 31be
00000170: 1a7d 7abc 6093 24bd 6c3c 31be 51b4 bcbd
00000180: 55c4 d93d 1a52 58b8 a6ea cabe 276e 3b3e
00000190: c683 4f3e 8c00 88be aa1f 0ebd 3088 03bd
000001a0: e7e9 8cbe d91c 843e 32a1 f53d dc58 703d
000001b0: 8a79 3abe d60a b8bc 6ff3 653e 28f4 82be
000001c0: d514 653d dd25 863d 043e 443d 4879 473e
000001d0: 772a 403e 2f28 03be 2f62 fbbb ecc6 363e
000001e0: 1b86 a2bd 214a 783e 9299 373e f990 ffbd
000001f0: 748e 2ebe 9a1f 813e fb87 8d3d 8c4d 9f3a
00000200: 6063 f6bd 7596 02be cdbc debd 47df 893e
00000210: 14ea 303e 2e82 073e 558b de3c d6fa febd
00000220: 576a dfbc f9a5 b73d 6138 193e 1d17 723e
00000230: 5858 633e 4d52 7d3e 00ca 103e f13a 5f3c
00000240: 865e 0abc 56f8 26bd dad8 653d 2997 d53d
00000250: 9482 da3d da89 79be 315f 95bd 1990 6abd
00000260: 2eb3 f43c 09bd 643d 5649 61be 2b8b 46bc
00000270: 32b9 0e3e 4f71 85bc f78b db3d c293 07be
00000280: f8cd b9bd d4f2 2c3e 5134 033e b02f 03be
00000290: 5cef 823d a53c 80be 347f 4b3e 5c79 90be
000002a0: 2a33 18bd 9af3 06be 020e fabd 9aaa f8bd
000002b0: e026 64bd 7f3a 7b3d 842c 0f3e f076 d5bd
000002c0: 2be0 fb3d a3e9 1d3e 3bc7 b3bc c595 7c3d
000002d0: 213f 2dbe 8bf0 b0bd 9fc6 9a3d a49f 323e
000002e0: 265b 37bc 7a1a ccbd 65c4 053e c61e 8fbc
000002f0: d002 16bd a1aa e7bd f38f 9c3e f062 63bd
00000300: d5cb e7bc be73 a4be 39f9 813d 31ae 853e
00000310: 5cd9 1bbe 5da6 a5be bc7f 8bbd e4a5 3dbe
00000320: 5d84 5bbe 207e 90bc 8a78 aa3d aac3 843c
00000330: 673a 9c3d 21b7 2cbd 6de6 b4bd 70ed 37be
00000340: 8055 f5bd 0431 1dbe a931 2c3e bd14 853e
00000350: 5cb6 7e3e 5faa 8fbc 80d6 dcbd 0b2e 0bbe
00000360: 98d1 b4bd 42fb 433e 0aa6 5bbc 1aef 92bd
00000370: c029 593d 662b 593e 1606 873c d87a 08be
00000380: 80b4 963d 459a f0bd b3f7 ac3e 5223 623d
00000390: e121 d33d e5a1 a43a 6466 33bd 10c6 debd
000003a0: 86dd 1b3e 4553 b53e defd af3d c685 6ebb
000003b0: dc85 2f3e 42c0 623e d075 03be 9baa c53d
000003c0: fedb 16be e8de 38be c57f 723c 2e93 3fbe
000003d0: f632 b7bd f0a5 9b38 548e 5abd 1300 44be
000003e0: a541 7bbe 040f 913e e027 0f3b b24b 703d
000003f0: bdad 83bd 8164 a9bc 5084 273d bc62 adbe
-0.15016747 0.13217051 0.1909714 0.121915564 -0.10188461 -0.050190944 0.261304 -0.16830368
0.013575187 -0.19509771 0.027341282 -0.17607366 0.031653862 0.16914241 -0.059653897 -0.1644454
-0.042109255 -0.053935893 -0.051236887 0.30964327 0.25372025 -0.018327644 0.1185943 0.07425891
-0.04139616 0.007628486 -0.09991216 0.22766398 -0.04910226 0.27723798 -0.095623486 -0.28136617
0.121177174 0.08550673 0.2857687 0.0067561143 -0.036618438 -0.29525834 0.28227156 -0.22815625
-0.20481597 0.11360259 0.049314532 -0.08530815 0.16496155 0.05825358 0.18768486 0.03841932
-0.224759 0.027978603 0.36856943 -0.08220027 0.09074668 0.12146304 0.09142034 0.058270663
0.19414553 -0.17714512 -0.17716147 0.2236504 0.04486261 -0.24578714 -0.057841547 0.07674697
-0.008358227 -0.26501876 -0.021901254 0.02411531 0.12332694 0.12380205 -0.06543149 -0.27072307
-0.22340782 -0.06704304 -0.13907719 0.18540715 0.09361967 0.10941182 0.025052087 0.096106
0.037837032 -0.048717763 0.4344608 0.16502209 0.18146506 0.19675641 -0.027375681 -0.36248758
0.15750907 -0.13023195 -0.34897074 -0.17300403 -0.015288616 -0.04017961 -0.17308205 -0.0921408
0.106331505 -5.1574876e-05 -0.39632148 0.18303739 0.20265111 -0.26562917 -0.034698166 -0.0321123
-0.27522203 0.2580326 0.11993636 0.058678493 -0.18210426 -0.022466104 0.22456144 -0.255769
0.05592807 0.065501906 0.047910705 0.19479859 0.18766199 -0.12808298 -0.0076716165 0.1784932
-0.07935735 0.24247028 0.17929676 -0.12478823 -0.17046529 0.25219423 0.06910702 0.0012153848
-0.12030673 -0.12752707 -0.10875855 0.2692816 0.17276794 0.13233253 0.027166048 -0.12450187
-0.027272386 0.08967204 0.14962913 0.2364163 0.22201669 0.24738427 0.14139557 0.013624893
-0.008445388 -0.040764175 0.05611501 0.10429222 0.10669437 -0.24368992 -0.07293547 -0.05726633
0.029870596 0.05584434 -0.22000632 -0.012118141 0.13937834 -0.016289381 0.107200556 -0.13239959
-0.090724885 0.16889507 0.12812926 -0.1281116 0.063933104 -0.25046268 0.19872743 -0.2821759
-0.03715817 -0.13178864 -0.12209703 -0.12141915 -0.055701137 0.061335083 0.13981825 -0.10423076
0.12298616 0.15421157 -0.021945586 0.06166627 -0.16918613 -0.0863963 0.07557415 0.1744371
-0.011191165 -0.099659875 0.130632 -0.017470729 -0.036623776 -0.11311842 0.30578575 -0.055514276
-0.028295437 -0.32119554 0.063463636 0.2610946 -0.15219635 -0.32353488 -0.06811473 -0.18520314
-0.21437211 -0.017638266 0.08323772 0.016206581 0.07628327 -0.042166833 -0.08833013 -0.17961669
-0.119791985 -0.15350729 0.16815819 0.25992385 0.24874252 -0.017537294 -0.107831 -0.13591783
-0.08829039 0.19138816 -0.013406286 -0.07174511 0.05301833 0.21207961 0.016482394 -0.13328111
0.073586464 -0.117481746 0.3378273 0.055209465 0.10309196 0.0012560455 -0.04379882 -0.10877621
0.15221223 0.35415092 0.08593343 -0.0036395653 0.17140907 0.22143653 -0.1283791 0.09651681
-0.14732358 -0.18053782 0.01480097 -0.18708488 -0.08945267 7.421884e-05 -0.05335839 -0.19140653
-0.2453676 0.2833177 0.0021843836 0.05866594 -0.06429622 -0.020677807 0.040897667 -0.3386439

lstm.weight_hh_l2 f4 [64, 16]
00000000: 16d3 3dbe dca4 273e 5759 93bd 33bd 883d
00000010: 15c1 983c 42b1 d7bd 47d7 023e f2ef 62be
00000020: 7518 1a3e 1e25 eb3c 040e 6abe 5758 24bd
00000030: 5803 20be f31e 6d3e 3b9e 8ebe b078 12be
00000040: ba01 233e ab63 9cbd 0428 3a3d 60b1 b83e
00000050: 4dae 7b3e d043 2dbe 95c5 d2bc 9ef6 e63d
00000060: 3337 14be ffd8 373d 8951 4e3c 8dcd 53be
00000070: 9541 143e ac27 983e d3ba 903d bf76 aa3e
00000080: a743 8f3d 3a64 debd c459 203e 3386 95bd
00000090: 166c 913d 84ab a0be a056 09be 1ec6 06be
000000a0: 66d1 843d 7488 1fbd 246b 5abe fdc1 a7be
000000b0: 20ca 82be 0436 c6bd fe74 2abe 244e c33d
000000c0: d001 a0bd 11d2 b73d 9349 8f3c f1d1 853d
000000d0: 60c7 1e3d b427 cabd 7e46 fdbb 0c00 6abe
000000e0: 5891 933d c17f 203e 6a40 65be 9810 71bd
000000f0: 2aca 86be 694e 933c 9378 f1bd 5f27 7b3d
00000100: 171a 4f3b 77b3 033e 4859 cfbc 9792 4ebc
00000110: 3eb4 8b3d d450 96be dce5 543b d4cd ab3d
00000120: 1fef 5abe 0ca5 62be 0ece 313a eaae 80be
00000130: 4243 7ebd aa45 0abd 87f6 163e 900f 773d
00000140: 3178 78bd a5bb 83be 66ac 793d 3bde 383c
00000150: 561a 373e 88fb b4be 13f0 ffbd 6c8b 9bbe
00000160: 9af5 4cbe a4c0 bb3d 03c0 503e 6eb6 203e
00000170: cc35 83bd b78e 283d cf68 08bd 3c08 853e
00000180: e6e9 a03e ef85 b83e 9aa7 ed3c e794 ee3d
00000190: 45bd 48be 0bd6 ea3d 43e4 78be baae 3c3c
000001a0: 2b34 61be 88dd 063e 7540 073d 6d74 63be
000001b0: 959c 3f3d 2aad d8bc 20bb ac3e 4fae aa3d
000001c0: 3322 3dbd 4004 75bd cb5c 933e d5d6 993e
000001d0: 6a17 c53d 390e 6cbe 8b18 af3d c990 533d
000001e0: c0c7 58be da33 93be 1953 71be e817 a63d
000001f0: 4f29 2bbd 4898 17be 4562 583e eb6f 3abe
00000200: 66f6 8ebc 105c 9c3e 8889 bb3e 431f 3abd
00000210: a1bb 57be 2f34 60be 0546 003e 0bde 5dbe
00000220: a958 863c 5dad 6b3d 6625 093e 91f5 b8bd
00000230: 8e3c f5bb 772e a33d e9c1 dc3d f2da 8bbd
00000240: 392f 0c3e cf63 913d 6ef3 d7bd 91bb 233e
00000250: f956 983d 608b 75be 4136 15be 6fca a93d
00000260: 79f8 18ba af28 293e c895 bfbb 702b c93d
00000270: e500 cf3d a45f 003e b1c7 c03d 3c0f 1e3d
00000280: d127 113e ba10 833d 084a 923e 64b1 5b3d
00000290: 29b5 d03c c690 f1bd 739e 19be 0f23 573d
000002a0: 5f61 8dbe c767 24be 9a7c c43d 328e 0d3e
000002b0: 9fe9 b23d 6ea0 cd3d 761f 00be 88d1 d7bd
000002c0: 6b67 553e 8590 bf3e 97b7 cdbd 0bae d6bd
000002d0: 0eb0 94be 583a 133d fdbb 0c3e 8fe4 a8bd
000002e0: 3170 3fbe 7a10 1ebe 6391 ac3d fb0c 67be
000002f0: 705a 99be 549b 7b3d 8681 973d df5a 99bb
00000300: e7e8 c6bc fbf3 00be 219a 353e 34f8 ef3c
00000310: 85be 863c c615 223e 1a2b a0be 2eae b4bd
00000320: e44d 293e fb56 0ebe 35da 263e 19e3 383d
00000330: 3394 8dbc c3b1 423e 8fe3 9e3d e554 ffbd
00000340: aa4a 60be bb06 afbc 9dbf 503e 6f62 823d
00000350: 8691 3abd d962 cdbd da78 36be 695a 04be
00000360: aa85 cd3c 54b0 11be 240c b73c 6053 1e3d
00000370: 3878 71be 4228 683e 95ed a0bb 3421 45bc
00000380: 5851 023e 3155 473e 3823 05be e06f 043e
00000390: d8c9 8dbc 291b 12be 13e1 a93d c0e9 f73d
000003a0: 8265 abbe 50a8 c0bd 1d06 aebd b4d6 b5be
000003b0: 85e1 27bd f480 8d3e d1bd 053d f173 a53e
000003c0: 30dc 89be ddbc 1cbd 6dfe af3e 49be b93c
000003d0: fc24 af3d c13f 113e 2bd3 e63d 99a4 4dbe
000003e0: e039 c3bc a672 963d 2ca2 2c3e 661a acbd
000003f0: b52d 01be 7e86 2b3d de8c 93bd f39c 08be
-0.18537554 0.16371483 -0.071947746 0.06676712 0.018646756 -0.10531856 0.12777434 -0.22161844
0.15048392 0.028704222 -0.22856909 -0.04012331 -0.15626276 0.23156337 -0.27855095 -0.14303851
0.15918627 -0.07636198 0.045448318 0.36072826 0.24578209 -0.169204 -0.02572898 0.11277507
-0.14474182 0.044884678 0.012592682 -0.2068388 0.14478143 0.29717767 0.07066884 0.3329372
0.069953255 -0.108589604 0.15659243 -0.07300987 0.07100694 -0.31380856 -0.13411951 -0.13161513
0.06485252 -0.03894849 -0.21329933 -0.3276519 -0.25544834 -0.096782714 -0.16646191 0.095363885
-0.07812846 0.08975614 0.017491138 0.06534184 0.038764358 -0.09870854 -0.0077293506 -0.2285158
0.072054565 0.15673734 -0.22387853 -0.058853716 -0.26326114 0.017981725 -0.11790576 0.061316844
0.0031601244 0.12861429 -0.025311127 -0.012608192 0.06821488 -0.29358542 0.003248564 0.08388868
-0.2138028 -0.22133273 0.00067827187 -0.2513345 -0.06207586 -0.033757843 0.1474248 0.060317576
-0.0606615 -0.257291 0.060955428 0.011283453 0.1788114 -0.35348153 -0.124969624 -0.30379808
-0.20015565 0.09167603 0.20385747 0.15694591 -0.06406745 0.04115173 -0.03330308 0.25982845
0.3142845 0.36039683 0.029010583 0.116494946 -0.1960345 0.11466607 -0.24305825 0.011516267
-0.21992557 0.13170445 0.033020455 -0.22212382 0.046780188 -0.026449759 0.33736515 0.08334028
-0.046175193 -0.059818506 0.28781733 0.30046716 0.096236065 -0.230523 0.08549603 0.05165175
-0.21169949 -0.28750497 -0.23566855 0.081100285 -0.04178744 -0.14804184 0.21131237 -0.18206756
-0.017451476 0.30538988 0.36628366 -0.04543997 -0.21067668 -0.21894906 0.1252671 -0.21666734
0.016399698 0.05753838 0.13393173 -0.09031213 -0.0074840253 0.07967847 0.10779173 -0.0682887
0.13689889 0.07099115 -0.105444774 0.1598952 0.07438464 -0.23978949 -0.14571477 0.08290564
-0.0005835365 0.16519426 -0.0058467127 0.09822738 0.101075925 0.12536484 0.09413088 0.038588747
0.14175345 0.06399675 0.28572106 0.05363597 0.025477009 -0.117951915 -0.1500185 0.05252367
-0.2761335 -0.16055213 0.09594078 0.13823774 0.08735966 0.10040365 -0.12512001 -0.10538012
0.20840232 0.37414947 -0.100447826 -0.10482415 -0.2904057 0.035944313 0.13743587 -0.08246719
-0.18695141 -0.15435973 0.08426168 -0.22563545 -0.2995181 0.06142743 0.073977515 -0.004680022
-0.024280978 -0.12593071 0.17734577 0.029293157 0.016448269 0.15828618 -0.31282884 -0.08822285
0.16533619 -0.13900368 0.16294177 0.045138452 -0.017282581 0.19013123 0.07758247 -0.12467364
-0.21903482 -0.021365514 0.20385595 0.06366431 -0.04554894 -0.10028619 -0.17819539 -0.12925114
0.02508815 -0.1422742 0.022344656 0.03865373 -0.23581016 0.22671607 -0.0049111345 -0.012031842
0.12726343 0.19466092 -0.13001716 0.12933302 -0.01730816 -0.14268173 0.082948826 0.12105131
-0.33475882 -0.09407103 -0.0849726 -0.35515368 -0.040986557 0.27637446 0.032651726 0.3231502
-0.26925802 -0.03826605 0.343738 0.022673743 0.08551976 0.14184476 0.11270746 -0.2008232
-0.023831308 0.07346086 0.16858739 -0.084034726 -0.12615092 0.04187631 -0.07204603 -0.13341121

lstm.bias_ih_l2 f4 [64]
00000000: 8edd b1bd 2921 193e 97b0 1f3e 045d 1f3e
00000010: 3a0e a43e 358b 463e 2998 46be b4a2 ca3d
00000020: a163 9d3e a711 7f3e 35a2 a13e 807b 73bd
00000030: 82a5 2cbd 0df7 ffbd 5d9f b73c a789 91bc
00000040: 537d a3bd 6cee 8e3b 075d 88bd 80d0 16be
00000050: 8e5b 30bc 7e04 173d 6212 ad3d a942 91bd
00000060: e93c 223e 6f04 373e 6cbd afbd 52d7 943d
00000070: 79c5 133b d5e1 ffbd d2e3 683e 4389 49be
00000080: d68c cebd e417 363e f0ce b43d 7d47 343e
00000090: 7117 06be 61f0 e43c 17e8 22be eb97 cd3d
000000a0: 021d 0ebe c7f2 6ebe e255 eb3d 26d0 413d
000000b0: 4680 60be 5545 6b3e 7392 24be 21c7 7fbd
000000c0: b254 df3d 9ad3 e7bd e662 ae3e ede5 1a3e
000000d0: 11a4 5b3e e4a0 393e af75 c0bd 1e10 353e
000000e0: af96 a53e 1db6 8f3d 0126 3f3e bb46 3fbc
000000f0: 7c06 6a3e d542 993e 12ac 183d 8b3b afbc
-0.08684836 0.14954056 0.15594707 0.15562826 0.32042104 0.19389041 -0.19393982 0.098943144
0.30740073 0.24909078 0.31569067 -0.05944395 -0.042150028 -0.12498293 0.022414858 -0.017765833
-0.07982888 0.004361918 -0.066583686 -0.14727974 -0.010764016 0.03686952 0.08450772 -0.070927925
0.15843548 0.17872785 -0.08581051 0.072676316 0.0022548123 -0.12494246 0.22743157 -0.19681267
-0.10085456 0.17782551 0.08828533 0.17605396 -0.1309488 0.027946653 -0.15908848 0.10038742
-0.13878253 -0.233348 0.1149099 0.047317646 -0.21923932 0.22975667 -0.16071491 -0.062445763
0.10904826 -0.11319657 0.3405983 0.15126772 0.21449305 0.18127781 -0.09397446 0.1768193
0.32341525 0.07017157 0.18666841 -0.011674578 0.22854036 0.299338 0.037273474 -0.021390697

lstm.bias_hh_l2 f4 [64]
00000000: 63c9 ac3d 9e5f 0f3e f371 f63b 6a4a 143c
00000010: daf3 8e3e 02f8 57bd 2ec0 33be a460 b6bd
00000020: 271a 723e b3b2 063e 868e 103e fb0c b2bd
00000030: 9b55 0abe 6ebd 943e a7c8 073d 5699 23bd
00000040: 9328 d0bd 934f f1bd c7b7 d43d c939 383d
00000050: 974e a33c b555 02be 4130 a9bc 00c6 14be
00000060: 6543 b63d e9a1 383e c32c 8c3d d5b6 083d
00000070: cc03 9cbd c20c a23a 3e9a 38be dfcf bb3c
00000080: ff59 c4bd 4263 7d3d 0c59 1e3e 088e 083e
00000090: cd87 e53d d863 2cbe 7efd dcbd 9c0d 81be
000000a0: b4c8 c53c a667 bfbd 880f fc3c 98e6 44be
000000b0: b20b 473e 8623 1e3e a930 35be 980d ca3d
000000c0: 83cc e43d dd64 9f3e 26be 953e f19d ec3d
000000d0: 116f bfbd 9ff2 8e3e c1e6 9d3e 953f 563e
000000e0: b45d 353d c09d 993e 9e1e 433c 02c0 873e
000000f0: 5d74 7a3e 0e2b 35be dc45 b23d 6805 3cbd
0.08436849 0.14001319 0.007520908 0.009050945 0.2792042 -0.052726753 -0.1755378 -0.089051515
0.23642789 0.13154106 0.14116868 -0.08693882 -0.13509218 0.29050773 0.03315034 -0.039941154
-0.10163989 -0.11782756 0.10386615 0.044976983 0.019934935 -0.12728007 -0.020652892 -0.14528656
0.08899573 0.18030514 0.06844475 0.033377487 -0.07617912 0.0012363421 -0.18027589 0.02292627
-0.09587478 0.061862238 0.15463656 0.1333543 0.112075426 -0.16834962 -0.10790537 -0.25205696
0.024143554 -0.09345941 0.030769125 -0.1922859 0.19438055 0.15443239 -0.17694344 0.09865874
0.1117182 0.3113164 0.29246634 0.115535624 -0.09347356 0.2791948 0.30840114 0.20922692
0.044278815 0.30003166 0.011909155 0.26513678 0.24458452 -0.17692205 0.08704731 -0.045903593

lstm.weight_ih_l3 f4 [64, 16]
00000000: f4f7 023e 6c4a 25bd 80a2 0c3e 3caa 5c3e
00000010: c150 663d bda1 383c 20ec 4ebe 3138 7bbe
00000020: 101f 003d 2a7d d6bc a699 1fbe d98f 90bd
00000030: 95e2 4fbd 2c46 283e ef65 b3bd 4af1 5b3d
00000040: b6ea 24be e23f a6bc e425 923e 56ff 183e
00000050: fdb8 e23c 618b 543d 30ef 0b3e 09d9 5a3d
00000060: 3ca8 2ebe 2bb9 083d 0351 85bd 8aee 09bc
00000070: 4cbb 773c 92fc a1bd 5f04 41bd 7d31 353e
00000080: 1140 9e3e c5c8 c83d d91c 843d 1b58 d6bd
00000090: 343c dcbc 684b 3f3e 2c41 45be 2e0c f7bd
000000a0: f1bc 973d a388 4ebe c586 a7be 3acc 87be
000000b0: 921e 94be 819c cd3c 546a 983e 744e 01bd
000000c0: 2dd5 4cbe 99fd 5f3b 1c9f 953e cb84 fc3d
000000d0: 4968 0fbe 7223 e1bd df26 6fbe eb38 babc
000000e0: cb7b 5a3e 4cd4 14be ab98 e8bd 589e 453e
000000f0: a830 81bd da1e 333d 5fc3 e43d cf42 38be
00000100: 3589 0c3d c4df 3c3e 7875 9cbd a3d1 243e
00000110: 259e 6dbe 94a9 ab3c 7493 e53d 3de3 32be
00000120: 930c 66be 9fcd ed3c fd47 70bd b8d3 e4bd
00000130: 16f7 003e 75e9 c9bd f104 d7bd 5a67 0bbe
00000140: 54fd 133e 408b 653e 5991 99bc b6e9 193d
00000150: 0f28 c53d d7a1 193e e117 f53d 353f b8bc
00000160: 2a45 abbe 39c9 3ebe cf2c a9be 467b 85be
00000170: 061a 8fbc 8105 40bb 7354 913d beb9 3fba
00000180: bb82 5dbe 2c6e e1bd 0d80 383e 142f 87bd
00000190: 5ca5 47be 24a6 9abe 1447 bb3d 0ac6 aebe
000001a0: 23e9 70bd fabc ae3d 6db5 8dbe 8046 00bd
000001b0: 328c 9d3d b3cb cebd a509 e2bd c003 3cbd
000001c0: e5a3 5ebe 16c9 403e b443 82bd 47ca a43d
000001d0: cc4a 86be 5447 49be abc5 00be 31a7 943d
000001e0: 793e 07be adf7 fcbc 2ff0 cb3d 5321 0abe
000001f0: 687e 28be ebb7 773e 8cb6 f43d 3cf0 4fbd
00000200: 3071 803e 0377 213d 0933 973e 7bd4 2cbe
00000210: f8b3 4fbe da4d b33d 11c8 54be 4033 97be
00000220: a7f7 5abd 43ef 883d 73d5 aabd eb15 8cbe
00000230: 7587 4bbe 69e2 c8bd 0624 d43d 55e5 f4bd
00000240: fde0 8bbe 9be8 72be 17c2 1b3e 5884 a83e
00000250: 47e3 243e e8e7 1fbd 7a34 133e 875c 02be
00000260: c5bf 0f3c d0d4 1ebe 409d 68be 924a 413e
00000270: 1ea2 683b 42ec 3e3c c796 afbd eb15 803e
00000280: 3e36 2dbe b9a4 ebbd c5d5 6c3e 48ae d6bd
00000290: b632 66be 74e4 86be 2edf 90bc dc1f 10be
000002a0: 42a3 f1ba 20c0 97be ce03 b6bd f6c9 1a3e
000002b0: 9779 70be bee1 dbbd 4e92 57be 13c2 b73c
000002c0: d58d c7ba efd3 e33d 8c71 423e d869 0bbd
000002d0: 1e52 143e 445d a8be e5a0 36be 8a0a dd3d
000002e0: 161b 6cbd 6f5e f0bd fb06 6fbd 4b1a 7dbe
000002f0: 1b22 b53d 6081 8f3e fe42 1ebc 0e85 a23d
00000300: cbe7 303e a320 033e 2f59 943e 8227 15be
00000310: 5745 413d 1c88 19be 9a1a 78be d80a 88be
00000320: fc64 94bc 2bac 16bd ea7f d43c 5b03 27bd
00000330: bbc3 5bbe ecdb 623d 1ea2 fcbd 9a70 33be
00000340: ce40 f93d 83d2 98be dafe 653e 8536 10bd
00000350: f34e 18be d6ff 22be eb81 93be 252f 383d
00000360: d358 723e a071 723d 0139 9bbd 8be9 07be
00000370: de93 0d3d 1857 083d 4c27 943d d938 08bd
00000380: 665c 1f3e 1800 173e c5a2 833e 8aca d53d
00000390: 0974 97bd 523d 21be 21e6 263e 43f2 f4bd
000003a0: bafd 62bc a228 6d3b c738 4fbe 93d3 3cbe
000003b0: 9430 243b d650 033e d30e 7b3d 2419 143e
000003c0: c280 2b3e 96c3 b53d e3b0 8fbd 415e 8f3e
000003d0: 5675 903d 963a 0ebe 0709 3cbd a0b3 41bc
000003e0: f309 273d f013 fbbd 5a9a be3b 98d0 a0bc
000003f0: 4d26 3ebe 1e5e f4bd 8f22 40bd 3355 453e
0.12789899 -0.040354177 0.13733864 0.21549314 0.056229357 0.01126903 -0.20207262 -0.24533154
0.031279624 -0.02618273 -0.15585956 -0.07058687 -0.050753195 0.16433018 -0.08759677 0.053696908
-0.1610516 -0.020294134 0.28544533 0.14941153 0.0276761 0.051890735 0.13665462 0.053429637
-0.17056364 0.033379715 -0.065095924 -0.008418689 0.015120339 -0.07909502 -0.04712331 0.1769466
0.30908254 0.09803919 0.06450815 -0.104660235 -0.026884176 0.18681109 -0.19263142 -0.1206287
0.074090846 -0.2016931 -0.32720008 -0.26523 -0.28929573 0.025099041 0.29768622 -0.03156896
-0.20003195 0.0034178256 0.29222953 0.12330016 -0.14004625 -0.10993089 -0.23354672 -0.022732219
0.21336286 -0.1453411 -0.11357244 0.19298685 -0.063081086 0.043730594 0.111700766 -0.17994235
0.03431054 0.18444735 -0.07639593 0.16095595 -0.23204859 0.020954885 0.11209765 -0.17469497
-0.22465734 0.029028712 -0.058662403 -0.11173195 0.12594256 -0.098589815 -0.104989894 -0.13613644
0.14452106 0.22416401 -0.018746065 0.0375764 0.09626781 0.15003143 0.11967445 -0.022491077
-0.33451205 -0.18631448 -0.33042 -0.26070613 -0.017468464 -0.0029300156 0.070961855 -0.00073137495
-0.21631901 -0.11007342 0.18017597 -0.06600776 -0.19496673 -0.3020488 0.091444165 -0.34135467
-0.058816087 0.08532138 -0.2767748 -0.031317234 0.07692756 -0.10097446 -0.11036996 -0.045902014
-0.21742208 0.18826708 -0.063605696 0.08046394 -0.2622894 -0.19656116 -0.12575404 0.07258452
-0.13207425 -0.03087982 0.09957921 -0.13489275 -0.1645447 0.24191253 0.119488806 -0.050766215
0.25086355 0.03942014 0.29531124 -0.1687793 -0.20283496 0.087550834 -0.20779444 -0.29531288
-0.053458836 0.066862606 -0.083414935 -0.27360472 -0.19875892 -0.09808809 0.103584334 -0.11957804
-0.2732009 -0.23721544 0.15210758 0.3291347 0.16102324 -0.039039522 0.14375487 -0.12730609
0.008773749 -0.15510869 -0.22716236 0.18876103 0.003549702 0.011653008 -0.0857368 0.25016722
-0.16915223 -0.11506028 0.23128422 -0.1048246 -0.22480282 -0.2634617 -0.017684545 -0.14074653
-0.0018435495 -0.29638767 -0.088874444 0.15116104 -0.23483883 -0.10736416 -0.21051905 0.022431409
-0.0015224764 0.111244075 0.18988627 -0.034036487 0.1448445 -0.32883656 -0.17834814 0.10793026
-0.05764302 -0.11736762 -0.058356266 -0.24717061 0.08844396 0.28028393 -0.009659527 0.079355344
0.17275922 0.12805419 0.28974292 -0.14565852 0.04718527 -0.14993328 -0.24228898 -0.26570773
-0.01811456 -0.036785286 0.0259399 -0.040774684 -0.21461384 0.055385515 -0.12335609 -0.17523423
0.12170564 -0.29848108 0.224605 -0.035208244 -0.14873867 -0.15917906 -0.28810057 0.044966836
0.23666696 0.059190392 -0.07579232 -0.13272683 0.034564845 0.033286184 0.07234058 -0.03325734
0.15562591 0.1474613 0.2571012 0.10439022 -0.07395179 -0.15746048 0.16298725 -0.1196027
-0.013854438 0.003618755 -0.20236503 -0.18440084 0.002505337 0.12823805 0.061293434 0.14462715
0.16748336 0.08875196 -0.0701616 0.28001598 0.0705363 -0.13889536 -0.045907047 -0.011822611
0.040780973 -0.12259662 0.00581674 -0.019630715 -0.18569298 -0.11932014 -0.046907958 0.19270782
