checkpoints/model_weights_epoch_5.pt (torch, 36335 bytes, 18 tensors)

lstm.weight_ih_l0 f4 [64, 1]
00000000: a0d5 1abd 14ca e13c f469 f33d cc17 4f3e
00000010: 8d2e bf3c 1f4a 2e3e 2dac b43d cb1b 1b3e
00000020: 803b 7bbe f9ef 603e 7804 ee3d fce8 ffbd
00000030: 420c 3c3d 6cfe 03be f836 c6bd a8d3 48be
00000040: 334c ee3d 901c 533d 98c2 22be 1118 9a3e
00000050: 0a2a ddbd 56fb 84bd 7c8f 5ebd b631 18bd
00000060: 2ea3 9abd a57f e43d d8ba 29ba 61c7 603e
00000070: 750d 343e 0536 1b3e a688 043e a3ff 96be
00000080: d589 f23d 76fb 4b3e 8470 63bb 6dea 16be
00000090: cd08 3c3e 9f59 d3bd d90c 5ebe 3e91 71bd
000000a0: 4215 883e 8b3f 62be 971d a23d f8b2 f2bc
000000b0: 926b 70be 96e9 34be d6a8 e43c 0c3f 48be
000000c0: 872a a63d 37b8 853b 20c0 73bd e477 4d3e
000000d0: da60 063e d4bc dabd 0fa6 a83d 918a 8cbe
000000e0: c6fa 4b3a 73a6 533e 96ba 7dbd a6ed 04be
000000f0: cdc4 753e 3400 083d 190e 06be dcf5 8dbe
-0.037801385 0.027562179 0.11885443 0.20223922 0.023337627 0.17020462 0.088219024 0.15147321
-0.24534416 0.21966542 0.11621946 -0.1249561 0.045910127 -0.12890023 -0.09678453 -0.1961199
0.116356276 0.05154091 -0.15894544 0.30096486 -0.10799034 -0.06493251 -0.054336056 -0.037156783
-0.07550655 0.11157159 -0.000647468 0.21951057 0.17583258 0.15157326 0.12942752 -0.2949191
0.118426956 0.19920143 -0.0034704516 -0.14737864 0.18362732 -0.10319828 -0.21684588 -0.058976404
0.26578718 -0.22094552 0.079158 -0.029626355 -0.23478535 -0.17667231 0.027912538 -0.195553
0.0811358 0.004080798 -0.059509397 0.20065266 0.13122883 -0.10680547 0.08234798 -0.27449468
0.00077812036 0.20668964 -0.06194552 -0.1298128 0.24000855 0.03320332 -0.13091315 -0.27726638

lstm.weight_hh_l0 f4 [64, 16]
00000000: f34d 43be 1161 46be a4ba 3e3c 5472 213e
00000010: f6d9 71be 41f9 83be 94f3 2bbe 2d06 ec3d
00000020: c18e 4cbd 2a05 36be 9015 80bc 326d 90be
00000030: d50c 51bd 4d5e 073e ce9a 3bbe 31cc 313e
00000040: cc39 ef3d 4f31 c43d 0877 8dbe 55f3 15be
00000050: 8966 6fbe 3b5e e33d 8a61 213e 04a5 01be
00000060: 0275 94bd dc90 033d c0c6 17be cfcc 0bbe
00000070: e05c 533e 029a 463e a7e4 083d 9644 1fbe
00000080: d350 303d 0c66 94bd 066b 89bc 5dcf 7abe
00000090: 6ba1 8d3c fc90 713e 07b3 afbd f07f 86be
000000a0: 69e2 21be 0f3a 1f3e 17b1 413e 8ee9 d9bd
000000b0: 0613 debd 7648 a03d 8be6 83bc f7d0 acbd
000000c0: c598 04be 5c1d 0a3e 012d 393e 153c d63d
000000d0: e2c8 47be 2b40 3cbe 0a2e 2cbe bcf9 323e
000000e0: 421c 703c 935b c0bd 5775 883d 540e 053e
000000f0: 8deb 87bc 230a 373e 6b75 863d 4880 3cbe
00000100: 39f4 7fbe 7917 0bbe f370 99be 1426 8dbd
00000110: 3aa7 8ebe 4fd6 513d 59db 613e 9e7c 5f3e
00000120: 5e2e 333b 8dc5 4b3e cae4 673e ed3d 9abd
00000130: 5833 203d e1de 46be 0e64 c4bc 2a76 783e
00000140: b738 70bd 793e e53c 17c4 79be 5341 f4bc
00000150: 6a29 64be 57ba 40bd a58a 19bd 43cd 523e
00000160: 5d67 3f3c fe8b 08bb 482d 54be 7cf1 093e
00000170: 1356 03be e812 183e 435a 883e 6255 c0bd
00000180: 8cc4 7fbe 7e48 b7bd bbb2 eebd 3ab6 793b
00000190: bc99 2cbe 2317 febd 7d90 11be 6054 863e
000001a0: 2184 f13d 9cc2 73be a766 5d3d 7ec1 8bbd
000001b0: 8544 c9bd c462 77bd 1004 8ebd 66d9 7abc
000001c0: f2f4 24be dee3 e4bc f4d8 84be 16a6 923e
000001d0: 3511 05be 5a24 333d 2e59 48be 884a c4bd
000001e0: d30e 403e 2604 833e b8bd 343e 4e87 de3b
000001f0: ed8d 523e 7c1e d83b 67b3 61be cb8c 69bd
00000200: e394 343e 6449 89bd 4407 ffbd 1d0e c8bd
00000210: 826c 1bbe 08f8 733d 546f 3cbe 3675 d7bd
00000220: e3e8 4fbe 4895 9d3d 018b 1a3e 3326 bbbd
00000230: 004f d43d c266 653e b5c0 10be 9a33 8b3e
00000240: 5284 8f3e 049f 853d b306 b43d 048b 8dbd
00000250: c7bf 09be fd51 6ebe d07e 2a3d ada7 0a3c
00000260: 8e2e 74be 8c00 8abe 9553 42be 15d5 a6bc
00000270: a07f 8ebe 4e64 293e b7bb 403e a060 473e
00000280: 08a1 3ebe 155e ce3d 0b92 21be 0d15 56bd
00000290: 6c55 723e 95a3 c53d 61fa e0bd df41 1dbe
000002a0: 3a03 463d e781 e9bd 7ef7 f13c 25fb 8abd
000002b0: ecf0 b03d cb7e 95be 062b 35bd 1e31 d23d
000002c0: 1949 8b3e a3f1 3abe cce4 0fbd dc17 b9bd
000002d0: b5ff 24be 0cac 5cbe f0bf e43d 8149 bfbc
000002e0: 8a85 7c3e fbd7 df3d 1569 91bc 3629 3a3d
000002f0: e8c2 bd3d 65f9 bdbd 8445 0b3e f334 39be
00000300: 204b b4bd ea43 90be 3470 c3bd 478e 87be
00000310: 36c2 b13d cdd2 f0bd 51b9 253e 6b99 253e
00000320: 1cb5 cfbd d9b5 a1bd 5304 803e 4fc3 0b3e
00000330: f4ab e1bc 5cf1 223e 0dcc b13d a2e5 3b3e
00000340: 8fae 46be ada7 4ebc e440 25bc 6b56 5abe
00000350: 1dcb c0bd 19ce eebc 234f 333e d09d 0dbb
00000360: c41b 563e fd65 00be ba3f 803e 1379 8abd
00000370: 60b2 313d 457e 04bd 57d9 38be 21af 15be
00000380: 323a 33bd a9a0 db3b 41a6 483d b7e4 f43d
00000390: a986 a03d 2d6b 8abd 3f25 893e 3284 da3d
000003a0: 72c7 9b3d b83a 843e 5741 6bbe 6a58 703e
000003b0: fd71 11be 97e4 123e 2336 8ebd e68a 00be
000003c0: 3fde 95be 9c0e 85be 6f14 4c3d 1083 fcbd
000003d0: 39c3 ab3d 9218 4a3d dd13 1abe a150 833d
000003e0: b04b 51bd d28a 05be 1ea9 b9bd c930 edbd
000003f0: 7882 9f3d 20b5 693e af89 b13d c5d0 86bc
-0.19072704 -0.19372965 0.011641178 0.15766269 -0.23618302 -0.25776103 -0.16792136 0.115246154
-0.04994083 -0.17775407 -0.015635282 -0.2820831 -0.05103763 0.13219567 -0.18320772 0.17363049
0.11680946 0.09579717 -0.27629876 -0.14643605 -0.23378958 0.111019574 0.15759864 -0.12660605
-0.0724888 0.03212057 -0.14821911 -0.13652347 0.20640898 0.19394687 0.033421185 -0.15553507
0.04304583 -0.072460264 -0.016774666 -0.24493165 0.017288884 0.23590463 -0.08579069 -0.26269484
-0.15809025 0.15549491 0.1891521 -0.1064025 -0.10843472 0.07826321 -0.016101142 -0.084382944
-0.12948902 0.13487762 0.18083574 0.104606785 -0.19510224 -0.18383853 -0.16814438 0.17478079
0.014655175 -0.093924664 0.06663006 0.12993747 -0.016591812 0.1787496 0.065653645 -0.1840831
-0.24995507 -0.13583173 -0.29968986 -0.068920285 -0.2786196 0.05122977 0.2205633 0.21824881
0.002734087 0.19899578 0.2264587 -0.07531343 0.039111465 -0.19420959 -0.023973491 0.24263826
-0.058647837 0.02798389 -0.24391209 -0.029816305 -0.22281423 -0.047052708 -0.037485737 0.20586114
0.011682359 -0.0020835395 -0.20720398 0.13471025 -0.12825803 0.14850962 0.26631364 -0.093912855
-0.2497732 -0.08949374 -0.11655184 0.0038103 -0.1685552 -0.12406757 -0.14215274 0.26236248
0.1179278 -0.23804706 0.054052975 -0.06824015 -0.09827522 -0.060396925 -0.069343686 -0.015310621
-0.16109064 -0.027940687 -0.25946772 0.2864234 -0.12994845 0.04373584 -0.1956527 -0.09584528
0.18755655 0.25589103 0.17650497 0.006791032 0.20561953 0.006595431 -0.22041093 -0.057019036
0.17634921 -0.06703451 -0.12452558 -0.09768317 -0.15178111 0.059562713 -0.18401843 -0.10520403
-0.20303683 0.07694489 0.15092088 -0.09138145 0.103666306 0.2240248 -0.14136012 0.27187806
0.2803064 0.065244704 0.0879034 -0.06911281 -0.13452064 -0.23273464 0.041624844 0.008462829
-0.23845884 -0.26953542 -0.18977197 -0.020365277 -0.27831745 0.1654217 0.18821608 0.19470453
-0.18616116 0.100765385 -0.15778367 -0.05226617 0.23665398 0.096503414 -0.10985256 -0.15357159
0.04834292 -0.1140173 0.029536959 -0.06786183 0.08639702 -0.29198298 -0.044230483 0.102632746
0.27204207 -0.1825624 -0.035130307 -0.09037754 -0.1611317 -0.21550006 0.11169422 -0.02335048
0.24660316 0.10929867 -0.017750302 0.045449458 0.09265691 -0.09276084 0.13600737 -0.18086605
-0.088033915 -0.28176814 -0.095428854 -0.26475736 0.08679621 -0.11758957 0.16183974 0.16171806
-0.10141966 -0.07896013 0.250033 0.13648723 -0.027547814 0.15912384 0.08681498 0.18349317
-0.19402526 -0.012613219 -0.010086272 -0.21322028 -0.09413741 -0.02915101 0.17510657 -0.0021608956
0.20909029 -0.12538905 0.2504862 -0.06761374 0.043383002 -0.032346983 -0.18051659 -0.14617588
-0.04375667 0.006702502 0.048986677 0.119576864 0.078381844 -0.067587234 0.2678623 0.106697455
0.076064005 0.2582605 -0.22974144 0.23471227 -0.1420364 0.14345013 -0.069439195 -0.12552986
-0.29271123 -0.2598771 0.049824174 -0.12329686 0.08386845 0.04933984 -0.1504664 0.06411863
-0.05109757 -0.13041237 -0.0906546 -0.11581571 0.07788557 0.22823 0.08668839 -0.016456971

lstm.bias_ih_l0 f4 [64]
00000000: 3fa7 42be 9856 793e 0034 1ebe ca9a 243e
00000010: cd57 333e b6f8 a8bd 18be e33d 9cd2 6c3e
00000020: 09df 1a3e bce3 3fbd aea8 683e c57b ca3d
00000030: e729 493e ace2 993d 09ef 76be f55f 7abd
00000040: 4686 603e 7168 f5bd 1703 153e 78b6 d3bb
00000050: 1565 d83d ee35 3a3e c960 a5bd 4a29 843e
00000060: 9848 29be f5df 1dbe 93d2 703e 9f79 223e
00000070: 9906 6f3e 2824 613e 0260 1fbe e8b8 253e
00000080: 231f 0d3e f385 6ebe 63b9 01be 420b 3dbe
00000090: b365 56be 39a0 8cbe b580 953d 8608 113e
000000a0: 241d 4dbe e858 a0bc 0a23 823e 9b03 ee3d
000000b0: 473d 72be aad3 303e c84a 033e bde7 6e3e
000000c0: 0e96 4c3e 96fc 173e 8a70 043e aac5 913c
000000d0: abe7 573e 34d6 973d 4e46 2dbe dd05 163e
000000e0: 1887 963e 8d6c d43d dfcc 4b3c 2346 723e
000000f0: 447e 703e fcc1 233e e9b0 9dbd 1593 9c3d
-0.19009112 0.24349439 -0.15449524 0.16074672 0.17513962 -0.08250563 0.11120242 0.23127216
0.15124144 -0.046848044 0.22720596 0.098868884 0.1964489 0.07513937 -0.24114622 -0.061126668
0.21926221 -0.11982811 0.1455196 -0.006460961 0.10566155 0.18184635 -0.08075101 0.2581275
-0.16531599 -0.15417464 0.23517828 0.15866707 0.2334236 0.21986449 -0.15563968 0.16183817
0.13781409 -0.23293285 -0.12668376 -0.18461326 -0.20937233 -0.2746599 0.072999395 0.14163408
-0.20030648 -0.019573644 0.25417358 0.116217814 -0.23656188 0.17268243 0.12821496 0.23330589
0.19979116 0.14842448 0.12933555 0.017794449 0.21084468 0.07413903 -0.1692135 0.14650674
0.29399943 0.10372267 0.012438982 0.23659568 0.23485667 0.15991968 -0.076997586 0.07645241

lstm.bias_hh_l0 f4 [64]
00000000: 5990 03be 5c81 833d 6c29 52be e7f9 533e
00000010: 7323 c53d 5274 1e3e 0286 3c3e 8c01 25be
00000020: cc94 493c 8eaf 473e 5ec6 30be 8551 c73d
00000030: d2f2 0bbe df80 5bbe 3a3f 49be 8884 7d3e
00000040: 5bc0 87bc 19d4 4d3e 176e 1e3e c3f4 713e
00000050: 900c 833e 6487 05be bb5e 4ebe c2b1 a53d
00000060: 592d fcbd 21db 5bbe 7742 04be f71b 41bd
00000070: 5cd6 a73d fa9e 513e aabb fb3d 844f 7b3b
00000080: 95d2 c1bd d43d c6bd 673f 63be d8b5 c83d
00000090: 98ee 1bbd 518c 8ebe 2d0d 913d c11a 443e
000000a0: 9cc6 abbc e745 11be 7e8e 133d 1322 63be
000000b0: 7056 ac3d 7149 b63c 1154 f43d ac4d 613d
000000c0: 5831 423d f7ac 39be 89d3 e4bd eb10 3b3d
000000d0: 5295 053e ea43 8e3e 0688 863e c147 b23c
000000e0: 7581 653e eaf4 6b3d 718e 813e ba6d 49bc
000000f0: 5f56 b43d 4bed 09bd 98eb f6bd 5a07 cabd
-0.12848033 0.06421158 -0.20523614 0.20700799 0.09625902 0.1547406 0.18410495 -0.16113871
0.012303542 0.19500563 -0.17263171 0.097323455 -0.13666847 -0.21435879 -0.19653025 0.24757588
-0.016571214 0.2010044 0.15471683 0.23628525 0.25595522 -0.13039929 -0.20153324 0.08090545
-0.12313337 -0.2147031 -0.1291598 -0.04714581 0.08195183 0.20470801 0.122916535 0.0038346956
-0.094639935 -0.096797615 -0.22192155 0.09800309 -0.038069338 -0.27841428 0.07082591 0.19150831
-0.020968728 -0.14186822 0.036024563 -0.22180967 0.08414924 0.022251816 0.11930097 0.055005714
0.04741034 -0.18132387 -0.1117316 0.04567043 0.13045242 0.2778619 0.26275653 0.02176273
0.22412665 0.057606615 0.25303987 -0.012294227 0.088055365 -0.033673566 -0.12056655 -0.098646834

lstm.weight_ih_l1 f4 [64, 16]
00000000: 2da3 83be 0c8d 3d3e afeb e2bd 5ce5 3abd
00000010: 6bc1 3f3e d933 3bbe 66b9 52bd ce59 713e
00000020: df81 e43c 4445 9abd 33c4 673e f402 413e
00000030: 7471 24be aeae 2c3e 52d2 273e 28ea ccbd
00000040: ab7d a8bb 5b8b 62be 5710 5cbe 7278 4ebd
00000050: ac3f 74be 9708 0abe 44f7 52be 5de5 9dbd
00000060: fc6f d2bc d45c e03b 5cae 6abb 9ac6 8f3d
00000070: 5ba9 263e 820c b93b 2e58 2dbe 9f4b 93bd
00000080: 7476 fa3d 8c31 9abd 6f76 3cbe 4a6a 9cbd
00000090: d6e3 54be 2b8e afbd d86a 06be e10b 88bc
000000a0: d4fa 513e f123 c7bd 0873 903e 3594 c53d
000000b0: 5def ffbb 1130 a5bd 9398 8d3d ace6 f43d
000000c0: c6a5 cd3d 55de 173e d442 32bd a4bb 49be
000000d0: fdbf de3d 62ed 61bd 6adf 6c3e 8993 39be
000000e0: 9307 08be d4fd bcbd 4467 20be 0ba3 a4bd
000000f0: f489 12be 9195 0c3d 261d 843d 621e 893d
00000100: 581d 1bbe b3ac 3bbd 71c8 80be 8f75 f03d
00000110: 005a ffbd c648 373d 4899 0fbe 8bd5 f5bb
00000120: 6dc8 4bbd 4661 1f3d 144b f4bd e664 403e
00000130: 5e1f 8b3d 7f1c 26be d802 033c 8744 7b3e
00000140: 04da 423e a1c5 2e3e 7bbb 1cbd 558c 8ebe
00000150: 44cd 04be b448 4e3e 377d e73b c56e 3bbe
00000160: 04d3 0c3e 9157 7ebe 5bf7 8b3e d8e4 5cbe
00000170: 21d3 86bd d31f d8bc 56b0 c3bd f5c7 12be
00000180: c087 37be d356 633d 4fe2 47bd 16ba 56be
00000190: 15b4 5c3e 27a9 1fbe 6b9a 40be aa58 c8bc
000001a0: 1361 b9bd 4ac4 b03d bfdf eabd 70d1 0ebe
000001b0: 223c 54be 7a4c c93d 3412 86bc 489f 72be
000001c0: 672a aa3d 9686 833d dd6f 943d 4147 903e
000001d0: 85c7 eabd 3af2 e93c 1e80 8ebb b934 36bc
000001e0: 78de 943d 8f2e 243e 2d45 e93d 4637 913d
000001f0: 8ce1 b13d 91c1 81bd 6356 343e 835a 4d3e
00000200: e0bd 69bd 03a6 f6bd 5307 653e 7941 febc
00000210: 76d7 87be f75b dbbd ef11 453e 7d17 fa3d
00000220: 22fe 123e 70df 493e 6011 5cbc f512 6bbe
00000230: bf33 d33c 44b4 803e 754f f43d 2d7f ed3d
00000240: f510 e43d 2f51 ba3c 0a0d 23be ca05 043e
00000250: ffa3 123c 5728 7dbe 49cc 6dbe e6fe 113e
00000260: a456 3fbe bf3f f03d 3e45 b5bd 1969 7abd
00000270: 1037 fdbc 6801 6ebd d633 2cbd 1887 86be
00000280: 11e0 26bd 401c 7c3e f21d 56be 3e9d afbd
00000290: 53f5 0abe f661 303d d8e0 9f3d a946 9cbd
000002a0: 5c79 44bd bcad 41be 832a 1c3e bbf3 41be
000002b0: 41cc 5ebe 9fd3 ee3d 5c3a 15bc 441d f2bd
000002c0: cb57 dfbd 3d8d 9dbd f065 91bd 7513 593d
000002d0: a074 da3c 6cd9 7abe a5ff 87bd 00de 053e
000002e0: 282e 563a dbf5 8cbe 7c58 5b3e f679 22bd
000002f0: b77a 24be d1af b7bd 077c faba 0ea5 42be
00000300: 73b6 88bc 4ea8 c63c ba4a 6a3e e0af 4cbe
00000310: 8ebf 403e 3cc0 163e fb16 44bd bc00 453b
00000320: 6c4a 35be 334c 53be b49e d9bc 209e 24be
00000330: 6131 143d c1bc a7bd f3b6 753d 21b9 db3d
00000340: dc46 fd3c ca0d 043e ebf4 663d a84c cd3d
00000350: 773a 3e3e 0ecd 3abe 54f4 f33d 35df 823e
00000360: e651 263e cc9a 6abc a2a3 41bc 3c56 193e
00000370: cb8f 0fbe 11a9 683e b8fc 653e 1781 7c3e
00000380: 2c8d 20be fd7d f7bc 5ee8 cdbc 8c69 c93d
00000390: 71ce 9f3d 0bf1 4e3e 3c6f d4bb 4f53 363e
000003a0: 6f7d 803e 1a62 2b3e 194d 0fbd 1828 8b3b
000003b0: 8058 5cbe e275 0dbe ff63 47bd 7674 5a3e
000003c0: 4449 34be 0b48 45be 298f 073e 0135 043e
000003d0: 7ba0 503e f95b 98bd 91e7 59be 96df 143d
000003e0: ce2c 4bbd b4e0 19be 88e9 023e 7b4b 7ebe
000003f0: 0de9 cfba 2bfa 043e f6ea 233e cf54 c13d
-0.2571043 0.18510836 -0.11080109 -0.04562889 0.18726127 -0.18281497 -0.05144634 0.23569414
0.027893959 -0.075327426 0.22633438 0.18848783 -0.16058904 0.1686351 0.16388825 -0.10005599
-0.005141934 -0.22123472 -0.21490608 -0.050407834 -0.23852414 -0.1347984 -0.20602137 -0.07709763
-0.025688164 0.0068470035 -0.0035809493 0.07020302 0.16275541 0.005647243 -0.16928169 -0.07192158
0.122296244 -0.075289816 -0.18404554 -0.076374605 -0.20790038 -0.08572038 -0.13126695 -0.016607227
0.2050584 -0.09723652 0.28212762 0.09647409 -0.0078105167 -0.080658086 0.06913867 0.1195806
0.100413844 0.14830907 -0.043520764 -0.19700485 0.108764626 -0.055158027 0.231321 -0.18122686
-0.1328414 -0.092281014 -0.15664393 -0.080389105 -0.14310437 0.034322325 0.06450872 0.06695248
-0.15147913 -0.045818996 -0.25152925 0.117411725 -0.12468338 0.044747137 -0.14023316 -0.007502263
-0.049751688 0.038911127 -0.119283825 0.1878849 0.06793092 -0.16221808 0.0079962835 0.2453786
0.19028479 0.17067577 -0.038264733 -0.2784144 -0.12968928 0.20144922 0.0070644873 -0.18303974
0.13752371 -0.24838091 0.27337155 -0.21571672 -0.065832384 -0.026382362 -0.09555118 -0.1433409
-0.17922878 0.055502724 -0.04879981 -0.20969424 0.21553071 -0.1559187 -0.18808906 -0.02445634
-0.090517186 0.08631189 -0.114684574 -0.13947082 -0.20726064 0.0982904 -0.016366102 -0.23693573
0.08308869 0.064221546 0.07247899 0.28179362 -0.114638366 0.028557885 -0.004348769 -0.0111209685
0.07268995 0.16033386 0.11390147 0.07090621 0.08685598 -0.06335748 0.17611079 0.20054059
-0.057065845 -0.12043383 0.22366075 -0.03103708 -0.2653157 -0.107109 0.19245122 0.12211511
0.14354756 0.19714141 -0.013431877 -0.2295645 0.02578151 0.25137532 0.11929218 0.115965225
0.11136047 0.02274379 -0.15922943 0.12892833 0.0089502325 -0.2472242 -0.2322246 0.14257392
-0.18685395 0.117309086 -0.088510975 -0.061135385 -0.030910045 -0.05810681 -0.042041622 -0.26274943
-0.04074103 0.24620152 -0.2090986 -0.085749134 -0.13570146 0.043062173 0.078065574 -0.07630665
-0.0479673 -0.1891393 0.15250592 -0.18940632 -0.21757604 0.11661457 -0.009108152 -0.11821988
-0.10905417 -0.07692955 -0.07099521 0.05299707 0.02666694 -0.24497002 -0.06640557 0.13072968
0.000817033 -0.27531323 0.21420473 -0.039667092 -0.16062437 -0.08969081 -0.0019110449 -0.19008276
-0.016688561 0.024250176 0.22880068 -0.19988966 0.18823072 0.14721769 -0.04787348 0.0030060252
-0.17704171 -0.20634536 -0.026564933 -0.16075945 0.036179904 -0.08190299 0.059988927 0.1072867
0.030917577 0.12895885 0.056385916 0.10024387 0.1857699 -0.18242285 0.11911836 0.25560918
0.1624218 -0.014319133 -0.011818798 0.14974302 -0.14019696 0.22720744 0.22459686 0.24658619
-0.15678853 -0.030211443 -0.025135215 0.098345846 0.078030474 0.20209138 -0.0064829867 0.17805217
0.25095698 0.16736642 -0.034985635 0.004246723 -0.21518135 -0.138145 -0.048679348 0.21333489
-0.17606074 -0.19265763 0.13238205 0.12910844 0.20373718 -0.074394174 -0.21279742 0.03634604
-0.049603276 -0.15027124 0.12784398 -0.24833481 -0.0015862301 0.12986057 0.16007599 0.09440004

lstm.weight_hh_l1 f4 [64, 16]
00000000: 46b7 34be 145f 463e 8a2d 503e 126f 693c
00000010: 6b74 b23d b9e3 76be a5c0 46be 1a69 83be
00000020: a08a 173e b66e c33c d1ca 80be 55aa 403d
00000030: f15c a0bd 51a3 87bd 572b 6fbd 5e3e 0e3e
00000040: d0db ab3c 81a4 f43d ea64 52be 10b2 85be
00000050: 737e b1bd 284d bdbb 783b 0f3c f92b 94be
00000060: 9bed 4abe 787b 293e 7051 86bd d5d9 82be
00000070: 1741 c53c ffa6 68bd 2d2e 82be b12c 353d
00000080: 6afc 6abd 4889 e73d 4a44 98bd 58bd fa3c
00000090: 72d0 76be 36c0 99bc 1832 153e fe26 ff3d
000000a0: e7cb 15be bf4f 393e b612 ecbd 13fd 5bbe
000000b0: eeb3 7fbd e093 90be 0a78 513e e1c6 8d3d
000000c0: bfee 0bbe 3590 e53d 86c4 40be 2f06 7dbe
000000d0: cf1e a63d cb87 233e 6653 b43d 4acc 0dbe
000000e0: db72 e63d e12a 8e3d 7f3c 77be b3ed 973d
000000f0: d995 99bd 9465 18be 558a 87be 99e5 453e
00000100: f734 993d 142b 27be 154d 29bd 9595 e43b
00000110: ba3a 82bd 61bc 823c f77b 813e 707d 523d
00000120: dcff 08be eec7 033c b71a 99be 11c7 89be
00000130: 0acb 803e 4235 18be 127c b03d afed 77be
00000140: f5f5 cb3d 97b7 d2bd 115f de3c d5e3 aebd
00000150: 98c5 503d 5369 4a3e 08ac c33c cd2f 66be
00000160: 41b0 553e a636 a6bd 12a2 1b3e a5a8 f03c
00000170: 3e79 1cbe 6311 4abe 67b2 f43d 2312 0e3d
00000180: 0069 7c3e a6d3 eb3d 3f49 12be 5e10 113e
00000190: 1d9f 88bd c890 e33d 2acb d0bd a8fe 5b3c
000001a0: a15a 5abe 83d4 573d ee1c 6e3e 0b8e 54bc
000001b0: 6609 6d3e 2a3b 1d3e 143f a33b 6a64 1a3e
000001c0: 65f4 1e3e 6197 803e b5f8 a2bd 18f4 87be
000001d0: 2dd6 253e 35dd 1b3e f681 90bd 4fc3 f93d
000001e0: f556 8bbe 8c85 00bc f9f6 6dbe 2fb0 b43d
000001f0: 543b 493d 663e c73d fd3f e43d a2c3 81bc
00000200: 628b 67be 4b9b 14bc b4f8 523e 9945 05bd
00000210: 5222 b9bd a2d5 523e 4a45 cebc 2dc4 3cbe
00000220: 514a 3c3d 806c bfbd 4015 2bbe 5758 373e
00000230: 9758 51be 7ec4 02be dcc9 36be 7e98 5abe
00000240: fdca 56be 87a2 2dbe d58a d93d 65b4 1a3e
00000250: cb2d 05be 8215 48be b70f 223e a261 6ebd
00000260: ba41 d83d 3db6 043e ffd5 45bd e32f 69be
00000270: ac73 63be 5935 663c f9c8 39be 1878 8dbe
00000280: 305c d7bb e6ab 0ebe 4892 8fbe 23f8 05be
00000290: 8f53 223e 0b70 4d3d 3d45 883d 37f3 11bd
000002a0: 1002 babd 3169 02bd a7ab 44be 51f6 43bd
000002b0: 510e 52be 05d0 55be a9a1 62be f689 063e
000002c0: cdc4 28be 4855 5b3e bc57 20be 516a 8abe
000002d0: b3e5 16be b56b 1bbe 76cc 31be bce5 223e
000002e0: 9403 223e 4eac d3bd 015c 3bbe 5c21 ab3d
000002f0: 9eef 54be 1e6b 6ebe 5d44 183e 6d92 e33d
00000300: bb5f 87bc 1ef4 1abe 6873 3abe a960 373e
00000310: 8903 bfbd b507 56bd 622f 3dbd 7e4f bfbd
00000320: 1c91 95bd af2a edbd e38c 40bd b5a4 af3c
00000330: 85ad 653e 615d 16be 919d 2b3e 798b 8a3d
00000340: a443 633d a129 713e 2faa 19be 7291 2b3c
00000350: 5a4a 6abe ebcb 003e d0e1 513e 3a2b 623d
00000360: c046 d33d 6c07 ee3c 4165 38be 1cdd 80be
00000370: 101d 9abd 3a07 cabc 73b9 4f3d 0094 48be
00000380: 941f 203e 1cbe d0ba 8d7b 46be 7ae8 0b3e
00000390: c295 893c 484c 453e 67e8 47be 4d58 d4bd
000003a0: 1935 5fbe 1fda 33be 1030 153e d09f 7f3d
000003b0: d218 aabd 5f84 d83b e72f 12bd 796c 0bbe
000003c0: f96d 0a3b 47a6 6ebe f05e 463e e432 e7bc
000003d0: a21a 4ebe c899 5b3d 771c 073e 51b4 033e
000003e0: cb34 43be fa07 683d 16f8 e4bd 554c 78be
000003f0: 661a adbd 7dd3 083e 2fe6 433d bfaf b43d
-0.17648038 0.19372207 0.20329872 0.014247673 0.08713611 -0.24110307 -0.19409426 -0.25666124
0.14798975 0.023856502 -0.25154737 0.04703744 -0.07830227 -0.06622947 -0.05839094 0.13890979
0.020978838 0.11945439 -0.20546308 -0.26112413 -0.086666964 -0.00577702 0.008742206 -0.28939798
-0.19817202 0.16551006 -0.06558502 -0.25556818 0.024078889 -0.056799885 -0.25425854 0.044232074
-0.057369627 0.11305481 -0.074349 0.030607864 -0.24102953 -0.018768411 0.1456989 0.12458609
-0.14628564 0.18096827 -0.11527006 -0.21483259 -0.062427454 -0.2823782 0.20455948 0.06922699
-0.13665293 0.11209146 -0.18824968 -0.2470939 0.08111345 0.1596977 0.088049695 -0.13847461
0.11252376 0.06941772 -0.24144171 0.074183844 -0.07499284 -0.14882499 -0.26472726 0.19325866
0.07480805 -0.16325027 -0.041333277 0.0069758394 -0.063588575 0.015958967 0.2528989 0.051389158
-0.13378853 0.008043272 -0.29903194 -0.26909688 0.25154907 -0.14864066 0.086174145 -0.24211763
0.09959022 -0.10288923 0.02714494 -0.08539549 0.05096969 0.1976674 0.023885742 -0.22479172
0.20868017 -0.08115892 0.15198544 0.029377291 -0.15280625 -0.19733195 0.1194809 0.034685265
0.2464943 0.11514978 -0.14285754 0.141664 -0.066709734 0.11111599 -0.101950005 0.013427414
-0.21323635 0.0526929 0.23253223 -0.012973319 0.23148116 0.153546 0.0049818847 0.15077367
0.15522917 0.25115493 -0.07957593 -0.26553416 0.16194983 0.15221103 -0.07056038 0.12195455
-0.2721478 -0.00784434 -0.23238744 0.08822667 0.049128845 0.097286984 0.11145017 -0.015840355
-0.22611764 -0.009070228 0.20602685 -0.032537077 -0.09039749 0.20589307 -0.025179524 -0.1843421
0.04596931 -0.093468666 -0.16707325 0.17904793 -0.2044395 -0.12770268 -0.1785044 -0.21347234
-0.20975871 -0.1695653 0.10622183 0.15107878 -0.1300575 -0.19539455 0.15826307 -0.05819858
0.10559411 0.12960143 -0.048299786 -0.22772174 -0.22212094 0.014050805 -0.18143071 -0.27630687
-0.006572269 -0.13932762 -0.2804129 -0.13082938 0.15852188 0.05015568 0.06653831 -0.03563234
-0.09082425 -0.0318386 -0.19206105 -0.047842328 -0.20513274 -0.20880134 -0.22131981 0.13138565
-0.16481324 0.21419251 -0.15658468 -0.27034238 -0.14736061 -0.15177806 -0.17363152 0.15907949
0.15821677 -0.10335599 -0.18296815 0.08355972 -0.20794532 -0.2328305 0.14869829 0.11111913
-0.01652514 -0.15132186 -0.18208086 0.17907967 -0.09326846 -0.052253444 -0.046187766 -0.09341334
-0.07303068 -0.11580407 -0.04700936 0.021440843 0.22429474 -0.14684059 0.16759326 0.067648835
0.05548443 0.23551036 -0.15006326 0.010471689 -0.22879925 0.12577789 0.20496297 0.055217005
0.10316229 0.029056273 -0.18007375 -0.25168693 -0.075250745 -0.024661649 0.050713968 -0.19587708
0.15637046 -0.0015925798 -0.19383068 0.13662902 0.016795043 0.1926738 -0.19522248 -0.103684045
-0.21797599 -0.17563675 0.14569116 0.06240827 -0.08305515 0.0066075767 -0.035690214 -0.13615598
0.0021122678 -0.23305617 0.19372153 -0.028222509 -0.20127347 0.053613454 0.13194452 0.12861754
-0.19063108 0.056648232 -0.11180131 -0.24247868 -0.08452301 0.13361926 0.047826942 0.088225834

lstm.bias_ih_l1 f4 [64]
00000000: 570f 163d e49f 0cbe a271 54be eff5 1b3d
00000010: 852c 9d3e 9d88 093d 3baf 07be 4c5d 7b3e
00000020: 707a b9bd f6b6 60bc 5f1f 9bbc ad46 6f3e
00000030: 631c c73d b934 c9ba 92b4 823e 4638 b93d
00000040: 9f26 2c3d fe61 1fbe a0f3 e13d 1f5e fa3d
00000050: 2bfe 523e 3dfa c3bc edd7 9ebd 5fcd 5c3d
00000060: c3c7 7d3e 23bd cdbd a1c4 0cbe 31f9 8c3e
00000070: 5893 083d ce74 33bc ef12 95bd 033d fb3c
00000080: 1ad9 183d 7115 583e 719e 81be 3223 2cbe
00000090: 35e0 2dbd 85b6 233d c9ba 863d a63f c63d
000000a0: 631d 2dbe 32a5 c3bd c9ce b9bd db0a 23be
000000b0: 52b6 823e 5a61 2dbe 661c 89be 4d14 1bbd
000000c0: 5742 fbbd b2d8 00be 42c3 aa3b 4bc8 5f3e
000000d0: fff3 a4bc dbf0 793e 48b9 8bbd cc4b 00be
000000e0: bbc8 9f3c 6e37 163e 090d 2dbe 646e 2b3e
000000f0: 01ca 3ebe cd21 2bbe d05c bf3d 2e76 993e
0.036635723 -0.13732868 -0.20746472 0.038076337 0.30698028 0.03357755 -0.13250439 0.24547309
-0.09056556 -0.013715496 -0.018935857 0.23366804 0.09722211 -0.0015350796 0.2552839 0.090439364
0.04202902 -0.15564725 0.11032796 0.122249834 0.2060477 -0.023923034 -0.07756028 0.053906795
0.24783234 -0.100458406 -0.13746883 0.27533868 0.033343643 -0.010953141 -0.07279002 0.030668741
0.03731642 0.21101929 -0.25316194 -0.16810301 -0.04245015 0.039968986 0.06578595 0.09680109
-0.16905741 -0.09552993 -0.09072644 -0.1592211 0.25529724 -0.16931668 -0.2677948 -0.037861157
-0.12268513 -0.12582663 0.005211265 0.2185375 -0.020135878 0.24408285 -0.06822449 -0.12528914
0.019504895 0.14669582 -0.16899504 0.1674133 -0.18631746 -0.16712113 0.093438745 0.29972976

lstm.bias_hh_l1 f4 [64]
00000000: 253e 8a3e 9bf2 dbbd bdcf 783e c02b 693c
00000010: 88db 1a3d 4f54 1c3e 2c73 49be af12 6cbd
00000020: 7087 18be 8fd7 51be b093 c4bd 3c23 77bd
00000030: 5c44 07bd 1ccd 7dbe 78ee d23d 39ee 973e
00000040: 41e2 f6bd cc76 463e 3169 a93d f80a dabc
00000050: cdda 493e b517 473d f91b 373e 0794 223e
00000060: c999 6f3e 1064 053d 218d 50be e34e 963c
00000070: 9069 113d ce53 463e ada6 333d fb7e 2c3e
00000080: c4cc b1bd e9f3 77be d833 643e 19b2 c2bd
00000090: 36fa 15bd 5487 bdbd 236f f1bd 9410 fdbd
000000a0: 4553 1fbe 6ed9 cabd 9b2d 88be 333e 74be
000000b0: 4782 173e bc88 dc3d 6ca0 66be c2ff 0cbe
000000c0: 8f05 c2bd 59c4 b43d 5037 823e bbd8 44be
000000d0: 540f 9bbd 44d3 bf3c 3cee db3d 1d73 96bd
000000e0: 04a8 c13d 2e47 b73d fbe4 063e fdb3 833c
000000f0: e67f dc3c 4ae4 74be 48eb 583c 58aa 0e3e
0.27000538 -0.10739633 0.24297996 0.014231622 0.037807018 0.15266536 -0.19672841 -0.057635006
-0.14895415 -0.20492385 -0.09598482 -0.060336336 -0.033024177 -0.24785274 0.102993906 0.29673937
-0.12054873 0.19381255 0.08272017 -0.026616558 0.19712372 0.048606593 0.17881764 0.1587678
0.23398508 0.03256613 -0.20366336 0.018348163 0.035501063 0.19367906 0.043860126 0.16845314
-0.08681634 -0.24214138 0.22285402 -0.09506626 -0.036615573 -0.092543274 -0.11788776 -0.12356678
-0.15559109 -0.09904753 -0.26597294 -0.23851852 0.1479579 0.107682675 -0.22522134 -0.13769439
-0.094737165 0.08826513 0.25432825 -0.19223301 -0.07571283 0.023416169 0.10738799 -0.07346175
0.094558746 0.08949123 0.13173287 0.016077036 0.026916455 -0.2391521 0.013239689 0.13932168

lstm.weight_ih_l2 f4 [64, 16]
00000000: b215 27be 6c57 0bbe fba1 983d 76ad 52be
00000010: 05cf bd3d e0f7 f6bd d53c ddbd 1b85 193e
00000020: 18d2 223d 2cbd 43be a871 583d 224b 24be
00000030: ebfa a13b 1ae7 7a3e 1ccd d3bd 0285 1a3e
00000040: ec49 c73c 9c3d 713e 1742 753e e069 d03d
00000050: 41d8 89be 0bd8 353e dca8 32be 19ec 3ebe
00000060: 335d 4abe 00e4 783d 613c c03d 3766 5b3e
00000070: 15e0 25bd 2761 40be 638e 5fbe dc09 293e
00000080: a3c6 0e3e 41c9 573e 55ba d53d 3d70 55be
00000090: 33ec 31be d656 97bd 990c b23d aea9 c9bd
000000a0: da8e 26bc 8d76 4e3d c300 c9bb 7a10 69be
000000b0: 9bd3 a13d d92e be3c f5f8 2e3e 014f 2abe
000000c0: fbe4 18be 0725 c53d fb77 bb3d c15f 26be
000000d0: 0106 a8bd 46f5 65be 0f5c 85be 67cc 2cbc
000000e0: 5881 28be b158 3b3e c37b 02bd dc7c 493d
000000f0: a0ae 62bc f1b0 67be b46c 1fbd 9d3a e8bc
00000100: 95c1 003d 4462 45be b728 34be 10f8 d13d
00000110: b76e 22be c5c5 393e e258 593e fc70 4ebe
00000120: a715 3fbe 4ed2 7c3d a530 6cbe d6b5 28be
00000130: dfd7 903e e00d 9cbd 57f2 673d 1a71 91be
00000140: 4c61 5ebe 912c 123e 8724 16bd 4431 78ba
00000150: a7a3 9fbd 18fd de3d bb0e 003e 005e f03d
00000160: 2d9f db3c ec12 32bd 1699 1cbe 11f2 1ebe
00000170: 683f e3bd 349c e93b 42ec 1bbe eca2 63be
00000180: 10f3 863d db2c 463d f1fe 3cbc 92f9 1e3d
00000190: 9d87 e4bd 6fbb 0a3e 6a5f 4c3e ca8d 31be
000001a0: 97f8 62bd 8578 0c3e 1c92 c83c 8e62 07be
000001b0: 8a92 1abe 43f9 5abe 2792 aebd a5e9 12be
000001c0: 9b26 bc3b f847 473e f040 93bd a672 a7bd
000001d0: 0a34 23be c973 853e 545c 733e 1dfc 823d
000001e0: 7b80 db3d b58c 9fbd cae6 f23c 5507 ccbd
000001f0: 8dab 123e 5239 91bd 588e 71be b9ae 613e
00000200: 71ed 823c 2146 52be b34f 943c 6cb1 b2bd
00000210: 9d28 02be c436 623e 8bfb 853d 897c 35be
00000220: 7feb c03b c065 0d3e bb6f d43b fe0d 92bc
00000230: d50c 363e 76a9 43bd 6d07 74be da60 5dbe
00000240: 979b 313d 9400 853d 2a98 e0bd e2ee af3c
00000250: 9f8a 95be 5ca0 40be a58d 323e ce1d ea3d
00000260: 749b f53d b906 8abe 2cda dc3d 73a6 7fbd
00000270: 3a9b 49be bad9 e13b aaff d43d 8cee c63d
00000280: af09 4abe f3b7 32be bdf2 2abc 78e3 b53b
00000290: f3cf 32be 5637 c73d f763 a6bc 0dd8 aa3c
000002a0: d782 e13d e923 d43d c346 63be f9ee 203e
000002b0: 541e 1dbd ceb9 9cbd f8f4 efbd fee1 f13d
000002c0: 2485 2ebe 6391 92bd 4869 ac3d 037b 23be
000002d0: 15bb 463e ff1f 3b3d 53b8 193e d6df 673c
000002e0: 527b 4c3e 5c1b 013e 46ce fabd 3f5a 353e
000002f0: 1e88 453e 37a6 aabd a2cc 353e f23c c43b
00000300: 36c3 003e 5477 c73d f2a8 22be 8da3 bf3c
00000310: dbcf 60bd 5947 9cbd 2200 10bd 2a13 27be
00000320: 86c3 3f3e 73c6 86be d055 0c3e 4a81 00be
00000330: 0bee 20be c7eb 363e 0525 1abd f907 acbd
00000340: 453d 3cbe 7297 523e 6558 73bc 83fd fe3d
00000350: 7508 32be 6bc3 303e 330b 63be 7f89 5c3e
00000360: 6062 38be 214f 4a3e 9a58 713e b5da a1bd
00000370: 513b ed3d a284 92bd 464d 123e 8c75 17ba
00000380: c415 2abe 4358 2dbe 9766 eb3d 80e1 4ebe
00000390: 9146 33be 897a 84be c538 2dbe cfdf bb3d
000003a0: 4d5c 20be d865 8dbb 48ea 97bd d280 5e3d
000003b0: d4ae 31be 300f d13c 1d1d 58be 8fa5 81be
000003c0: 4e04 7e3e 4830 2f3e 84a3 91be 2f80 44be
000003d0: 95c4 c5bd 7c42 133e 0082 b3bd 9ac5 463c
000003e0: ac2b 29be b2a7 b83d c691 0bbd 1df8 59be
000003f0: 0320 a8bc a63b d5bd 4d04 b5bd 0684 efbd
-0.1631687 -0.13607568 0.0745277 -0.20573983 0.092680015 -0.12058997 -0.108026184 0.14992182
0.039751142 -0.19115132 0.052842766 -0.16044286 0.004943242 0.24502221 -0.10341856 0.15089801
0.02432724 0.23558658 0.23950993 0.10176444 -0.269228 0.17758195 -0.17447227 -0.18644752
-0.19762115 0.060764313 0.09386516 0.2142571 -0.040496904 -0.1878706 -0.2183166 0.16507667
0.13942961 0.21072866 0.10435931 -0.20843597 -0.17375259 -0.073896095 0.08693809 -0.09846817
-0.010165894 0.050406028 -0.006134124 -0.22760192 0.07901689 0.023215698 0.17087157 -0.166317
-0.14931099 0.09626203 0.09153744 -0.16247465 -0.0820427 -0.22456846 -0.26046798 -0.01054678
-0.1645559 0.18295552 -0.03185631 0.04919134 -0.013835579 -0.22626092 -0.038922027 -0.028348261
0.031434614 -0.19275767 -0.17593656 0.10252392 -0.15862547 0.1814185 0.21225312 -0.20160288
-0.18660603 0.061724 -0.23065431 -0.16475615 0.28289697 -0.07619834 0.056627598 -0.28406602
-0.21716803 0.14274813 -0.03665593 -0.00094677904 -0.07794886 0.108881176 0.12505619 0.11736679
0.0268093 -0.043475077 -0.15292773 -0.15522029 -0.11096078 0.0071292166 -0.15226844 -0.22230119
0.06589329 0.04838262 -0.011535392 0.038812228 -0.11158679 0.13548063 0.19958273 -0.17339244
-0.055412855 0.1371785 0.024483733 -0.1322119 -0.15094963 -0.21384148 -0.0852397 -0.14346941
0.005741907 0.19461048 -0.0719012 -0.08176164 -0.1593782 0.260649 0.23765689 0.06395743
0.10717865 -0.077905096 0.029651064 -0.09962336 0.14323254 -0.07091011 -0.23589456 0.22039308
0.015982362 -0.20534565 0.01810441 -0.08725247 -0.12710805 0.22091204 0.06542119 -0.17723288
0.0058874483 0.13808346 0.006483046 -0.017828938 0.17778333 -0.047769032 -0.23830958 -0.21618977
0.043361273 0.06494251 -0.10966523 0.021476213 -0.29207322 -0.18811172 0.17436846 0.11431466
0.11992541 -0.26958254 0.107838005 -0.062414598 -0.1968812 0.00689241 0.104003266 0.09713468
-0.19730256 -0.17452984 -0.01043385 0.005550798 -0.17462139 0.09727351 -0.020311339 0.020854974
0.11011284 0.10358412 -0.22194962 0.15716161 -0.038359 -0.07652627 -0.11716646 0.11810683
-0.17042977 -0.071566366 0.08418518 -0.15964894 0.19407304 0.04568481 0.1501172 0.014152488
0.19968918 0.12608093 -0.12246375 0.17710207 0.19290206 -0.08332484 0.17753842 0.0059887106
0.12574467 0.09739557 -0.1588476 0.023393417 -0.054885726 -0.07630796 -0.035156377 -0.16315904
0.1872693 -0.2632328 0.1370461 -0.1254932 -0.15715806 0.1786338 -0.03763296 -0.08399958
-0.18382747 0.20565584 -0.014852618 0.12450697 -0.17386039 0.17262046 -0.22172241 0.21536826
-0.18006277 0.19756748 0.23568955 -0.07903043 0.11583579 -0.07154204 0.1428729 -0.0005777709
-0.16609865 -0.169282 0.11494177 -0.20203209 -0.17507388 -0.25874737 -0.16916187 0.091735475
-0.1566021 -0.0043151192 -0.074177325 0.05432207 -0.17351848 0.025519937 -0.21104856 -0.25321624
0.2480633 0.17108262 -0.28445065 -0.19189523 -0.09656636 0.1438083 -0.0876503 0.012132073
-0.16520566 0.0901636 -0.034074567 -0.21286054 -0.020523077 -0.10411768 -0.08838711 -0.11695103

lstm.weight_hh_l2 f4 [64, 16]
00000000: 471a 58be 5c65 2cbe 1305 afbc 94a6 643e
00000010: 5d58 393d 9b9d 69be b2f9 f9bc e825 533e
00000020: bc18 823d 052a 843b 546a 64be 79ea d3ba
00000030: 1550 0c3e 16a4 8a3c 1710 433e bde1 cbbc
00000040: c434 85bd 336c 7b3e 4cb4 0e3e b35c 083e
00000050: 187e 15be e75c 0c3d cf3e 933d 8da8 58bd
00000060: d127 85bd dc0d 693d 811c 1abe 845d 6d3e
00000070: b273 3e3e c7f8 67be d9de 3abe ff48 8f3d
00000080: 9d08 123e 7dc2 3bbd b024 4a3e 2bb7 0abe
00000090: b17e 2a3e 33ec 8e3d c30d babd c0b4 52be
000000a0: 8666 b1bd 4fab 853e 8197 cf3c 79e0 883e
000000b0: abd2 57bc fb91 70be f4dc e4bc 4e83 273e
000000c0: a4c9 123c c131 623d bd91 2e3d 6d38 a23d
000000d0: df3a 20be 2d7a f33d 73af 34bd 70da 0dbe
000000e0: 128e 1e3d a333 b2bd 7e74 543d 7031 29be
000000f0: 797c f83d 2d1d c63c ee5e e8bc 6dd5 3fbe
00000100: 9816 fcbd 299f 47bd a5ce d5bc 483b 1bbe
00000110: f8a6 863d aa07 d73d b632 ea3d c6e6 fc3d
00000120: 563f 75be 6946 ae3d 034b 06be f42b 4bbc
00000130: 538c 8e3e 610b 433c c4a5 2cbe 2f89 cd3d
00000140: 1330 a63d 49bc 85bc 45f9 3ebe bf96 2dbe
00000150: 88b7 07bc 8304 403e 8c66 adbc 7e51 4abe
00000160: 63ea dd3d 80bc 7c3e 49f1 883e c453 93bb
00000170: 9250 5d3d 1384 65be 06c2 7b3e e5f3 403d
00000180: d202 4a3e 1fb5 433e 2207 043e 59b9 de3d
00000190: 13fc 8d3e ad1b 7abe 38f8 b73d ca4c c53d
000001a0: e735 013e 0e25 acbd dc97 483d 80ed 44be
000001b0: 4bb8 093e ecec 5abe 0e8b 40be 18d8 683d
000001c0: 6a2a 7bbe 8af1 743e a783 213d 76bc ffbd
000001d0: 0941 223e 9f70 813e 2960 093c 0378 70be
000001e0: 87bc 733e 0c0b 45bd 36bc 3fbe cea6 80bd
000001f0: 380f 513b 7eba d1bc 1cbb 2bbe f1db fb3d
00000200: 9f9f bc3d 9d0c 833e bfaa 593e 19f9 723d
00000210: 3c5c 12be 84f4 073e f965 26bd 3573 93bd
00000220: b19a 62ba 50f1 8a3e 6aaa 3bbe 2fd1 26be
00000230: c7ab 683e 8732 1fbe f54c 313e ef08 73be
00000240: e406 e1bd e1f0 593e 7c32 0dbe 0ae6 4cbd
00000250: 334c 8cbd 486c 663d fa24 8bbe 0c46 403e
00000260: b6cf 8ebd f286 503e 9ee4 343d 8300 44bd
00000270: 3cbe aabd 4a80 cebc 15a7 de3d bc31 edbb
00000280: 1b23 7fbd e28c 983c 6b57 243d f921 aabd
00000290: 1cb2 023d 68da 6abe 9005 09bc 72b3 2d3d
000002a0: 5c19 6c3d f3d6 11be 63aa c43d 7544 de3d
000002b0: ab7d 4c3e 7500 63be dcdc a3bd 7a1b 42bd
000002c0: aa87 153c f7b1 86bd 7e3f 91bd 432b a3bc
000002d0: d66c 5c3e 5d4a 84bd bdc7 8b3e db0c b2bd
000002e0: adb7 4bbc 0507 89be 4d17 1cbe b875 3ebd
000002f0: 0b56 c2bd d6da 8b3c e309 583e e4c6 243e
00000300: c2dc fd3d 75ca e1bb e900 3b3e 6560 ab3d
00000310: ae1a 533e b0b0 dfbd a668 383d a5b5 a4bd
00000320: 633c 03be c930 2ebe 77d1 ce3d 5adb c23d
00000330: 9d72 33bd 603c 6abe 5789 52bd 1315 323e
00000340: ed65 733e bf93 fdbd 7490 35bd 4773 753e
00000350: 4492 fcbd c715 c3bd 8bc1 7dbc 1092 833d
00000360: 58f9 64bd dbfc 3bbe 75c6 a03d 8e12 41be
00000370: 5930 86be 0f82 733e 357f f73a 4d53 79bd
00000380: 7231 693e e906 63be ca6e 023e 8f2a 13be
00000390: c1d7 b83d 3544 e93d 5d5a edbd b628 10be
000003a0: 9cdb 54be 0f62 643d a11c 3e3e d115 f8bd
000003b0: 6f8b 603d 1cb4 12be e2be 1dbe 8d3a 11be
000003c0: 6e31 1d3e 7cd1 63bc 8e2f 103e f5c1 4f3e
000003d0: c8ba 37be efdb 27be 268d 4cbe dc3f 26bd
000003e0: 9907 43bd 2b9f fabc b8fc b1bc 0e10 4abc
000003f0: 835e 4c3e 06e4 2b3e 0922 853e 68ba 8fbe
-0.21103774 -0.1683554 -0.021364724 0.2232917 0.045250285 -0.22814028 -0.030514572 0.20619929
0.06352374 0.0040333294 -0.22306186 -0.0016167901 0.13702424 0.016923945 0.19049107 -0.024887914
-0.06504205 0.24552993 0.13935965 0.13316612 -0.14598882 0.034268286 0.07189714 -0.052895118
-0.06501735 0.056897983 -0.15049936 0.23180205 0.18598822 -0.22653495 -0.18249072 0.06996345
0.14261098 -0.045839775 0.19740558 -0.13546436 0.16649891 0.06978645 -0.09084656 -0.20576763
-0.08662133 0.2610726 0.025340797 0.2673376 -0.013172786 -0.23493187 -0.02793739 0.16358683
0.008959208 0.05522323 0.042619456 0.079209186 -0.15647458 0.118885376 -0.044112634 -0.13852859
0.038709708 -0.08701255 0.051868908 -0.16522765 0.12133116 0.024183834 -0.028365579 -0.18733759
-0.12308997 -0.04873577 -0.026099512 -0.15159333 0.065748155 0.10499509 0.114354536 0.12348704
-0.23949942 0.085095234 -0.13114552 -0.012400616 0.27841434 0.011904568 -0.1686011 0.10035931
0.08114638 -0.016325133 -0.18649776 -0.16952036 -0.008283503 0.18751721 -0.021167062 -0.1975765
0.10835721 0.24681282 0.26746586 -0.0044960696 0.054031916 -0.22413664 0.24585733 0.047107596
0.19727638 0.19112061 0.12893346 0.10875196 0.2773138 -0.2442462 0.08982891 0.09633787
0.12618218 -0.08405505 0.04897295 -0.19231224 0.13449208 -0.21379441 -0.18803045 0.056846708
-0.24527898 0.23920265 0.039432194 -0.12487118 0.15845121 0.25281236 0.008384743 -0.23483281
0.23802386 -0.04810624 -0.1872414 -0.062818155 0.003189994 -0.025601622 -0.16770595 0.1229781
0.09210133 0.2559556 0.2125654 0.05931959 -0.14292997 0.13276869 -0.040624592 -0.07199708
-0.00086442666 0.27137232 -0.18326727 -0.16290735 0.22721778 -0.15546618 0.17314513 -0.23733877
-0.109876424 0.21283294 -0.1378879 -0.05002407 -0.06850471 0.05625561 -0.27176648 0.18776721
-0.069732115 0.20363978 0.04416334 -0.04785205 -0.083370656 -0.025207657 0.10871712 -0.007238595
-0.06228934 0.018621866 0.04012243 -0.08307261 0.03190814 -0.22934878 -0.008363143 0.04240746
0.057641372 -0.14242153 0.09602811 0.10852901 0.19969814 -0.22168143 -0.0800111 -0.047389485
0.009126583 -0.06576913 -0.07092188 -0.01991809 0.21525893 -0.06459496 0.27300826 -0.08693858
-0.012433928 -0.26763168 -0.15243264 -0.046498984 -0.09489068 0.017072123 0.21097521 0.16091496
0.12395622 -0.00689059 0.18262066 0.08367995 0.20615646 -0.10922372 0.045021676 -0.080424584
-0.12816004 -0.17010798 0.10098546 0.09514494 -0.043810476 -0.22874594 -0.05140051 0.17390852
0.2376935 -0.12381696 -0.044327214 0.23969756 -0.123325855 -0.09525638 -0.015488039 0.064243436
-0.055901855 -0.18358175 0.07850353 -0.18854734 -0.2620876 0.23780082 0.0018882515 -0.060870457
0.22772768 -0.22170605 0.12737575 -0.14371704 0.09025527 0.113899626 -0.11589501 -0.1407803
-0.207869 0.05575758 0.18565609 -0.12113536 0.054820474 -0.14326519 -0.15404847 -0.14182492
0.15350887 -0.013904925 0.1408064 0.20288832 -0.17942345 -0.16392492 -0.19975719 -0.040588245
-0.047614668 -0.030593475 -0.021726951 -0.012332929 0.19957928 0.16786203 0.2600253 -0.28071904

lstm.bias_ih_l2 f4 [64]
00000000: f8ce 52bd e0c7 2bbe 2ce6 0f3e a46f 223e
00000010: 39d8 fabd ffa1 0fbe a2b1 fc3d d12f 0dbe
00000020: deb3 9cbd 6149 39be 60da fd3d 9253 e3bd
00000030: 05c1 e1bd 0574 f63d af06 6b3d 0b85 683d
00000040: 7929 4abc 0073 433e 3967 19be 2184 be3d
00000050: 4f85 833e e9be 71bb 10fc 3a3e 1bea 39be
00000060: 0b6b 5c3e ab2c 913e f6fb d43c 000d dcbd
00000070: 7800 d23d 9d03 81be bd0d 533e c935 47be
00000080: 3ed0 a23b bee4 8d3d bdc3 393e be69 39be
00000090: 75e2 9e3d 1abc 323e 7e01 1fbe 9a2f 44be
000000a0: 938c a6bd f8be 813e f69c 6d3e dba9 4f3e
000000b0: 6a3f 5c3e a6b5 6c3d 764c 7cbd a545 86be
000000c0: a4ac c63d 5187 9d3d b436 c1bd 728c 0abe
000000d0: 4b52 f6bd 514a e5bc de59 a83d d670 7a3e
000000e0: 414f ad3d 80da 2abd 6af4 a8bd 6299 af3d
000000f0: 7d11 993d ef18 4e3e aecb 0abd 0a9d 723c
-0.051466912 -0.16775465 0.14052647 0.158629 -0.122482724 -0.1402664 0.12338568 -0.13787772
-0.076514944 -0.18094398 0.12395167 -0.11099924 -0.11023144 0.12033848 0.05737942 0.056767505
-0.012338989 0.19086838 -0.14980783 0.09302545 0.25687644 -0.0036887473 0.18260217 -0.1815571
0.21525209 0.2835439 0.02599905 -0.10744667 0.10253996 -0.2519807 0.2061071 -0.19454111
0.004968672 0.06928395 0.18141074 -0.18106744 0.07758037 0.17454568 -0.15527913 -0.19158784
-0.08132281 0.2534101 0.23204407 0.20279638 0.21508566 0.05779042 -0.061596356 -0.2622501
0.09700897 0.07691825 -0.09434262 -0.13530138 -0.12027415 -0.027989538 0.08220266 0.24457106
0.08462382 -0.041712284 -0.08249743 0.08574177 0.07474039 0.20126699 -0.03388565 0.014807949

lstm.bias_hh_l2 f4 [64]
00000000: c18a 80bd f589 c6bd 7101 5cbd 7ac2 723e
00000010: 4286 063e 736d 723d 8063 613c dd91 4dbe
00000020: c85e 913b 8b41 94bd 60be 4dbe d437 aabd
00000030: fe9e 74be 9c1b 44be ac0f 90bd 97d7 afbc
00000040: c110 26be 7f51 a6bc 7f9a c33d 6460 353e
00000050: 3d0f 6d3e 1799 6a3e ae16 a93d c2bd 99bc
00000060: 9ed5 8ebd 578e 12be 3d5d 72be d200 493e
00000070: 8353 9fbd 0846 983d b7fb d93d e388 c5bc
00000080: b713 e43d 120a 903a bfae 28be 2812 0cbd
00000090: 64cc 523e c7f0 22be 04c6 543e e636 3ebe
000000a0: 2278 733d 8b95 f1bd fc0c 47be 5d81 60be
000000b0: ec71 e03d 896e 8fbd ed5c b83d 943b fcbd
000000c0: ecfd 2b3e 4aa7 efbd cf0b 7f3e b506 cdbd
000000d0: bc08 8d3e f24c 59bd 895a fdbd cefe 37be
000000e0: c8b6 803d 23ad 783e f6f3 593e e7bf ab3c
000000f0: 8de3 4a3d 5c05 943d 0b8d efbd cf62 5e3e
-0.06276465 -0.09694282 -0.053712312 0.23707 0.13137153 0.05918641 0.013756633 -0.20075174
0.0044363476 -0.07239064 -0.20092154 -0.083114296 -0.23888776 -0.19151157 -0.07034239 -0.021465106
-0.16217329 -0.020302532 0.09550952 0.17712551 0.23150344 0.22909962 0.08256279 -0.018767241
-0.06974338 -0.14312111 -0.2366838 0.19629219 -0.077796005 0.074352324 0.10643714 -0.024113124
0.11136573 0.0010989329 -0.1647291 -0.034197003 0.20585781 -0.15912162 0.20778662 -0.1857563
0.05944074 -0.11796101 -0.19438547 -0.21924348 0.10959229 -0.07003505 0.09002099 -0.12316051
0.16796082 -0.1170183 0.24906848 -0.10011045 0.27545726 -0.053051896 -0.12370784 -0.17968294
0.06284863 0.24284796 0.2128447 0.02096553 0.049533416 0.07227585 -0.11696824 0.2171738

lstm.weight_ih_l3 f4 [64, 16]
00000000: bea1 e13d d0eb 273e 6ae5 c93d bf7d 70be
00000010: d88a b13d 1254 4f3e 1801 06bd edb8 93bb
00000020: 60b4 f93d 5f4a cc3d 2c4e c03c 5df4 e63d
00000030: 7197 b83d 0089 cdbc 7077 7c3e ac8c 333e
00000040: d981 163e 7602 44be 0c21 88bc 7b2f e03c
00000050: d7ee d03c 7f4a 20be 2e3d 4fbe b643 b33c
00000060: caaa 923d 06d0 273e a7e9 403e 3aa7 9b3d
00000070: 41c5 15be 694e 2bbe d2f9 0d3e 9429 473d
00000080: 0fc6 5e3e 2ce3 28bc 2d39 893d 0375 313c
00000090: 3168 053e 521b 1dbe 3879 2cbe 1029 2d3e
000000a0: 6c9a 60be c351 d9bd e6f8 b53d afbd 5a3e
000000b0: a04e f5bd 445f 03be 08bd 18be 90e7 0e3e
000000c0: e012 a3bd 7f16 bb3d 2863 7dbe 592d 393e
000000d0: bae1 173e 9556 30be 5970 0e3e 0ca9 603e
000000e0: a3e3 263e 6e51 203e c582 3b3d 44a1 68bd
000000f0: 0f3e 253e 44d9 fcbc 5dc4 103e f435 4a3e
00000100: d920 e0bd d065 6f3e 2d6a e9bd 3c4a 45bd
00000110: 139f 293e bddd a73d 565f f4bd e953 79bd
00000120: e1c7 3bbd 0b07 ed3c 685e 70be 2a83 d03d
00000130: 54c7 91bc c245 183e c9b6 7bbc d42e 1abe
00000140: 7fa2 94bd 98be 6e3e 60d8 5bbe cde5 463e
00000150: 92cb d6bc 17c9 31be 6990 4fbd 66b8 163d
00000160: 3b12 63bc 4867 503e 3dc9 263e d8da 723e
00000170: e69c 633c 2b7a 31be 05e4 f53d c157 90be
00000180: b88f 88bd 7c07 48bd 6182 c53d a1a5 2bbe
00000190: fa7e 803e 02db 3fbe a827 903e a475 413a
000001a0: a8e8 82bd 12fc ad3c 633e 4ebe 85a1 4f3d
000001b0: 07cd c8bd e6c7 46be b34d 5d3e 3167 88bd
000001c0: 0dfd 553e e1b6 78bd a297 bebd 4b6f 00be
000001d0: 79cb ad3d 3d50 31be 9d44 85be 73f3 2c3e
000001e0: ee77 983d 08cb 6a3e 634e 04be c44a 153d
000001f0: 0b90 8dbd 169d b93c 218f 45be 5c8b 88bc
00000200: 5463 c63c 6e80 d13d a375 753b ba54 9ebd
00000210: 659e 7f3e 4403 983d f386 aabd cadf 303e
00000220: 72ad eebd 75a9 393e 22c0 003d 0b23 5f3e
00000230: de51 58bd 1357 823d 367f 423e bc8b 9d3d
00000240: bfe4 123e 770b 4cbe 2074 18be 2e09 4d3e
00000250: 7488 e43d 2fad 6cbb 9316 263d c908 b0bd
00000260: 6f48 a23c 084e 6fbb 0ca1 07be d11b 6bbd
00000270: 50cb 48be 6e40 643c d5b0 48bd dd53 8dbc
00000280: 2f24 8cbd 8f12 d13d 9275 45bd eec1 df3d
00000290: 2fad 753c db80 803d 982c 513e d57a 08be
000002a0: 9764 08bd cfbc 56be 2334 40be 5f34 b53d
000002b0: afee 783e 4dc3 643d eb43 4cbe 7ee4 6d3d
000002c0: 2c1a 81be 6bce f33d e1e0 b7bc b883 283e
000002d0: 4741 49be 0f8f a7bc d3d4 26bd bf17 b83d
000002e0: a98b 04be a43a 543e ddf6 3dbe 89ae 703e
000002f0: 52f2 473d 0625 0fbe 4f8d 6bbe af27 66be
00000300: 36a1 f7bd 5dc4 5cbe 3a7b afbd 372f 3cbe
00000310: 7195 1bbe d761 5f3e 36f6 2dbc 66ac a3bd
00000320: e473 ec3d 5d94 4cbe b5d7 50be 4a00 6abe
00000330: 975e a83d 0287 cf3d 6700 ecbd b72e 92bd
00000340: 7064 813e 2b50 52be 4725 85be f535 ee3c
00000350: b9a7 2e3e 4540 183e eb69 40bd b9e5 52bb
00000360: 2af4 523e 7c6d 65bd 820f 233c 3a39 863e
00000370: 0511 e6bc dd07 6d3e a04e 8e3e 69ae 3dbe
00000380: 7f1e 273e 0ce9 b4ba f306 5e3e 6c4a 89be
00000390: 20de b43d 9f33 033d e805 453d 47fc 2bbe
000003a0: 85fd 95bc 7f49 8a3e ac4e 153e 7d91 a5bd
000003b0: e74f 713e d6eb b23d 40a1 40be 23b8 41be
000003c0: a727 39be 099a 87bc 4891 e1bd 93ff 47be
000003d0: dd33 8a3c 6c7b d4bd e232 bfbb 8ec4 95bd
000003e0: 5339 313e 8c2c 5e3e 8777 84be 8869 763e
000003f0: 555b 6e3e 6eb7 2e3e 372d 683e 2140 f5bc
0.11017178 0.16398549 0.098582104 -0.23485468 0.086690605 0.20246914 -0.032715887 -0.004508129
0.12192607 0.09975123 0.023474775 0.11277077 0.0901326 -0.02508974 0.24654937 0.17534131
0.1469797 -0.19141564 -0.01661732 0.02736639 0.025504513 -0.15653418 -0.20238182 0.021882873
0.07161482 0.16387948 0.18839131 0.07600255 -0.14626028 -0.1672913 0.1386483 0.048623636
0.21755241 -0.010308068 0.067003585 0.01083112 0.13028027 -0.15342453 -0.16843116 0.16910195
-0.21933907 -0.10611298 0.08885364 0.21361421 -0.11977887 -0.1282931 -0.1491586 0.13955522
-0.079625845 0.0913515 -0.24744856 0.18083705 0.14832202 -0.17220528 0.13910045 0.21939486
0.16297774 0.15656063 0.04577901 -0.05679442 0.16136955 -0.03086532 0.14137407 0.19747144
-0.10943765 0.23378682 -0.113972045 -0.0481665 0.16564588 0.0819659 -0.119322464 -0.06087104
-0.045844916 0.028934022 -0.23473513 0.101812676 -0.017795242 0.1487036 -0.015363404 -0.15056926
-0.07257556 0.23314893 -0.2146926 0.194236 -0.026220117 -0.17361866 -0.05067483 0.03679695
-0.013859327 0.20351899 0.16287704 0.23716295 0.013892388 -0.1733176 0.12006382 -0.2819195
-0.06668037 -0.048835263 0.096440084 -0.16762401 0.25096875 -0.18735889 0.28155255 0.00073798955
-0.06392032 0.02123836 -0.20140986 0.050691146 -0.09804731 -0.19412193 0.21611671 -0.06660307
0.20897312 -0.060721282 -0.093062654 -0.12542455 0.08486075 -0.17315765 -0.2602891 0.16889744
0.0744475 0.22929013 -0.12920527 0.036448255 -0.0691224 0.022657912 -0.1929288 -0.016668014
0.024217285 0.10229574 0.003745415 -0.07731004 0.24962766 0.07422498 -0.08326521 0.17272869
-0.11654176 0.18131049 0.031433232 0.21790712 -0.05281245 0.06364264 0.1899384 0.07692668
0.14345072 -0.19926248 -0.14888048 0.20023033 0.11158839 -0.0036113968 0.040548872 -0.08595426
0.01980993 -0.0036515016 -0.13245028 -0.057399575 -0.19608808 0.013931377 -0.048996765 -0.017251903
-0.06842839 0.10208618 -0.048207827 0.10925661 0.0149949035 0.06274577 0.20427167 -0.13328107
-0.033299055 -0.20970462 -0.18769889 0.088478796 0.243098 0.055850316 -0.19947784 0.058079235
-0.2521528 0.119046055 -0.022446098 0.16456497 -0.19653808 -0.020453958 -0.04073031 0.08988904
-0.12943901 0.20725495 -0.18551202 0.2350408 0.04881508 -0.13978967 -0.23003124 -0.22476076
-0.120912954 -0.21559282 -0.085684255 -0.18377386 -0.15193726 0.21814667 -0.010617783 -0.07991867
0.11545542 -0.19978471 -0.20394786 -0.22851673 0.082211666 0.101331726 -0.11523514 -0.071378164
0.2527194 -0.20538394 -0.26005003 0.029078463 0.17056169 0.14868267 -0.04697601 -0.0032180382
0.20600954 -0.056012616 0.009952428 0.26215535 -0.028084287 0.23147531 0.2779436 -0.18523563
0.16320227 -0.0013802364 0.21682338 -0.26814592 0.088314295 0.03203165 0.048101336 -0.16795455
-0.018309364 0.27009198 0.14580792 -0.0808439 0.23565637 0.087363884 -0.18811512 -0.18917899
-0.18081532 -0.016552942 -0.11014038 -0.19531088 0.016870433 -0.10375103 -0.005834923 -0.073128805
0.17307024 0.21696681 -0.25872442 0.24063694 0.23277028 0.1706216 0.22673498 -0.029937806
