checkpoints/model_weights_epoch_35.pt (torch, 36335 bytes, 18 tensors)

lstm.weight_ih_l0 f4 [64, 1]
0	0x3e91a26b	0.28444228
1	0xbec777cf	-0.38958594
2	0xbd1f3d7e	-0.038877003
3	0xbd9f500c	-0.077789396
4	0xbe00dcca	-0.12584224
5	0xbef014e1	-0.4689093
6	0xbe3c8d45	-0.18413265
7	0x3d406697	0.046972837
8	0xbe9dfcf4	-0.3085705
9	0x3e99202e	0.29907364
10	0xbe895e12	-0.26829582
11	0x3d4ebbc0	0.05047202
12	0xbda8d714	-0.08244148
13	0xbec13571	-0.37736085
14	0xbea27164	-0.31727135
15	0xbd03ed51	-0.032208744
16	0x3dc44a26	0.09584455
17	0xbe73675d	-0.23769899
18	0xbd1569c7	-0.03647783
19	0xbeab37d2	-0.33441025
20	0x3e78842b	0.24269168
21	0xbecb96c9	-0.39763477
22	0xbe43ad9a	-0.19109192
23	0xbdf50b62	-0.11965062
24	0xbee88ba9	-0.45419052
25	0x3dda9484	0.10672858
26	0x3e8e9d50	0.27854395
27	0xbdfb1f6a	-0.12261851
28	0x3e7cb0d9	0.24676837
29	0xbce9b578	-0.028528914
30	0x3de20921	0.110368975
31	0xbee57dfc	-0.4482268
32	0x3ebf2e87	0.37340185
33	0x3e273cba	0.16331759
34	0x3d81baf6	0.06334488
35	0xbe7e6db1	-0.24846531
36	0x3e1211cd	0.14264603
37	0x3e89b605	0.26896682
38	0x3e4f5c59	0.20250072
39	0xbeb66642	-0.35624892
40	0x3e62f18d	0.22162457
41	0xbe1614be	-0.1465635
42	0xbeae1cb2	-0.34006268
43	0x3c98c5d7	0.018649025
44	0x3e7c404b	0.24633901
45	0xbe98c9fb	-0.298416
46	0x3ebdaa93	0.370442
47	0xbdb196c6	-0.08671336
48	0x3eaec60f	0.34135482
49	0x3e2619d4	0.1622079
50	0xbdc94704	-0.09827998
51	0x3d64d8f5	0.05587097
52	0x3eb69a97	0.35664818
53	0xbe4d0bd7	-0.20024048
54	0x3ece57b8	0.403013
55	0x3e0bcf89	0.13653387
56	0xbea89e4e	-0.32933277
57	0x3eb3ca12	0.35115105
58	0x3e53d707	0.20687495
59	0xbe06473f	-0.13113116
60	0xbd8cbe10	-0.06872189
61	0x3d3908e0	0.04517448
62	0xbbc65e26	-0.006053704
63	0xbcd8d152	-0.026467

lstm.weight_hh_l0 f4 [64, 16]
0	0xbd488aa0	-0.048960328
1	0x3eed35e9	0.46330193
2	0x3ddb6b89	0.1071387
3	0x3e8cf7aa	0.27532703
4	0x3e28a616	0.16469607
5	0xbea3e777	-0.3201253
6	0x3e81148f	0.25210997
7	0xbe619719	-0.22030295
8	0xbe3f9542	-0.18709281
9	0xbd32c124	-0.043641225
10	0xbd98cab1	-0.07460535
11	0x3ecf0c4a	0.40439063
12	0x3cecbbcb	0.02889814
13	0xbdc65513	-0.09684195
14	0xbe05e6f2	-0.1307638
15	0x3eba69a4	0.36408722
16	0xbe18fa83	-0.14939313
17	0xbc134381	-0.008988262
18	0xbdb071d5	-0.08615462
19	0x3e847bb6	0.25875634
20	0xbe0777b2	-0.13229254
21	0x3cae8db3	0.021307802
22	0xbe5a9842	-0.21347144
23	0x3dc4aa4c	0.09602794
24	0xbe055df3	-0.1302412
25	0xbe917ce8	-0.28415608
26	0xbdaef101	-0.085420616
27	0x3cb1dcbb	0.021711698
28	0xbdc017f4	-0.09379569
29	0x3de53ae3	0.111928724
30	0xbd6cdc16	-0.057827078
31	0x3eb1eb4d	0.34749833
32	0x3ed04ed1	0.40685132
33	0xbe37b4a9	-0.1794001
34	0xbe40bc89	-0.1882192
35	0xbe90dbe1	-0.28292754
36	0x3e07666f	0.13222669
37	0x3eb16137	0.34644482
38	0xbda01b7b	-0.078177415
39	0xbd64c3f3	-0.055850934
40	0xbcfa8887	-0.03058268
41	0xbd877ee8	-0.06616002
42	0xbe3d63bc	-0.18495077
43	0xbe63ccd6	-0.22246107
44	0x3d07a9cc	0.033120915
45	0xbdcf253f	-0.10114526
46	0x3e27ab96	0.16374049
47	0xbeb05b00	-0.34444427
48	0x3eb0f5b8	0.3456247
49	0x3e861023	0.26184186
50	0x3ea21a7a	0.31660825
51	0x3e129c46	0.14317426
52	0x3ea7c27d	0.3276557
53	0xbeaf0f20	-0.34191227
54	0x3eda384c	0.42621076
55	0x3da3ee3a	0.080044225
56	0x3c97ca06	0.01852895
57	0xbcfb0678	-0.030642733
58	0xbda14246	-0.07873969
59	0x3ea86940	0.328928
60	0x3eb93b65	0.36178127
61	0x3d5916cb	0.053000253
62	0xbe93b349	-0.2884772
63	0x3eab2348	0.33425355
64	0x3dabc842	0.083878055
65	0xbde36f6c	-0.111052364
66	0x3e0df807	0.13864146
67	0xbc9fd01f	-0.01950842
68	0xbd96ab38	-0.07356876
69	0xbe0e4638	-0.13893974
70	0x3e073302	0.13203052
71	0x3e197fb6	0.14990124
72	0xbe49e5f7	-0.19716631
73	0xbe803fba	-0.2504862
74	0xbcec68a3	-0.028858488
75	0x3e78ca35	0.24295886
76	0x3df9d3f0	0.12198627
77	0xbdd0c354	-0.10193506
78	0xbd0992cf	-0.033587273
79	0x3dc8abba	0.09798379
80	0x3e90e518	0.28299785
81	0x3dbc0e45	0.09182409
82	0x3e6e9157	0.2329763
83	0xbe01d10f	-0.12677406
84	0x3ebe1bef	0.37130687
85	0xbbbdd5ef	-0.005793325
86	0x3e01a67e	0.12661168
87	0xbe806fc2	-0.25085264
88	0x3d5ae5b7	0.05344173
89	0xbed212c5	-0.41029945
90	0xbe0be48e	-0.13661405
91	0x3e36ff26	0.17870769
92	0x3e8fc26a	0.28078014
93	0x3de8bea9	0.113644905
94	0x3e1edef9	0.15514745
95	0x3e110ac2	0.1416426
96	0xbda7cec6	-0.08193736
97	0x3e8360ed	0.25659886
98	0x3e0d44ca	0.13795772
99	0x3e97ad39	0.29624346
100	0x3e8b079a	0.27154237
101	0xbdd7e935	-0.105425276
102	0x3d3f784f	0.046745595
103	0xbd98b0f2	-0.07455625
104	0xbd8f104b	-0.069855295
105	0xbe889f8a	-0.2668422
106	0x3db8ecf4	0.0902957
107	0xbd1bb198	-0.038011163
108	0x3e63a844	0.22232157
109	0x3e3feb72	0.18742159
110	0x3d21c3b4	0.039493278
111	0xbda231f7	-0.07919686
112	0x3e246a4e	0.16056177
113	0x3d3888c6	0.045052312
114	0x3d9a6756	0.07539241
115	0x3d994445	0.074837245
116	0x3ddebb4f	0.1087557
117	0x3d8f3833	0.06993141
118	0x3e0bfa19	0.13669623
119	0x3e0309b2	0.12796667
120	0x3c661f73	0.014045584
121	0xbe31ad0d	-0.1735117
122	0xbe02321e	-0.1271443
123	0x3e530b0e	0.20609686
124	0x3ea81e5f	0.3283567
125	0xbe4cffda	-0.20019475
126	0xbe38ea81	-0.18058206
127	0xbd755926	-0.05989947
128	0xbcacdbd6	-0.02110092
129	0x3df3782e	0.11888157
130	0x3e8258b3	0.25458297
131	0xbdf3a73a	-0.1189713
132	0x3eacaafb	0.33724198
133	0xbe96cc9d	-0.29452983
134	0x3e9b64a9	0.30350235
135	0x3e1381b9	0.14404954
136	0xbd97265b	-0.073803626
137	0x3d3a65c7	0.04550722
138	0x3d622c53	0.055218052
139	0x3e238dd1	0.15972067
140	0xbe7a24a9	-0.24428047
141	0xbc95df5d	-0.018294984
142	0xbe8e4181	-0.2778435
143	0xbe197509	-0.14986052
144	0xbe0b79f2	-0.13620737
145	0x3e91bb2e	0.2846312
146	0xbe497903	-0.19675069
147	0x3ddb6e4b	0.10714396
148	0xbe0fd320	-0.14045382
149	0xbe162cd1	-0.14665534
150	0xbdf329d1	-0.1187321
151	0x3e1cb632	0.15303877
152	0xbdf3df9c	-0.119078845
153	0xbdbcb88d	-0.09214888
154	0xbe0daa3f	-0.13834475
155	0x3e2e9fb4	0.1705311
156	0x3e0067a6	0.12539539
157	0x3e2e3186	0.17011079
158	0xbe402391	-0.18763568
159	0xbdf755ad	-0.12076888
160	0x3ea5c22c	0.32374704
161	0xbb89119b	-0.004183007
162	0x3d964525	0.07337407
163	0x3e4ea3c3	0.20179658
164	0x3e84185a	0.2579983
165	0xbdb46e1b	-0.088100635
166	0x3e9e7cca	0.30954581
167	0xbdb0edf9	-0.0863914
168	0xbca86c9c	-0.020559601
169	0xbe3ffef5	-0.18749602
170	0x3e372c36	0.17887959
171	0x3e85ea4a	0.2615531
172	0x3e74cbbd	0.23905845
173	0xbd873d83	-0.06603529
174	0xbbc993e3	-0.0061516627
175	0x3d2f79af	0.042840656
176	0x3e028188	0.12744725
177	0x3d893470	0.06699455
178	0x3e8775bc	0.26457012
179	0x3e8320de	0.25611013
180	0x3d9a78ae	0.07542549
181	0xbe0c3efa	-0.13695899
182	0x3e97210c	0.295174
183	0xbc9aed6f	-0.018912045
184	0xbd918e1b	-0.071071826
185	0xbe44b3bc	-0.19209188
186	0xbea24b3c	-0.31698024
187	0x3e5eb609	0.21749128
188	0x3de7c6f0	0.11317241
189	0x3e1f7b67	0.15574418
190	0x3d8d2592	0.068919316
191	0xbe37ffa8	-0.17968619
192	0xbc24f9d7	-0.010069332
193	0x3e307fe4	0.17236286
194	0x3dc9416d	0.09826932
195	0x3d1bb47a	0.038013913
196	0xbd07fde0	-0.0332011
197	0xbdac185d	-0.084030844
198	0xbe068aa0	-0.13138819
199	0x3d9b2e3c	0.07577178
200	0xbd8d4ef1	-0.068998225
201	0xbcc9494d	-0.024571085
202	0x3dd8d5de	0.10587667
203	0x3e8f2478	0.2795751
204	0xb9bd067a	-0.00036053715
205	0x3e25c569	0.16188587
206	0xbe987ec2	-0.2978421
207	0x3ccda226	0.025101732
208	0x3d185a7c	0.037195668
209	0x3e41aa79	0.18912686
210	0xbdb8aed8	-0.09017724
211	0x3dd87dfc	0.105709046
212	0x3ebfafd9	0.3743885
213	0x3d2f299c	0.04276429
214	0x3dd97bc3	0.10619309
215	0xbeb1b648	-0.34709382
216	0x3e10c858	0.14138925
217	0xbdb45e07	-0.08806997
218	0xbe7ff91d	-0.24997373
219	0x3e1e6c34	0.15470964
220	0xbd8e35d8	-0.06943864
221	0xbe8c7f94	-0.27441084
222	0x3dda5c50	0.106621385
223	0x3d056b25	0.032572884
224	0x3e17fe2f	0.14843057
225	0x3eae7559	0.34073904
226	0x3c2dfff2	0.010620104
227	0x3e28d6c5	0.16488178
228	0x3d83b802	0.06431581
229	0xbc7fd2c3	-0.015614214
230	0x3d71af9a	0.059005357
231	0x3d72c1a3	0.059266698
232	0xbe838750	-0.25689173
233	0xbef3f62e	-0.47648758
234	0xbe9cc632	-0.3061996
235	0x3e978d8f	0.29600188
236	0x3ed8d048	0.42346406
237	0xbc8a8f2a	-0.01691397
238	0x3e3d867a	0.1850833
239	0x3ea0b8fe	0.31391138
240	0x3c413757	0.011792979
241	0xbd81d9fd	-0.06340406
242	0xbc5aad56	-0.013346991
243	0x3d7c841f	0.061649438
244	0x3c77490c	0.015093099
245	0xbd77c0f0	-0.060486734
246	0x3ce028e3	0.027363246
247	0x3df7f908	0.12108046
248	0xbe6a0a36	-0.22855458
249	0xbd1baf19	-0.038008783
250	0x3d8a6bdf	0.06758856
251	0x3df455d1	0.11930431
252	0x3e1152be	0.1419172
253	0x3e054c80	0.13017464
254	0xbe55e0da	-0.20886555
255	0xbe46673b	-0.19375317

lstm.bias_ih_l0 f4 [64]
0	0x3e5cd6c3	0.215663
1	0x3e3767a9	0.17910637
2	0xbe0010ba	-0.1250638
3	0x3ccda180	0.025101423
4	0x3e387cbb	0.18016331
5	0xbd497094	-0.04917963
6	0x3c50f168	0.012752868
7	0x3d76c532	0.060246654
8	0x3d2e48a7	0.042549755
9	0xbda3ed25	-0.08004216
10	0xbcc45788	-0.02396752
11	0x3dea4c33	0.11440315
12	0x3bb6e184	0.005581083
13	0x3e054738	0.13015449
14	0xbbd2227a	-0.0064128013
15	0x3dc219ac	0.09477553
16	0xbb85e300	-0.0040858984
17	0x3e12efe0	0.14349318
18	0x3e3f57b4	0.186858
19	0x3e3d95d9	0.18514194
20	0x3e5b8415	0.21437104
21	0x3ca0f5d9	0.01964848
22	0x3e8458a8	0.2584889
23	0xbe599a15	-0.21250184
24	0xbda0062e	-0.07813679
25	0xbe6f971b	-0.23397486
26	0xbd764135	-0.06012078
27	0x3e867108	0.2625811
28	0x3e22fbed	0.15916415
29	0xbe3fb55a	-0.18721524
30	0x3cda44cf	0.026644139
31	0x3e0bc091	0.13647677
32	0x3e8ba719	0.27275923
33	0x3e0e4639	0.13893975
34	0x3ddc203c	0.10748336
35	0xbd6a18a5	-0.05715241
36	0x3e59daba	0.21274844
37	0xbe286a81	-0.16446878
38	0x3de2681d	0.11055014
39	0xbdae4210	-0.08508694
40	0xbe5273f6	-0.20552048
41	0xbe8bab42	-0.27279097
42	0xbe0c75b5	-0.13716777
43	0x3e0475ed	0.1293561
44	0x3da4cdbe	0.08047055
45	0x3e1ad01a	0.15118447
46	0xbc33a2fe	-0.010964153
47	0x3e61459a	0.21999207
48	0x3e0bab77	0.13639627
49	0x3d622bef	0.05521768
50	0x3e7b0c5d	0.24516435
51	0x3df87902	0.121324554
52	0xbdd221d9	-0.10260362
53	0xbc6f5ea1	-0.014609964
54	0x3e234055	0.1594251
55	0xbe149b86	-0.14512452
56	0x3e81550e	0.25260204
57	0x3e146624	0.14492089
58	0xbddb441d	-0.10706351
59	0x3e1b0a4f	0.15140651
60	0xbd5384bf	-0.05164027
61	0xbdb1fdc3	-0.08690979
62	0x3e97cb68	0.29647374
63	0x3de8b04d	0.11361752

lstm.bias_hh_l0 f4 [64]
0	0x3cccfa27	0.025021626
1	0xbdd9ef36	-0.10641329
2	0x3db2d55a	0.087321
3	0xbbdef3b8	-0.006803956
4	0x3d935f2f	0.07195889
5	0x3e021ecd	0.12707062
6	0x3ce6c0ea	0.02816816
7	0x3e662b4e	0.22477457
8	0x3e8f2218	0.279557
9	0x3e8d7fd3	0.27636585
10	0xbcfa7ae6	-0.03057618
11	0x3e7f3edf	0.24926327
12	0x3e851be8	0.25997853
13	0x3e1a0591	0.15041186
14	0x3eb4da14	0.3532263
15	0xbce66009	-0.028121965
16	0x3e0e969e	0.13924643
17	0xbd4e7b98	-0.050410837
18	0xbe3ba5d2	-0.18324974
19	0x3e5d2514	0.21596175
20	0x3d704167	0.058656123
21	0xbe6bf8d1	-0.23044135
22	0x3e5dc2d4	0.21656352
23	0xbddfec36	-0.109337255
24	0xbd2113b2	-0.039325424
25	0xbd65e8b3	-0.056130122
26	0x3e4db908	0.20090115
27	0x3a3caff3	0.00071978493
28	0xbe4909c5	-0.19632633
29	0x3d06194f	0.03273898
30	0x3dfeb81f	0.12437462
31	0x3e51ebc7	0.20500098
32	0xbe15a684	-0.14614302
33	0x3d82d2d3	0.06387868
34	0x3e52aab5	0.20572932
35	0x3c76ca52	0.015062885
36	0x3db525ae	0.088450775
37	0x3d0ac5b2	0.033879943
38	0x3e84ca2b	0.25935492
39	0x3e32cf83	0.17461972
40	0x3dafc8aa	0.085831955
41	0x3d5c10aa	0.05372683
42	0x3e509bf1	0.20371987
43	0x3e603e66	0.21898803
44	0x3d03c2ce	0.032168202
45	0x3db21283	0.08694937
46	0xbe2f163d	-0.17098327
47	0xbe1e77f9	-0.15475453
48	0x3edde1d8	0.43336368
49	0x3c2b3f98	0.010452174
50	0x3da7c424	0.08191708
51	0x3ebfad39	0.37436846
52	0x3e5512d7	0.20807968
53	0x3e2caaa9	0.16861977
54	0xbe2d43b2	-0.16920355
55	0x3cd808bc	0.026371352
56	0xbd3737f4	-0.044731095
57	0x3dedf3b7	0.116187505
58	0x3e63cd82	0.22246364
59	0x3e04e1df	0.12976788
60	0x3ea8e92c	0.32990396
61	0xbc1338cf	-0.008985712
62	0x3e1b2be1	0.15153457
63	0x3e4fef7f	0.20306204

lstm.weight_ih_l1 f4 [64, 16]
0	0x3d889df3	0.066707514
1	0x3e10ee27	0.14153348
2	0x3e523626	0.20528468
3	0x3ebe9ee8	0.3723061
4	0x3e8d2efc	0.2757491
5	0xbee1c009	-0.44091824
6	0x3dd0b8b9	0.10191483
7	0xbe831073	-0.25598487
8	0xbe65ab2d	-0.2242858
9	0xbeb92363	-0.3615981
10	0xbe7b4c3d	-0.24540801
11	0x3e573a9a	0.21018448
12	0x3d40439a	0.04693947
13	0x3dced03e	0.10098313
14	0x3e19a60c	0.15004748
15	0x3e0b7ccd	0.13621826
16	0x3d773ffb	0.06036375
17	0x3eccdc68	0.40011907
18	0x3e02f936	0.12790379
19	0x3e73d6a5	0.23812349
20	0x3e8f4f38	0.27990127
21	0xbdde8eb2	-0.10867061
22	0xbe10a132	-0.14123991
23	0x3e00691c	0.12540096
24	0xbe94f457	-0.29092667
25	0xbb32c418	-0.0027277526
26	0xbe47d9bb	-0.19516651
27	0x3e0f9792	0.14022663
28	0x3e8a7d07	0.27048513
29	0xbe6fa50c	-0.23402804
30	0x3e44c625	0.19216211
31	0x3e162f86	0.14666566
32	0xbe1abce6	-0.15111122
33	0x3e474ef9	0.1946372
34	0x3ea08e0b	0.3135837
35	0x3dc8bb92	0.09801401
36	0x3e0759d8	0.13217866
37	0xbd3abc47	-0.04558971
38	0x3e355fcb	0.17712323
39	0x3ed3f064	0.4139434
40	0xbcae663b	-0.021288982
41	0x3e6499ef	0.22324346
42	0xbdca2dcf	-0.098720185
43	0x3e5076d2	0.20357826
44	0x3e07ac93	0.13249426
45	0x3e027322	0.12739232
46	0xbe502e1d	-0.20330091
47	0x3daa7080	0.08322239
48	0x3e5b4d50	0.21416211
49	0x3e2dc875	0.16971
50	0x3e89f468	0.2694428
51	0xbe7830e4	-0.242374
52	0x3db3a672	0.08771981
53	0xbd9b51ec	-0.07583985
54	0x3e767abd	0.24070258
55	0x3c54a856	0.012979588
56	0xbd841bb6	-0.06450598
57	0x3d32f1b4	0.043687537
58	0x3cf19f4d	0.029494906
59	0x3e80754c	0.2508949
60	0x3e8cc456	0.27493542
61	0x3e16bb8c	0.14719981
62	0x3e079bff	0.13243102
63	0x3db021ef	0.08600222
64	0x3ea240bb	0.3169001
65	0x3eb40bd8	0.35165286
66	0x3e6851b4	0.22687417
67	0xbbbb93d8	-0.0057244115
68	0xbc910d4f	-0.017706541
69	0x3e054ac4	0.13016802
70	0x3e83c93a	0.2573946
71	0xbe06d0d4	-0.13165599
72	0xbdbdbca0	-0.09264493
73	0xbe070248	-0.13184464
74	0xbe447aea	-0.19187513
75	0x3d8478f2	0.06468381
76	0x3e949f56	0.29027814
77	0xbe854765	-0.26031032
78	0x3ecb4197	0.3969848
79	0x3e30f540	0.17281055
80	0x3ea60445	0.32425132
81	0x3bdb9e55	0.0067022243
82	0x3d859854	0.06523195
83	0x3de3f3a3	0.111304544
84	0xbd6cb620	-0.057790875
85	0x3e9c1af0	0.30489302
86	0xbd5dbb4a	-0.05413369
87	0x3e1664cc	0.14686888
88	0x3e26a5e1	0.16274215
89	0xbe3eac79	-0.1862048
90	0xbe1ae651	-0.15126921
91	0x3e8f9436	0.28042763
92	0xbbb0a18a	-0.0053903507
93	0xbdf2412b	-0.11828836
94	0x3ebcb844	0.36859334
95	0xbe2d8660	-0.16945791
96	0x3c60c16b	0.013717989
97	0x3d0591e7	0.032609846
98	0x3e8a98d1	0.27069715
99	0xbe089f70	-0.1334207
100	0xbdf4b416	-0.11948411
101	0x3e891807	0.26776144
102	0xbbc9c54c	-0.006157553
103	0xbe9b5ec8	-0.3034575
104	0x3e7441a3	0.23853163
105	0xbea1c389	-0.31594494
106	0x3d946df5	0.07247535
107	0x3da04e67	0.07827454
108	0x3e2743e9	0.163345
109	0xbeb55269	-0.35414436
110	0xbb2860a6	-0.0025692373
111	0xbc7ede3c	-0.0155559145
112	0xbe88c6a5	-0.26714054
113	0x3e64fbd5	0.22361691
114	0x3ea5bcdd	0.32370654
115	0x3e1e5b05	0.15464409
116	0xbe4ce3ad	-0.20008726
117	0xbe183f74	-0.14867955
118	0x3e06d58e	0.13167402
119	0x3dcaaf67	0.098967366
120	0xbeb00565	-0.34379116
121	0x3d188f5a	0.037246086
122	0x3e800908	0.2500689
123	0xbd510e7b	-0.0510392
124	0xbe7fa278	-0.2496432
125	0x3c37b6b2	0.011212992
126	0xbd0df0c8	-0.034653455
127	0x3eb4eefb	0.35338578
128	0xbe06e881	-0.1317463
129	0x3eabb1a3	0.33533964
130	0x3e4aed2f	0.19817041
131	0xbe7e47b2	-0.24832037
132	0x3d011cd4	0.031521633
133	0xbe545aec	-0.20737809
134	0xbe1d8e8c	-0.15386409
135	0xbdd9c7f7	-0.106338434
136	0x3d500b78	0.050792187
137	0xbdde0d86	-0.10842423
138	0x3d8445f0	0.06458652
139	0x3dc5f7ff	0.09666442
140	0x3cdb973d	0.026805514
141	0xbeadf094	-0.3397261
142	0xbcd55c2e	-0.026044931
143	0x3ec5e44f	0.38650748
144	0x3e3bc92c	0.1833846
145	0x3dbe09fd	0.09279249
146	0xbe35dba8	-0.17759573
147	0xbd3992e5	-0.045306105
148	0x3e3a851f	0.18214844
149	0xbdee72f7	-0.116430216
150	0x3e3bc906	0.18338403
151	0xbe0b89f2	-0.1362684
152	0xbe0e9373	-0.13923435
153	0xbebc6fad	-0.36803952
154	0xbd19f959	-0.037591312
155	0x3e8d2987	0.27570745
156	0x3a5b65ba	0.00083693455
157	0xbece13a1	-0.4024935
158	0x3e6a651a	0.2289013
159	0xbdb5ca3d	-0.088764645
160	0xbea19a83	-0.31563196
161	0x3cb04812	0.02151874
162	0x3e85254e	0.26005024
163	0xbe1f634e	-0.15565225
164	0xbc65fd41	-0.014037431
165	0xbe738ec2	-0.23784927
166	0x3da970f0	0.08273494
167	0x3e060d0f	0.13090919
168	0xbe21c840	-0.15799046
169	0x3c839437	0.016061885
170	0xbdd6f565	-0.10496024
171	0xbe2d6047	-0.16931258
172	0xbde29503	-0.11063578
173	0x3ec49fa1	0.38403037
174	0xbc735ec5	-0.014854138
175	0x3d0b1864	0.033958808
176	0x3e6175e3	0.22017626
177	0x3e642bb3	0.22282295
178	0x3d8abaec	0.06773934
179	0x3dc02281	0.09381581
180	0xbd43be16	-0.047788702
181	0xbb4f44f3	-0.003162679
182	0xbda18add	-0.07887814
183	0xbe4ff1c7	-0.20307074
184	0x3d46c034	0.048523143
185	0x3d8e9421	0.06961847
186	0xbdd5f9d2	-0.1044804
187	0xbe3014ff	-0.1719551
188	0x3dd87918	0.10569972
189	0xbe06c005	-0.13159187
190	0x3db4f6f7	0.08836167
191	0x3e947ecf	0.29002997
192	0xbe92a87d	-0.2864417
193	0xbe81bdc1	-0.25340083
194	0x3ec705fc	0.38871753
195	0xbcae9b6a	-0.021314342
196	0x3e409678	0.188074
197	0xbd9c3aae	-0.0762838
198	0xbe4f30d8	-0.20233476
199	0xbc4bb54b	-0.01243336
200	0x3ced28ec	0.028950177
201	0x3e23eb92	0.16007832
202	0xbdcc1416	-0.099647686
203	0x3e37a4a9	0.17933907
204	0xbd7be4a6	-0.061497353
205	0x3e6d6033	0.23181228
206	0x3dbc6a34	0.09199944
207	0x3e8cd626	0.27507132
208	0x3e43e7a3	0.19131331
209	0x3c093456	0.008374294
210	0x3e5727d1	0.21011283
211	0x3d9cc512	0.07654776
212	0x3e58f91f	0.21188782
213	0x3d064549	0.03278092
214	0x3daf58a5	0.085618295
215	0x3ca2ca30	0.019871801
216	0xbe4b873e	-0.1987581
217	0xbbed94c2	-0.0072503993
218	0xbe2dcd86	-0.16972932
219	0x3d1dc135	0.038514335
220	0xbddec8c5	-0.108781375
221	0x3db8aebb	0.09017702
222	0xbd07cf4e	-0.033156686
223	0x3c0ccb41	0.008593381
224	0x3db09c1c	0.086235255
225	0x3e481e24	0.19542748
226	0xbc11ad01	-0.008891345
227	0x3e33281a	0.17495766
228	0x3e81cd0d	0.25351754
229	0xbe401ec0	-0.1876173
230	0x3dd324af	0.10309731
231	0xbddf1e17	-0.10894411
232	0x3e1225d6	0.14272246
233	0xbe12f852	-0.14352539
234	0xbdf6d278	-0.120518625
235	0xbd3b7bf8	-0.045772523
236	0x3e7b4dd3	0.24541406
237	0xbd4b9705	-0.04970457
238	0x3ca68421	0.020326676
239	0x3e8877b4	0.26653826
240	0xbd2bf1fc	-0.04197882
241	0x3dc29cef	0.09502589
242	0xbd4a5a84	-0.04940273
243	0xbe4f3c97	-0.20237957
244	0xbd854d04	-0.0650883
245	0x3e97b18c	0.29627645
246	0x3b8e17e4	0.004336344
247	0xbe5d61db	-0.2161936
248	0xbd2e7b01	-0.042597774
249	0xbeb611c6	-0.35560435
250	0xbce1e3f4	-0.027574517
251	0x3e9edb97	0.3102691
252	0x3e4dd90f	0.20102333
253	0xbee244f1	-0.44193223
254	0xbc8f7d63	-0.017515844
255	0x3e93bb71	0.28853944

lstm.weight_hh_l1 f4 [64, 16]
0	0x3d75ee65	0.060041804
1	0xbeb67f36	-0.3564393
2	0x3e193003	0.14959721
3	0x3dcc6611	0.09980405
4	0x3dfc6715	0.12324349
5	0xbdcd87e8	-0.10035688
6	0xbd0e7948	-0.03478363
7	0xbea92454	-0.3303553
8	0x3d1d06e2	0.038336642
9	0xbd63f981	-0.055657867
10	0xbdcf886f	-0.101334445
11	0x3e949161	0.29017165
12	0xbd4105ca	-0.04712466
13	0xbd1b25cc	-0.037877843
14	0xbde1ac80	-0.1101923
15	0x3e0083e5	0.12550314
16	0x3e8b7008	0.2723391
17	0xbe6034c1	-0.21895124
18	0x3e881adb	0.2658299
19	0x3e4e3a31	0.20139386
20	0x3d6ea05f	0.05825841
21	0x3e6e145a	0.23249951
22	0x3e0e609e	0.13904044
23	0xbe9a7608	-0.30168176
24	0x3d36dfd1	0.04464704
25	0xbd251c68	-0.040310293
26	0xbe9ce84d	-0.3064598
27	0xbdf329a7	-0.11873179
28	0x3dbaa04c	0.091126055
29	0xbd423d55	-0.047421772
30	0x3e1e8980	0.1548214
31	0xbe8a2d2e	-0.26987594
32	0xbb932abf	-0.0044911797
33	0xbeb516f2	-0.35369068
34	0x3e8a2fe5	0.26989666
35	0x3e284d39	0.16435708
36	0x3ebf5061	0.37366012
37	0xbe88d488	-0.26724648
38	0x3d884d6f	0.06655394
39	0xbe8a9837	-0.27069256
40	0xbe421e80	-0.18956947
41	0x3e0da771	0.13833405
42	0x3d5fb921	0.054619912
43	0x3dcf64c8	0.101266444
44	0x3e7db1a9	0.24774803
45	0x3c26a01d	0.01017001
46	0x3e1b6ba1	0.15177776
47	0xbdf8bbe8	-0.12145215
48	0x3dca7888	0.09886271
49	0xbdf93b9b	-0.12169572
50	0xbd84701d	-0.064666964
51	0x3e76d022	0.24102834
52	0xbdaf5473	-0.08561029
53	0xbdc6a738	-0.09699863
54	0x3ec45878	0.38348746
55	0x3d9b475a	0.075819686
56	0xbeb401b1	-0.3515754
57	0x3e94f4c8	0.29093003
58	0xbdba1f9f	-0.090880625
59	0x3e020042	0.12695411
60	0xbc8d5dbd	-0.017256612
61	0x3e327e60	0.1743102
62	0xbd5bf3e8	-0.053699404
63	0xbeb3c951	-0.3511453
64	0x3eac9972	0.3371082
65	0xbe6d75e4	-0.23189503
66	0xbe5c7f6f	-0.21532987
67	0x3c89d73b	0.016826263
68	0x3df2e337	0.11859744
69	0xbe1fc065	-0.15600736
70	0x3d705bcd	0.058681298
71	0x3e36b08a	0.17840782
72	0xbde0677a	-0.109572366
73	0xbc97708e	-0.018486287
74	0x3ded6a32	0.11592521
75	0x3e28fcf8	0.1650275
76	0x3d7f921b	0.062395196
77	0x3e4ec100	0.20190811
78	0xbdb6d016	-0.08926408
79	0xbdc8aeac	-0.09798941
80	0xbd3c783e	-0.04601311
81	0xbe8f6d92	-0.28013283
82	0x3dc63752	0.0967852
83	0x3d45e451	0.048313443
84	0xbe366f01	-0.17815782
85	0xbe81a814	-0.25323546
86	0xbd9e0561	-0.0771587
87	0xbda55553	-0.08072915
88	0x3dd741bb	0.10510584
89	0xbdfba546	-0.12287383
90	0xbdd44319	-0.1036436
91	0x3d864b26	0.06557302
92	0xbe8082f3	-0.25099906
93	0xbdd612a5	-0.10452775
94	0xbd45004a	-0.04809598
95	0xbc50690d	-0.012720359
96	0xbd774605	-0.06036951
97	0xbe69d820	-0.22836351
98	0x3e354eb1	0.177058
99	0x3b458e03	0.003014446
100	0x3dc0c6c8	0.094129145
101	0xbd088408	-0.03332904
102	0x3e2ec79a	0.1706833
103	0x3ddec9ed	0.10878358
104	0xbdef7ffb	-0.11694332
105	0x3e9cdf0f	0.3063893
106	0x3dbd4b8a	0.092429236
107	0x3e88bdda	0.26707345
108	0x3df4c74b	0.119520746
109	0xbe1fc770	-0.15603423
110	0x3e36951b	0.17830317
111	0xbe605109	-0.21905912
112	0xbd8f7565	-0.07004813
113	0xbda33bcc	-0.0797039
114	0xbc6c28f9	-0.0144140655
115	0x3d84a483	0.064766906
116	0x3e773ee9	0.24145092
117	0xbe4eb21c	-0.20185131
118	0x3e801132	0.2501312
119	0x3dae4ad5	0.08510367
120	0x3e534c67	0.20634614
121	0x3e334158	0.17505395
122	0xbd8025a9	-0.06257183
123	0x3d24bb0a	0.040217437
124	0x3e511693	0.20418768
125	0x3d8e57bf	0.0695033
126	0x3d8c3d27	0.068476014
127	0x3d1b4578	0.037908047
128	0xbe13e997	-0.14444576
129	0x3df5c6e9	0.1200083
130	0x3d27ec45	0.04099681
131	0x3ddf2e74	0.10897532
132	0x3d9e434d	0.0772768
133	0xbe115042	-0.14190772
134	0xbd18f407	-0.037342098
135	0x3d252d94	0.04032667
136	0xbd5c20bb	-0.05374215
137	0xbdaf3163	-0.08554342
138	0x3d9bcf31	0.07607878
139	0x3e3bc90e	0.18338415
140	0x3d045e4f	0.032316502
141	0xbdd7c8fc	-0.105363816
142	0x3d98f864	0.07469252
143	0xbe93fa11	-0.28901723
144	0x3e6c53ae	0.23078796
145	0x3a34b222	0.0006892999
146	0xbe232834	-0.15933305
147	0x3dfc5fb3	0.12322941
148	0x3e0c7d59	0.13719691
149	0xbe111f2f	-0.14172052
150	0xbdadb6f7	-0.084821634
151	0xbe50a4e4	-0.20375401
152	0xbe8bb13d	-0.2728366
153	0xbe31789c	-0.17331165
154	0x3b199e99	0.0023440479
155	0x3e2c9f3c	0.16857618
156	0xbb936c6b	-0.0044990084
157	0x3e5a8947	0.2134143
158	0x3e146a2d	0.14493628
159	0x3e09482d	0.13406439
160	0x3d0338f9	0.032036755
161	0x3c04ab75	0.008097519
162	0xbc9915a9	-0.018687086
163	0x3e8a2879	0.26984003
164	0x3e3e5045	0.18585308
165	0x3da6c42f	0.08142888
166	0xbd68f2d2	-0.056872196
167	0x3cc5ea77	0.024159653
168	0xbec79a75	-0.3898503
169	0xbdfa920d	-0.12234888
170	0xbe5f980f	-0.2183535
171	0xbdf8bf97	-0.12145918
172	0xbdf104ba	-0.1176848
173	0x3e4411c4	0.19147402
174	0xbda6a8f6	-0.081376955
175	0xbb9285a2	-0.0044714967
176	0xbd4b2d87	-0.049603965
177	0x3e54c3ce	0.20777819
178	0xbe8ceb97	-0.2752349
179	0x3df7b9ed	0.120960094
180	0x3d9973e4	0.074928075
181	0x3dedbbdf	0.11608099
182	0xbe444a38	-0.19168937
183	0xbdcc928d	-0.0998889
184	0xbe1b5ab4	-0.15171319
185	0x3d18394f	0.03716403
186	0xbe7d1d93	-0.24718313
187	0xbd6767a7	-0.056495335
188	0xbd9693e5	-0.073524274
189	0xbe13d682	-0.14437297
190	0xbe3d6456	-0.18495306
191	0xbe490fa7	-0.19634877
192	0x3e3bf6d8	0.18355882
193	0xbe591f8d	-0.21203442
194	0x3e9b5421	0.30337623
195	0xbd4b41ad	-0.04962318
196	0x3e4370da	0.19086018
197	0xbeabd604	-0.33561718
198	0x3e67295d	0.22574373
199	0xbde23731	-0.11045683
200	0xbdc82b91	-0.09773935
201	0x3d0b9bca	0.03408412
202	0xbe565a20	-0.20932817
203	0xbbfda243	-0.0077402904
204	0xbd5afaad	-0.05346172
205	0x3e2b5770	0.16732574
206	0x3ee4eba5	0.44711033
207	0xbe6d7787	-0.23190127
208	0x3e8cbe55	0.27488962
209	0x3d3821a8	0.044953972
210	0xbe539503	-0.20662312
211	0xbd44f6b6	-0.048086844
212	0xbcd766fb	-0.026294222
213	0xbe456499	-0.19276656
214	0x3e252f05	0.16131218
215	0xbd052f95	-0.03251608
216	0xbe8910eb	-0.2677072
217	0xbd2c25c6	-0.04202821
218	0x3e036b8e	0.12833998
219	0x3e29ccea	0.16582075
220	0x3d721d4d	0.059109975
221	0x3d1d554d	0.038411427
222	0xbcf33721	-0.029689373
223	0xbe2799c2	-0.16367248
224	0x3e3f5341	0.18684103
225	0x3de3e313	0.11127295
226	0x3e38047a	0.17970458
227	0x3eb4e19f	0.35328385
228	0x3e754ea8	0.23955786
229	0xbdf333cf	-0.11875116
230	0x3e7edd5b	0.24889128
231	0xbe97d0b5	-0.29651418
232	0xbe938be3	-0.28817663
233	0x3c44a4b6	0.012002161
234	0x3d0483ea	0.032352366
235	0xbd95eaef	-0.07320201
236	0x3de2db93	0.11077037
237	0x3ce17baa	0.027524788
238	0x3cdf4c2f	0.027258007
239	0xbea9ada6	-0.33140296
240	0x3e8200f4	0.25391352
241	0xbe5a3833	-0.21310501
242	0xbe525edf	-0.20544003
243	0x3d41a59c	0.047277078
244	0x3e1504f6	0.14552674
245	0x3cd2580e	0.025676753
246	0x3d81e4c1	0.063424595
247	0xbd682d91	-0.05668408
248	0x3cbacada	0.022801805
249	0x3e7fc63d	0.24977966
250	0x3d9543e9	0.072883435
251	0xbde7c0cf	-0.11316072
252	0xbd83c42f	-0.064339034
253	0xbd0a24f6	-0.033726655
254	0xbd2b36e6	-0.041800402
255	0x3de83617	0.11338442

lstm.bias_ih_l1 f4 [64]
0	0x3e25b067	0.16180573
1	0x3ea6875e	0.32525152
2	0x3dbc05ae	0.09180771
3	0x3db4e0dd	0.08831952
4	0x3cb477c2	0.022029761
5	0x3e9779bb	0.2958506
6	0xbdf399b1	-0.11894549
7	0xbd0235ed	-0.03178971
8	0xbd410f26	-0.047133587
9	0x3e8f81d7	0.28028747
10	0x3d01f12c	0.03172414
11	0xbdaa8495	-0.08326069
12	0x3dc6cfa6	0.097075745
13	0x3e0c6b06	0.13712701
14	0x3d56b725	0.052420754
15	0xbd9ad04f	-0.07559263
16	0x3df876fd	0.1213207
17	0xbe3e375f	-0.1857581
18	0xbba3688f	-0.0049868296
19	0x3e8fe096	0.28101033
20	0xbd18204b	-0.037140172
21	0x3e29473e	0.16531083
22	0xbd33ff11	-0.043944422
23	0x3c844100	0.016144276
24	0x3d605b29	0.054774437
25	0x3da4d58a	0.08048542
26	0xbcf96362	-0.030442897
27	0x3e0f99ff	0.14023589
28	0xbe2c4742	-0.16824058
29	0xbe28c754	-0.16482288
30	0x3e4efc58	0.20213449
31	0xbe212805	-0.15737922
32	0x3e229c4c	0.15879935
33	0x3e16db99	0.14732207
34	0xbd6d20df	-0.057892676
35	0xbdd99eba	-0.10625978
36	0x3e5f773d	0.2182283
37	0x3e31d513	0.17366438
38	0x3dab94b2	0.08377971
39	0xbdd12e26	-0.1021388
40	0x3d5ad439	0.053425048
41	0x3da09aab	0.078420006
42	0xbe0f8416	-0.1401523
43	0x3d361ef0	0.044463098
44	0xbde2ff70	-0.11083877
45	0x3e3c5c97	0.18394695
46	0x3b38a0a3	0.0028171919
47	0x3e441182	0.19147304
48	0x3ebd6a1e	0.36995023
49	0x3e597e65	0.21239622
50	0x3e6d9723	0.23202185
51	0x3dd6291a	0.10457058
52	0x3daa0a59	0.08302755
53	0x3e04a039	0.12951745
54	0x3cebac63	0.028768724
55	0xbc2e7227	-0.010647333
56	0xbd7871ac	-0.06065528
57	0x3e21194f	0.1573231
58	0x3e953c3e	0.29147524
59	0x3d84c606	0.064830825
60	0xbda2ef4b	-0.07955798
61	0x3dada4dc	0.0847871
62	0xbde0f725	-0.10984639
63	0xbd8cda97	-0.0687763

lstm.bias_hh_l1 f4 [64]
0	0x3e391bc2	0.18076995
1	0x3d16c932	0.03681297
2	0xbdc5d874	-0.09660426
3	0xbe0375fd	-0.12837978
4	0x3e082b74	0.13297826
5	0x3d2c37b5	0.042045314
6	0xbd264a93	-0.040598463
7	0xbdf69ea2	-0.120419756
8	0x3e0e14e9	0.13875164
9	0x3cf51bf9	0.029920565
10	0x3e84c474	0.25931132
11	0xbe67e1d8	-0.22644746
12	0x3e8cb646	0.27482814
13	0x3e820125	0.25391498
14	0xbdab05fa	-0.08350749
15	0x3c24a62f	0.010049387
16	0x3e67b3fa	0.2262725
17	0x3ca3a9e2	0.019978467
18	0xbe3e284f	-0.18570064
19	0xbc013cad	-0.007888001
20	0x3e8fc7cc	0.2808212
21	0x3d884d01	0.06655312
22	0xbe5445a2	-0.20729688
23	0x3d9bb1e8	0.07602292
24	0xbdb4347d	-0.08799074
25	0x3c49617c	0.0122913085
26	0xbe34cc53	-0.17656069
27	0x3c9f7fe9	0.019470172
28	0xbe2d3a98	-0.16916883
29	0xbc50b643	-0.012738767
30	0x3e01bc74	0.12669545
31	0x3de79013	0.11306777
32	0x3e57db06	0.21079645
33	0xbdead744	-0.1146684
34	0x3e0910b8	0.13385284
35	0x3e886b83	0.26644525
36	0x3e42f2ac	0.19037884
37	0xbe81c04c	-0.25342023
38	0x3dd0252a	0.101633385
39	0xbce170de	-0.02751964
40	0xbdeda758	-0.11604184
41	0x3e5ab4c8	0.21358025
42	0xbddff395	-0.109351315
43	0x3e54e3ce	0.20790026
44	0x3e6948ef	0.22781728
45	0x3dda978d	0.10673437
46	0xbdca47f2	-0.09877004
47	0xbe34a2c2	-0.17640212
48	0x3e66718f	0.22504257
49	0x3dc06ae4	0.09395388
50	0x3e3f028f	0.1865332
51	0xbe0b5c4a	-0.13609424
52	0x3e506c32	0.20353773
53	0x3e209337	0.15681158
54	0x3d91a409	0.07111365
55	0xbd92e85f	-0.071732275
56	0x3ea7d362	0.3277846
57	0x3e463107	0.1935464
58	0xbe4c25c8	-0.19936287
59	0x3e2d7db1	0.16942479
60	0xbd5e3596	-0.054250322
61	0xbd0b2658	-0.033972114
62	0xbdda7643	-0.10667088
63	0xbccce80a	-0.025012989

lstm.weight_ih_l2 f4 [64, 16]
0	0xbe67f8f1	-0.22653557
1	0x3e1d99d0	0.15390706
2	0x3e767875	0.24069388
3	0x3e055b49	0.13023104
4	0xbdd34228	-0.10315353
5	0xbcc14dea	-0.023596723
6	0x3e71600f	0.235718
7	0xbe5cb59f	-0.21553658
8	0x3d5cf631	0.053945724
9	0xbe4d70c1	-0.20062543
10	0xbc15384b	-0.00910766
11	0xbe2d13b1	-0.16902043
12	0x3d9cf17f	0.07663249
13	0x3e09c755	0.13454945
14	0xbd9a6812	-0.07539381
15	0xbe0d934f	-0.13825725
16	0xbe05fbc7	-0.13084327
17	0xbd4a3df0	-0.049375474
18	0x3c9c0abb	0.019048085
19	0x3ea60d73	0.32432136
20	0x3e83cb77	0.2574117
21	0x3c11590e	0.00887133
22	0x3ddc7c3a	0.10765882
23	0xbb2d1369	-0.0026409274
24	0x3c588d78	0.0132173225
25	0x3c41807e	0.01181042
26	0xbe225037	-0.15850912
27	0x3e7fb922	0.24972966
28	0x3c6b0a37	0.014345697
29	0x3e81d355	0.25356546
30	0xbdccfe48	-0.10009438
31	0xbe8a6248	-0.27028108
32	0x3e16692d	0.14688559
33	0x3d85c5a1	0.06531835
34	0x3ea0458f	0.3130307
35	0x3cf2e07e	0.029648062
36	0xbc6b8c2c	-0.014376681
37	0xbead9ee0	-0.33910275
38	0x3ea3acbf	0.31967732
39	0xbe703775	-0.23458655
40	0xbe7bb3b4	-0.2458027
41	0x3e0b46dc	0.1360125
42	0x3d425a5e	0.047449462
43	0xbd8042c0	-0.062627316
44	0x3e35a0c6	0.17737111
45	0x3dbf713c	0.093477696
46	0x3e6800f4	0.22656614
47	0xbbdf96da	-0.006823403
48	0xbe855382	-0.26040274
49	0x3ceb1aa9	0.028699236
50	0x3ec8081f	0.39068696
51	0xbda2055b	-0.07911178
52	0x3dbdf846	0.0927587
53	0x3e05de6b	0.13073127
54	0x3dbbdcc7	0.09172969
55	0x3cb0de26	0.021590304
56	0x3e584de8	0.21123469
57	0xbe324f1a	-0.17412987
58	0xbe49b159	-0.19696559
59	0x3e6c137d	0.23054309
60	0x3d84b0ef	0.0647906
61	0xbe80c8c2	-0.25153166
62	0xbd6f3b62	-0.05840624
63	0x3da03b27	0.078237824
64	0xbc1e06aa	-0.0096451435
65	0xbe914cbb	-0.28378853
66	0x3d887113	0.06662192
67	0x3d853883	0.065049194
68	0x3e216eba	0.15764895
69	0x3dd0ce20	0.10195565
70	0xbd0eba1f	-0.034845468
71	0xbea897f2	-0.32928425
72	0xbe7df4f5	-0.24800475
73	0xbd13ef1b	-0.0361167
74	0xbe3f65fa	-0.18691245
75	0x3e5f4b7d	0.2180614
76	0x3e2357cf	0.15951465
77	0x3e082b56	0.13297781
78	0x3d6793e0	0.05653751
79	0x3d821d81	0.06353284
80	0xbc056f08	-0.008144148
81	0xbd463485	-0.04838993
82	0x3ef4d02d	0.47815076
83	0x3e37df9d	0.17956395
84	0x3e440954	0.19144183
85	0x3e4e81be	0.2016668
86	0xbcb3ef9f	-0.021964846
87	0xbed05b9f	-0.406949
88	0x3e31c885	0.17361648
89	0xbdf8a5a8	-0.121409714
90	0xbec3a449	-0.38211277
91	0xbe1f906e	-0.1558244
92	0x3cc95c10	0.024580032
93	0xbd312694	-0.04324968
94	0xbe29a7da	-0.16567937
95	0xbdc90920	-0.098161936
96	0x3e1758fb	0.14780037
97	0xbd0046ab	-0.031317394
98	0xbec714f9	-0.38883188
99	0x3e56df0a	0.2098352
100	0x3e6bbbea	0.23020902
101	0xbe9bdd60	-0.30442333
102	0x3c1a8bb8	0.009432726
103	0xbaf99d5a	-0.0019044087
104	0xbea0c99f	-0.31403825
105	0x3e94ea38	0.29084945
106	0x3e0b0b74	0.13578588
107	0x3db61f06	0.08892636
108	0xbe5e37a4	-0.21700913
109	0x3c8b569e	0.017009076
110	0x3e863d24	0.26218522
111	0xbe99385a	-0.29925805
112	0x3d5e03bd	0.054202784
113	0x3d91a392	0.07111277
114	0x3cf7c8c1	0.030247094
115	0x3e37f0cf	0.17962955
116	0x3e318c30	0.17338634
117	0xbe022cb4	-0.12712365
118	0xbc80535b	-0.015664747
119	0x3e5a9bd8	0.21348512
120	0xbd997537	-0.0749306
121	0x3e6b6b85	0.22990234
122	0x3e53bcfa	0.20677558
123	0xbe0a3981	-0.13498498
124	0xbe4433e5	-0.19160421
125	0x3e7dbbb8	0.2477864
126	0x3d81aa1b	0.06331273
127	0x3bc76199	0.0060846326
128	0xbe04eda6	-0.1298128
129	0xbe36c30d	-0.17847843
130	0xbd5fe788	-0.054664165
131	0x3ea080f4	0.31348383
132	0x3e59c856	0.21267828
133	0x3e078a5f	0.13236378
134	0x3d75e7eb	0.060035627
135	0xbe41c7ef	-0.18923925
136	0xbc9f07f8	-0.01941298
137	0x3e0e2c99	0.138842
138	0x3da02617	0.07819765
139	0x3e928997	0.28620598
140	0x3e8f0c5d	0.2793912
141	0x3e897534	0.2684723
142	0x3e27d9c5	0.16391666
143	0xbbd6197d	-0.0065338
144	0xbcf835ab	-0.030299028
145	0xbd63f1e4	-0.055650607
146	0x3dbe0d14	0.09279838
147	0x3dda913c	0.106722325
148	0x3dd78145	0.10522703
149	0xbe7ab11f	-0.24481629
150	0xbd82aa43	-0.06380131
151	0xbdd638e0	-0.10460067
152	0x3d565b36	0.05233308
153	0x3d7deaa7	0.06199136
154	0xbe77207c	-0.24133486
155	0x3ae07991	0.0017126073
156	0x3e26412b	0.16235797
157	0xbc50519c	-0.01271477
158	0x3dee9a2b	0.11650499
159	0xbe149be9	-0.145126
160	0xbdbc3fcc	-0.09191856
161	0x3e2c76fc	0.16842264
162	0x3e19d552	0.15022781
163	0xbdf8e06b	-0.12152179
164	0x3d8b0191	0.06787408
165	0xbe839501	-0.25699618
166	0x3e5134c3	0.20430283
167	0xbe905d05	-0.28195968
168	0xbd39fe56	-0.04540857
169	0xbe036cb8	-0.12834442
170	0xbe01044c	-0.12599295
171	0xbdf293ad	-0.11844573
172	0xbd4a82ce	-0.04944115
173	0x3d89a4c5	0.067208804
174	0x3e15ac96	0.14616618
175	0xbde69158	-0.11258191
176	0x3dfffad7	0.12499016
177	0x3e16996e	0.14706966
178	0xbd2595ca	-0.040426053
179	0x3d415135	0.047196586
180	0xbe3b2c60	-0.18278646
181	0xbda8cca3	-0.08242156
182	0x3da02ab2	0.078206435
183	0x3e308f91	0.17242266
184	0x3be4e427	0.0069852057
185	0xbdd4f5bb	-0.10398432
186	0x3e1674c1	0.14692976
187	0xbc9c3cdc	-0.019071989
188	0xbd8996dd	-0.06718228
189	0xbddf246b	-0.10895618
190	0x3e9b133a	0.30288106
191	0xbd6574cc	-0.05601959
192	0xbc2069f1	-0.009790883
193	0xbeb06369	-0.34450844
194	0x3dc96f62	0.09835698
195	0x3e91b800	0.28460693
196	0xbe052f90	-0.13006425
197	0xbeb1a331	-0.34694818
198	0xbd1f7666	-0.038931273
199	0xbe358ced	-0.1772954
200	0xbe76b6ba	-0.24093142
201	0x3bd7789b	0.0065756566
202	0x3dad5b68	0.084647
203	0x3d1e40f7	0.038636174
204	0x3d997bc9	0.07494313
205	0xbc8b652a	-0.017016012
206	0xbd785777	-0.060630288
207	0xbe561bf7	-0.20909105
208	0xbdf382cd	-0.11890183
209	0xbe330b49	-0.17484774
210	0x3e58df66	0.2117897
211	0x3e8f034a	0.27932197
212	0x3e889704	0.26677716
213	0xbcd2d4e7	-0.025736285
214	0xbdb62809	-0.08894355
215	0xbe34678c	-0.17617625
216	0xbdbd7d8b	-0.09252461
217	0x3e577b9b	0.21043245
218	0xbcfcbe53	-0.030852472
219	0xbd53b388	-0.051684886
220	0x3da0323b	0.07822081
221	0x3e68d3f8	0.2273711
222	0x3d10743e	0.035267107
223	0xbe1bb77f	-0.15206717
224	0x3d7a41bf	0.061097857
225	0xbe080719	-0.13283958
226	0x3ec00e36	0.37510842
227	0x3d82b808	0.063827574
228	0x3de2852a	0.11060555
229	0x3aadba62	0.0013254399
230	0xbd1df95e	-0.038567893
231	0xbe231e46	-0.15929517
232	0x3e24a90c	0.16080111
233	0x3eb9ad32	0.3626495
234	0x3d73788a	0.059441127
235	0x3c257b88	0.010100253
236	0x3e54cf9c	0.20782322
237	0x3e6218f2	0.22079828
238	0xbdfaafa9	-0.12240536
239	0x3dbee151	0.093203194
240	0xbe07d26c	-0.13263863
241	0xbe5b5d7a	-0.21422377
242	0x3d2fc307	0.042910602
243	0xbe2cd3e5	-0.16877706
244	0xbd8fdca6	-0.07024507
245	0xbc95cff6	-0.01828764
246	0xbcb7b271	-0.022423955
247	0xbe69cfae	-0.2283313
248	0xbe8443c0	-0.2583294
249	0x3e9e88f7	0.3096387
250	0x3922e53b	0.00015534919
251	0x3dac7337	0.08420413
252	0xbd817536	-0.06321184
253	0x3b071a38	0.0020614993
254	0x3d8afa58	0.067860305
255	0xbebc711c	-0.36805046

lstm.weight_hh_l2 f4 [64, 16]
0	0xbe51e481	-0.20497324
1	0x3e1ea8f4	0.15494138
2	0xbd39349f	-0.0452162
3	0x3db0b3c6	0.08628039
4	0x3ccd906b	0.025093278
5	0xbdfe93d6	-0.12430541
6	0x3df44880	0.11927891
7	0xbe78c2f9	-0.24293126
8	0x3e111a08	0.14170086
9	0x3c041af7	0.00806307
10	0xbe6762ea	-0.22596326
11	0xbd818279	-0.06323714
12	0xbe31ca76	-0.17362389
13	0x3e83e79c	0.2576264
14	0xbe8bbf0c	-0.27294195
15	0xbe01e69c	-0.12685627
16	0x3dd0b914	0.10191551
17	0xbdca8864	-0.09889296
18	0x3d99958c	0.07499227
19	0x3ecfb856	0.40570325
20	0x3e7c22a9	0.24622597
21	0xbe64b8ca	-0.22336116
22	0xbd204e20	-0.039137006
23	0x3dc83df9	0.09777445
24	0xbe066550	-0.13124585
25	0xbad5f19d	-0.0016322617
26	0x3cc372e2	0.023858491
27	0xbe5f589a	-0.21811143
28	0x3e08d565	0.13362654
29	0x3ea8504a	0.32873756
30	0x3d6fa32b	0.05850522
31	0x3ead9050	0.33899164
32	0x3d9a0ab3	0.07521572
33	0xbe0f2140	-0.13977528
34	0x3e158231	0.14600445
35	0xbd7d217f	-0.061799522
36	0x3db80018	0.08984393
37	0xbeacbc0a	-0.33737212
38	0xbe438f27	-0.19097577
39	0xbe32be69	-0.17455448
40	0x3c736ff1	0.014858232
41	0xbd651dd8	-0.055936664
42	0xbe857ddc	-0.26072586
43	0xbec9d188	-0.39417672
44	0xbe967778	-0.29388022
45	0xbda6245c	-0.08112404
46	0xbdf65ff5	-0.12030021
47	0x3e118a92	0.14213017
48	0xbdda9bd0	-0.1067425
49	0x3d9e1a7d	0.07719896
50	0x3d10118b	0.03517298
51	0x3da820a1	0.082093485
52	0x3cd2db4e	0.025739338
53	0xbdf639bd	-0.120227315
54	0xbc583bc3	-0.013197842
55	0xbe7158e7	-0.2356907
56	0x3da34645	0.07972387
57	0x3e0ff5f2	0.14058664
58	0xbe62a70b	-0.22134034
59	0xbd65f670	-0.056143224
60	0xbe89293a	-0.26789266
61	0x3ce1ba1c	0.027554564
62	0xbe0406ae	-0.12893173
63	0x3d63f5da	0.055654384
64	0x3c3e8a61	0.011629672
65	0x3dd0cb80	0.101950645
66	0x3b18b744	0.0023302594
67	0x3cb9243a	0.022600282
68	0x3d254f63	0.040358912
69	0xbea975de	-0.33097738
70	0xbd118f14	-0.03553684
71	0x3d1cd944	0.03829314
72	0xbe882bda	-0.26595956
73	0xbe8c9776	-0.27459306
74	0xbd2a7897	-0.04161891
75	0xbe998500	-0.29984283
76	0xbdd59a13	-0.10429778
77	0x3bda170b	0.006655579
78	0x3e57a757	0.21059929
79	0x3ddf8ac6	0.10915141
80	0xbdac0da8	-0.08401042
81	0xbe8634bb	-0.26212105
82	0x3dbf14ca	0.09330137
83	0x3d11f588	0.035634547
84	0x3e2a268b	0.16616265
85	0xbec07d49	-0.37595585
86	0xbe12136b	-0.1426522
87	0xbea97480	-0.33096695
88	0xbe52cc18	-0.20585668
89	0x3d630acd	0.055430222
90	0x3e454464	0.1926437
91	0x3e0d4c49	0.13798632
92	0xbda9e7d2	-0.08296169
93	0x3d83eb5f	0.06441378
94	0xbcb25778	-0.021770224
95	0x3e8d1c48	0.2756064
96	0x3eb5bcfe	0.35495752
97	0x3ebc343e	0.36758608
98	0x3d38fd47	0.04516342
99	0x3dfbcdd4	0.12295118
100	0xbe87343c	-0.2640704
101	0x3dd3193a	0.10307546
102	0xbe94204d	-0.28930894
103	0xbcab4942	-0.020908955
104	0xbe81f080	-0.253788
105	0x3dc1bbcb	0.09459647
106	0xbc5bdff6	-0.013420096
107	0xbe85b12f	-0.26111743
108	0x3b46a0ea	0.0030308315
109	0x3c8dac23	0.017293995
110	0x3ec4b499	0.38419035
111	0x3df6f7c3	0.120589755
112	0xbd09eeda	-0.033675052
113	0xbd8e5aec	-0.06950936
114	0x3e82bce3	0.25534734
115	0x3e8fffdf	0.28124902
116	0x3df58bec	0.119895786
117	0xbe621e19	-0.22081794
118	0x3da77ac6	0.08177714
119	0x3d79a0bf	0.060944315
120	0xbe4fbe68	-0.20287478
121	0xbe863342	-0.26210982
122	0xbe70d030	-0.23516917
123	0x3da8be0a	0.08239372
124	0xbd09c96a	-0.03363935
125	0xbe2c5a62	-0.16831353
126	0x3e4b0eef	0.19829915
127	0xbe418073	-0.18896656
128	0xbd9d6dc1	-0.076869495
129	0x3e8549cc	0.26032865
130	0x3ee294ca	0.44254142
131	0x3cb56a66	0.022145461
132	0xbe474c4c	-0.19462699
133	0xbe86f75b	-0.26360592
134	0x3e0eca62	0.1394439
135	0xbe663352	-0.22480515
136	0x3d186439	0.037204955
137	0xbcb0c0c1	-0.021576287
138	0x3e3654ce	0.17805788
139	0xbda8ed1b	-0.08248349
140	0x3b53a7d4	0.0032296078
141	0x3e0249c2	0.12723449
142	0x3e09c9a1	0.13455822
143	0xbd5e4b9c	-0.054271325
144	0x3db948f1	0.090471156
145	0x3cd04185	0.025421867
146	0xbdcefa02	-0.10106279
147	0x3e40517f	0.18781088
148	0x3dd545b7	0.10413688
149	0xbe934ea9	-0.2877095
150	0xbe219f45	-0.15783413
151	0x3dac9d8c	0.08428487
152	0x3cd74f2c	0.02628287
153	0x3e1b60c4	0.15173632
154	0x3bf20f9e	0.0073871156
155	0x3dad83ef	0.0847243
156	0x3de22e9c	0.11044046
157	0x3dff8d10	0.124780774
158	0x3d939417	0.0720598
159	0x3d106f16	0.03526219
160	0x3e227356	0.1586431
161	0x3d89ab0d	0.067220785
162	0x3ea32d30	0.31870413
163	0x3d3373f5	0.043811757
164	0x3c975ac3	0.018475896
165	0xbdb3b575	-0.087748446
166	0xbe1aee20	-0.151299
167	0x3d07f96e	0.03319686
168	0xbe9980c9	-0.29981068
169	0xbe2b3566	-0.16719589
170	0x3da13b24	0.07872608
171	0x3df6001e	0.12011741
172	0x3d8c8876	0.06861965
173	0x3dda51ef	0.10660159
174	0xbdc45e9e	-0.09588359
175	0xbdb41be6	-0.08794384
176	0x3e3e2e8f	0.18572448
177	0x3ec9af3b	0.39391503
178	0xbdbf2c93	-0.09334674
179	0xbdd785c0	-0.10523558
180	0xbebb48e1	-0.3657904
181	0x3d0d77ea	0.034538187
182	0x3df551ed	0.11978517
183	0xbd8b4fa6	-0.06802301
184	0xbe1add76	-0.15123543
185	0xbe2613af	-0.16218446
186	0x3daf9259	0.085728355
187	0xbe569598	-0.20955503
188	0xbe9bdadb	-0.3044041
189	0x3da68e6e	0.08132635
190	0x3d882b82	0.066489235
191	0xbca097f7	-0.019603712
192	0xbae1d172	-0.0017228557
193	0xbe1ecc08	-0.15507519
194	0x3e54202a	0.20715395
195	0x3d2dfeb2	0.042479225
196	0xbbbc460d	-0.0057456554
197	0x3e1c3728	0.15255415
198	0xbeaeef55	-0.3416697
199	0xbdf17be2	-0.11791207
200	0x3e08bfce	0.13354418
201	0xbe2c275c	-0.1681189
202	0x3e05df0b	0.13073365
203	0x3c358ae0	0.011080474
204	0xbd4613f7	-0.048358884
205	0x3e5aa114	0.21350509
206	0x3defa5f4	0.11701575
207	0xbdbc696c	-0.09199795
208	0xbe82730d	-0.25478402
209	0xbd907c08	-0.07054907
210	0x3e6bfc68	0.23045504
211	0x3dc2d2d3	0.09512868
212	0xbd556769	-0.052100573
213	0xbe1c4d19	-0.15263785
214	0xbe4ea4c1	-0.20180036
215	0xbe141ecc	-0.14464873
216	0x3cc78695	0.024356166
217	0xbe2e4578	-0.17018688
218	0x3c4469b7	0.011988095
219	0x3c81141c	0.01575666
220	0xbe8060ac	-0.25073755
221	0x3e7a0207	0.24414836
222	0x3c57a69f	0.013162284
223	0x3bb25ce7	0.0054432037
224	0x3d861350	0.06546652
225	0x3e092ece	0.13396761
226	0xbdfd612c	-0.1237205
227	0x3e2be1ed	0.16785403
228	0x3cc0f830	0.023555845
229	0xbe46923f	-0.19391726
230	0x3daa1118	0.083040416
231	0x3e00a3d6	0.12562498
232	0xbea15c23	-0.31515607
233	0xbde3f748	-0.111311495
234	0xbd818d8c	-0.06325826
235	0xbeb5104b	-0.35363993
236	0xbcddd9b2	-0.027081344
237	0x3e8909b3	0.26765212
238	0x3c75e71a	0.015008712
239	0x3ea31ac7	0.31856367
240	0xbe9ebe33	-0.31004485
241	0xbdac77e4	-0.08421305
242	0x3eacce73	0.33751258
243	0x3d9190c4	0.0710769
244	0x3d953402	0.0728531
245	0x3d99258c	0.074778646
246	0x3da50199	0.08056945
247	0xbe54bc81	-0.20775034
248	0xbc7ff250	-0.015621737
249	0x3d41bc2f	0.047298606
250	0x3e252cfe	0.16130444
251	0xbdca20a1	-0.09869505
252	0xbe0c33e8	-0.13691676
253	0x3d6aa10b	0.05728249
254	0xbd868388	-0.06568056
255	0xbdfc3b6f	-0.123160236

lstm.bias_ih_l2 f4 [64]
0	0xbd8fac72	-0.07015313
1	0x3e3d3d0b	0.18480317
2	0x3e2be660	0.167871
3	0x3e2cadee	0.16863224
4	0x3eb38260	0.35060406
5	0x3e5d4eab	0.2161204
6	0xbe3476bb	-0.17623417
7	0x3da99ea1	0.08282209
8	0x3ebb5e2d	0.36595288
9	0x3e86e208	0.26344323
10	0x3ea04eaa	0.31310016
11	0xbd7f05e9	-0.062261496
12	0xbce34d74	-0.027746893
13	0xbddbee27	-0.10738783
14	0x3d32dbf6	0.043666802
15	0x3bf54d37	0.0074860114
16	0xbdbb8f2a	-0.09158166
17	0xbc11d1bd	-0.008900103
18	0xbd9708a7	-0.07374697
19	0xbe06c131	-0.13159634
20	0xbc927b49	-0.017881053
21	0x3cf28118	0.029602572
22	0x3db75c9b	0.0895321
23	0xbdb803f0	-0.08985126
24	0x3e20991d	0.15683408
25	0x3e3e9dca	0.18614879
26	0xbdddee95	-0.108365215
27	0x3d6746b4	0.056463912
28	0xbb1f223a	-0.0024281875
29	0xbe0ca94b	-0.13736455
30	0x3e5bcaa4	0.2146402
31	0xbe4a6de0	-0.19768476
32	0xbdc3a7c6	-0.095534846
33	0x3e32bccc	0.17454833
34	0x3dafc593	0.08582606
35	0x3e42d63f	0.19027041
36	0xbdff4a15	-0.12465302
37	0x3cda0696	0.026614469
38	0xbe1bfe34	-0.1523369
39	0x3dd01d57	0.10161846
40	0xbe1037da	-0.14083806
41	0xbe7b0c43	-0.24516396
42	0x3df4cdea	0.119533375
43	0x3d2d3010	0.042282164
44	0xbe55e436	-0.20887837
45	0x3e6c60a6	0.23083743
46	0xbe1eb3c6	-0.15498266
47	0xbd6fea03	-0.05857278
48	0x3e0b803d	0.13623138
49	0xbdaf166e	-0.085492
50	0x3eb1816a	0.34669048
51	0x3e2a63b1	0.16639592
52	0x3e72ad60	0.2369895
53	0x3e57fda4	0.2109285
54	0xbda9ab5f	-0.082846396
55	0x3e266f20	0.16253328
56	0x3ebf191f	0.37323853
57	0x3dbef18c	0.09323415
58	0x3e41211c	0.18860286
59	0xbbbbd208	-0.005731825
60	0x3e6ffd6e	0.2343652
61	0x3ea21f94	0.31664717
62	0x3d6153e2	0.055011638
63	0x3aaac330	0.0013028141

lstm.bias_hh_l2 f4 [64]
0	0x3dcefa80	0.10106373
1	0x3e337b80	0.1752758
2	0x3c9f4ab9	0.01944481
3	0x3cb4ac73	0.022054886
4	0x3e9e6800	0.3093872
5	0xbcf9d487	-0.030496849
6	0xbe219ec1	-0.15783216
7	0xbdd764b7	-0.10517257
8	0x3e97079f	0.29498002
9	0x3e15651c	0.14589351
10	0x3e0de77a	0.13857833
11	0xbdb7d233	-0.08975639
12	0xbdf72bc6	-0.12068896
13	0x3e9dbfa9	0.30810288
14	0x3d5ed4ee	0.054402284
15	0xbc70ab70	-0.014689311
16	0xbde83a6a	-0.113392666
17	0xbe063c59	-0.13108958
18	0x3dc60c27	0.096702866
19	0x3d7876e0	0.060660243
20	0x3c52022a	0.012817899
21	0xbe09c6af	-0.13454698
22	0xbc800778	-0.015628561
23	0xbe2826a5	-0.16420992
24	0x3db2fbce	0.08739434
25	0x3e403b44	0.18772608
26	0x3d3bf72e	0.045890026
27	0x3c8c9de9	0.017165141
28	0xbda59b09	-0.08086211
29	0xbc3744c1	-0.011185826
30	0xbe45b36c	-0.19306725
31	0x3cb4aaee	0.022054162
32	0xbdb974ef	-0.090555064
33	0x3d6ff6ce	0.05858498
34	0x3e1bd464	0.1521774
35	0x3e171cca	0.14757076
36	0x3df26c9f	0.11837124
37	0xbe2dc110	-0.16968179
38	0xbdcf29b2	-0.101153746
39	0xbe806c42	-0.25082594
40	0x3cb4f1d8	0.022087976
41	0xbdd79a98	-0.10527533
42	0x3d10f7dd	0.03539263
43	0xbe4a0e9a	-0.19732133
44	0x3e51a7c2	0.20474151
45	0x3e1f3ed6	0.15551314
46	0xbe2f51fc	-0.17121118
47	0x3dd1fc2d	0.10253177
48	0x3e0e3c22	0.13890126
49	0x3ead9428	0.33902097
50	0x3e98dcaa	0.29855853
51	0x3e05ccb9	0.13066377
52	0xbd915c70	-0.07097709
53	0x3e9e20fd	0.30884543
54	0x3ea39955	0.3195292
55	0x3e479e97	0.19494091
56	0x3dc0b8b0	0.09410226
57	0x3ea56c96	0.32309407
58	0x3c62d037	0.013843588
59	0x3e8acaea	0.27107936
60	0x3e8035a7	0.25040933
61	0xbe23719d	-0.15961309
62	0x3dd699c7	0.104785495
63	0xbcbe2312	-0.023210082
