checkpoints/model_weights_epoch_25.pt (torch, 36335 bytes, 18 tensors)

lstm.weight_ih_l0 f4 [64, 1]
0.2863423 -0.3311772 -0.061806444 -0.09606937 -0.108585484 -0.4341403 -0.15769465 0.08460381
-0.27764243 0.287407 -0.24688353 0.037859023 -0.0636921 -0.32967636 -0.24833328 -0.061019827
0.08310034 -0.21578375 -0.052775666 -0.33710858 0.2310883 -0.39925265 -0.17081073 -0.13180272
-0.46237344 0.094556205 0.26322702 -0.13476458 0.23648533 -0.058197506 0.083665416 -0.41883364
0.35048833 0.14323598 0.053802796 -0.24092744 0.13311526 0.23706046 0.19765164 -0.3392705
0.20926662 -0.13544726 -0.3234758 0.0061784536 0.22911365 -0.2739151 0.3346979 -0.05855879
0.31580475 0.1827819 -0.12648 0.05775058 0.3442411 -0.16602762 0.3796499 0.14905968
-0.30342516 0.33448464 0.19528481 -0.1338475 -0.056669194 0.047338337 -0.0063745794 0.00015044352
00000000: 759b 923e 0f90 a9be c128 7dbd 05c0 c4bd
00000010: 1162 debd a347 debe b57a 21be c344 ad3d
00000020: 2627 8ebe 0327 933e 09cf 7cbe 1012 1b3d
00000030: 0171 82bd 57cb a8be 144b 7ebe edef 79bd
00000040: 8330 aa3d 6af6 5cbe 4c2b 58bd 7f99 acbe
00000050: 69a2 6c3e d86a ccbe 02e9 2ebe 4bf7 06be
00000060: 36bc ecbe afa6 c13d b1c5 863e baff 09be
00000070: 3629 723e 8260 6ebd c658 ab3d 5d71 d6be
00000080: 3573 b33e 74ac 123e 5260 5c3d afb5 76be
00000090: 5e4f 083e fabf 723e 3165 4a3e ddb4 adbe
000000a0: fd49 563e b0b2 0abe 9f9e a5be a074 ca3b
000000b0: c59c 6a3e 9a3e 8cbe 865d ab3e 57db 6fbd
000000c0: 29b1 a13e 2e2b 3b3e f983 01be df8b 6c3d
000000d0: 5f40 b03e 2503 2abe 7961 c23e 1aa3 183e
000000e0: 8b5a 9bbe 9241 ab3e bef8 473e 520f 09be
000000f0: f51d 68bd d8e5 413d d9e1 d0bb 60c0 1d39

lstm.weight_hh_l0 f4 [64, 16]
-0.08530319 0.40531674 0.07586404 0.25316024 0.13676359 -0.2660879 0.21126543 -0.19577557
-0.1489594 -0.009131661 -0.052737594 0.36282954 -0.019947467 -0.06207547 -0.13539293 0.30179662
-0.18312256 -0.0099080475 -0.094417386 0.27071804 -0.15622362 0.015791198 -0.22632854 0.14997384
-0.13550559 -0.2562651 -0.053166766 0.018087223 -0.104393266 0.14352287 -0.07175029 0.34846202
0.3965635 -0.19799487 -0.18266875 -0.29584795 0.12702937 0.3545799 -0.08324253 -0.04696387
-0.022948759 -0.056741364 -0.18366258 -0.22277755 0.023369653 -0.0874664 0.16840172 -0.35837102
0.30733705 0.26051968 0.29545084 0.14584447 0.30536708 -0.34908623 0.40258327 0.120714106
0.0054520685 -0.006144983 -0.051658202 0.31435224 0.3388067 0.11383756 -0.3055331 0.3267908
0.075919405 -0.10681423 0.13328129 -0.006371504 -0.07998376 -0.15912503 0.12991156 0.15761568
-0.21005589 -0.24529462 -0.019179134 0.24297285 0.119661056 -0.08524584 -0.050300192 0.107688375
0.17184444 0.08707654 0.17221221 -0.105643526 0.28286317 -0.012827129 0.057572268 -0.18300536
0.04421153 -0.30892098 -0.0691161 0.13670146 0.22639605 0.14823318 0.13460962 0.13935795
-0.08860729 0.2514562 0.12552351 0.29529655 0.26462007 -0.10123491 0.040108923 -0.07244275
-0.06458184 -0.26308945 0.10198239 -0.04697302 0.21492703 0.20414245 0.027851053 -0.08697097
0.14899543 0.02053177 0.062128313 0.062219683 0.09999453 0.07873453 0.12257519 0.13078053
0.022177506 -0.16626401 -0.11597227 0.19080031 0.3111137 -0.18206479 -0.18834707 -0.083258495
-0.074346505 0.12128137 0.23803042 -0.10706657 0.30549902 -0.30933085 0.27811152 0.1699591
-0.08729293 0.086167224 0.07475011 0.14988214 -0.2595084 -0.00608611 -0.29057992 -0.14534368
-0.14791052 0.27156153 -0.21130557 0.10195147 -0.1508318 -0.13808474 -0.13159856 0.15756667
-0.109922476 -0.082603514 -0.12682422 0.15606087 0.11204742 0.18351382 -0.19477832 -0.13576373
0.31012455 0.0011199183 0.06276049 0.22560862 0.2468588 -0.127339 0.30156675 -0.072189905
-0.050252445 -0.17666689 0.19387826 0.2562186 0.23105434 -0.04341329 -0.031457834 0.062749706
0.10788962 0.058830164 0.25668707 0.2563863 0.062125567 -0.14043233 0.28115734 -0.0048590996
-0.07443792 -0.17579265 -0.3073787 0.20962033 0.100168 0.16700806 0.06352714 -0.18578152
-0.019549774 0.1637875 0.0881811 0.035096873 -0.04145554 -0.07761056 -0.13902897 0.07960772
-0.060851395 -0.017750349 0.1161989 0.2715828 -0.009511168 0.17638408 -0.30385327 0.015862634
0.00012919147 0.15080836 -0.11316295 0.12612137 0.34478375 0.03669387 0.07597799 -0.31453288
0.14208832 -0.05522571 -0.22250077 0.13153164 -0.106521726 -0.23534332 0.077160314 0.012374492
0.08748185 0.3070241 -0.01939078 0.19538566 0.019345313 -0.029147945 0.01332316 0.11773997
-0.26504382 -0.42228976 -0.26642942 0.26584598 0.36929485 0.046408515 0.14195159 0.29690686
-0.014708207 -0.075891994 -0.050492488 0.052226152 -0.017033972 -0.034766417 -0.0059618675 0.12426978
-0.21052113 -0.0018322476 0.08973265 0.08808118 0.11361915 0.12409698 -0.19610173 -0.21500273
00000000: 70b3 aebd ad85 cf3e 9b5e 9b3d 389e 813e
00000010: c10b 0c3e ac3c 88be f755 583e 6479 48be
00000020: d088 18be f69c 15bc 6003 58bd cbc4 b93e
00000030: df68 a3bc d942 7ebd 72a4 0abe 1685 9a3e
00000040: 7b84 3bbe 5d55 22bc e75d c1bd 8e9b 8a3e
00000050: 16f9 1fbe 8b5c 813c abc2 67be be92 193e
00000060: fac1 0abe 2e35 83be 65c5 59bd a82b 943c
00000070: 23cc d5bd a9f7 123e d1f1 92bd 9d69 b23e
00000080: 5f0a cb3e 2bbf 4abe 840d 3bbe 6279 97be
00000090: fd13 023e 7f8b b53e 0f7b aabd 305d 40bd
000000a0: 09ff bbbc a269 68bd 0b12 3cbe cc1f 64be
000000b0: b771 bf3c 9521 b3bd 8071 2c3e 687c b7be
000000c0: 485b 9d3e d662 853e 5545 973e 4158 153e
000000d0: 1359 9c3e 6ebb b2be 651f ce3e f538 f73d
000000e0: 44a7 b23b db5b c9bb 8d97 53bd c7f2 a03e
000000f0: 1278 ad3e ab23 e93d d66e 9cbe 2051 a73e
00000100: a27b 9b3d 6bc1 dabd e47a 083e 0dc8 d0bb
00000110: 87ce a3bd acf1 22be 8907 053e 0166 213e
00000120: e418 57be 832e 7bbe 8f1d 9dbc e0cd 783e
00000130: db10 f53d 5f95 aebd 9307 4ebd b98b dc3d
00000140: fdf7 2f3e 2f55 b23d 6658 303e a25b d8bd
00000150: 71d3 903e e128 52bc e6d0 6b3d c265 3bbe
00000160: 2617 353d e42a 9ebe be8c 8dbd 78fb 0b3e
00000170: 5ed4 673e 70ca 173e 1bd7 093e dab3 0e3e
00000180: bd77 b5bd debe 803e 3c89 003e 1c31 973e
00000190: 487c 873e 4054 cfbd 4149 243d dd5c 94bd
000001a0: 7c43 84bd a9b3 86be 25dc d03d c866 40bd
000001b0: d515 5c3e b80a 513e e427 e43c d61d b2bd
000001c0: 4292 183e 3e32 a83c 427a 7e3d 11da 7e3d
000001d0: efc9 cc3d 923f a13d b408 fb3d 55eb 053e
000001e0: 9aad b53c 1d41 2abe df82 edbd 2861 433e
000001f0: 4b4a 9f3e 316f 3abe 0ede 40be 6e83 aabd
00000200: fb42 98bd 5e62 f83d 3fbe 733e b845 dbbd
00000210: 5e6a 9c3e 9d60 9ebe a264 8e3e c209 2e3e
00000220: a3c6 b2bd 7178 b03d 9616 993d b47a 193e
00000230: 49de 84be fe6d c7bb e4c6 94be f9d4 14be
00000240: db75 17be 1d0a 8b3e 7d60 58be efcb d03d
00000250: a773 1abe 1666 0dbe c6c1 06be 2859 213e
00000260: 091f e1bd 082c a9bd 35de 01be 6cce 1f3e
00000270: 1e79 e53d 0ceb 3b3e f873 47be a605 0bbe
00000280: a5c8 9e3e 39ca 923a 9288 803d f205 673e
00000290: 8ec8 7c3e 2865 02be f566 9a3e 4dd8 93bd
000002a0: 82d5 4dbd 2ae8 34be 0688 463e 162f 833e
000002b0: 8299 6c3e 22d2 31bd eed9 00bd eb82 803d
000002c0: 3cf5 dc3d e6f7 703d 7d6c 833e 1145 833e
000002d0: 6177 7e3d 7ecd 0fbe dbf3 8f3e 1539 9fbb
000002e0: e872 98bd fd02 34be be60 9dbe b6a6 563e
000002f0: e124 cd3d 2904 2b3e 841a 823d 833d 3ebe
00000300: d926 a0bc e9b7 273e 4b98 b43d bdc1 0f3d
00000310: 49cd 29bd 49f2 9ebd 9c5d 0ebe 5f09 a33d
00000320: 503f 79bd 2e69 91bc b0f9 ed3d e70c 8b3e
00000330: bbd4 1bbc 079e 343e a892 9bbe 5bf2 813c
00000340: 9277 0739 826d 1a3e fac1 e7bd f625 013e
00000350: 7f87 b03e 504c 163d 599a 9b3d 740a a1be
00000360: 9a7f 113e 5b34 62bd 3ed7 63be 3bb0 063e
00000370: 1028 dabd d7fd 70be 3a06 9e3d 62be 4a3c
00000380: af29 b33d 4332 9d3e 6ad9 9ebc 2e13 483e
00000390: 107a 9e3c acc7 eebc 6249 5a3c a721 f13d
000003a0: d3b3 87be 5d36 d8be 7069 88be f71c 883e
000003b0: 3714 bd3e db16 3e3d c25b 113e 2d04 983e
000003c0: b1fa 70bc 436d 9bbd 36d1 4ebd 17eb 553d
000003d0: d48a 8bbc 3b67 0ebd c55b c3bb 2881 fe3d
000003e0: da92 57be 0728 f0ba c0c5 b73d e863 b43d
000003f0: 28b1 e83d 8f26 fe3d e4ce 48be ad29 5cbe

lstm.bias_ih_l0 f4 [64]
0.1799909 0.17448243 -0.1274533 0.021438856 0.17954859 -0.08500063 0.006496381 0.048503663
0.035221208 -0.09222794 -0.02959001 0.107352555 -0.0016648666 0.10472777 -0.039293054 0.07474991
0.008097384 0.14679354 0.19193782 0.20876114 0.21170683 0.033839572 0.25023517 -0.20293641
-0.060833532 -0.23884022 -0.05997585 0.2537222 0.15708458 -0.18952338 0.029607976 0.12476795
0.26959467 0.1362093 0.10765398 -0.062483843 0.21087526 -0.15138873 0.10067572 -0.08036466
-0.20553133 -0.26568487 -0.14305913 0.12308281 0.07889683 0.15023535 -0.0052505145 0.2112159
0.11241205 0.04099342 0.24090679 0.10655255 -0.10690538 -0.05913708 0.14663896 -0.15379012
0.24487014 0.13678901 -0.12116337 0.14295074 -0.05876875 -0.12975721 0.24342032 0.078270175
00000000: 894f 383e 86ab 323e 1e83 02be 8aa0 af3c
00000010: 96db 373e cf14 aebd 98df d43b c7ab 463d
00000020: 1d44 103d 01e2 bcbd c066 f2bc a8db db3d
00000030: a737 daba 837b d63d c1f1 20bd 7b16 993d
00000040: e4aa 043c 0c51 163e 598b 443e 7bc5 553e
00000050: adc9 583e 5d9b 0a3d d31e 803e 90ce 4fbe
00000060: 952c 79bd 8892 74be 3da9 75bd e0e7 813e
00000070: c8da 203e 6b12 42be 6d8c f23c 5786 ff3d
00000080: 5008 8a3e 737a 0b3e b179 dc3d 0fef 7fbd
00000090: afef 573e a605 1bbe 122f ce3d 3a96 a4bd
000000a0: ce76 52be d907 88be 187e 12be d712 fc3d
000000b0: a994 a13d 4cd7 193e 820c acbb fb48 583e
000000c0: 4a38 e63d b7e8 273d 45b0 763e 3938 da3d
000000d0: 35f1 dabd b939 72bd 8628 163e 287b 1dbe
000000e0: 3dbf 7a3e 6b12 0c3e 8024 f8bd ae61 123e
000000f0: 80b7 70bd 13df 04be 2d43 793e 1d4c a03d

lstm.bias_hh_l0 f4 [64]
-0.010650496 -0.11103719 0.084931485 -0.010466524 0.07134403 0.0912496 0.021911683 0.21303165
0.2722286 0.26418024 -0.036198676 0.24221271 0.25273266 0.12498508 0.32034597 -0.048147626
0.15142973 -0.047110517 -0.17816992 0.23958097 0.055991884 -0.21625024 0.20831001 -0.099771865
-0.022022182 -0.060995556 0.2010461 -0.008139219 -0.19840589 0.030430887 0.1273384 0.19329216
-0.14930753 0.06114822 0.20589985 0.009731452 0.08657762 0.046959907 0.24948056 0.17934205
0.08582107 0.060832877 0.1978285 0.21271473 0.030594487 0.08600023 -0.16526957 -0.16353072
0.40937933 -0.00377209 0.07765955 0.3595966 0.2037779 0.124092646 -0.1819897 0.01770574
-0.0524629 0.108055614 0.20836373 0.12131211 0.32277542 -0.051833067 0.098481156 0.16771464
00000000: 6b7f 2ebc 7767 e3bd 8ff0 ad3d c97b 2bbc
00000010: d21c 923d 12e1 ba3d 2180 b33c f824 5a3e
00000020: 8c61 8b3e a242 873e 1045 14bd 9c06 783e
00000030: 2d66 813e 2df8 ff3d 6304 a43e 7236 45bd
00000040: 6510 1b3e f5f6 40bd 2d72 36be b754 753e
00000050: bf57 653d b470 5dbe 384f 553e 3155 ccbd
00000060: dd67 b4bc 7ad6 79bd 07df 4d3e 5c5a 05bc
00000070: ea2a 4bbe 324a f93c ff64 023e 61ee 453e
00000080: 13e4 18be 8e76 7a3d 69d7 523e ab70 1f3c
00000090: 9b4f b13d 0859 403d d577 7f3e 71a5 373e
000000a0: f5c2 af3d e52b 793d 8e93 4a3e e4d1 593e
000000b0: 4aa1 fa3c e320 b03d 6d3c 29be 9974 27be
000000c0: 2b9a d13e 2b35 77bb f80b 9f3d 0c1d b83e
000000d0: 27ab 503e 4924 fe3d 825b 3abe a10b 913c
000000e0: 56e3 56bd 434c dd3d 4d5d 553e 7c72 f83d
000000f0: d242 a53e e94e 54bd 7db0 c93d 63bd 2b3e

lstm.weight_ih_l1 f4 [64, 16]
0.0658271 0.09910632 0.17884983 0.32163855 0.270186 -0.37628886 0.07791913 -0.27004287
-0.17693432 -0.35944328 -0.24165696 0.17029054 0.020544425 0.10075676 0.17503966 0.06739274
0.06679292 0.3852417 0.11428295 0.20846441 0.28401688 -0.091663316 -0.1452734 0.10346278
-0.27450916 -0.01600819 -0.18918127 0.12632161 0.26538536 -0.21938848 0.19281234 0.12377925
-0.13369112 0.19757354 0.30656362 0.092204705 0.13538283 -0.033919316 0.17863947 0.39492622
-0.011960701 0.21828192 -0.11787961 0.19740681 0.13471515 0.091668904 -0.18493076 0.08030989
0.21101871 0.17564844 0.2622429 -0.23525438 0.08117624 -0.07929491 0.23839016 0.024060367
-0.06819825 0.051564854 0.04411064 0.24898121 0.275664 0.14935751 0.12514615 0.09233981
0.29796198 0.3342093 0.2111561 -0.01456744 -0.03296094 0.13734436 0.23899722 -0.11398612
-0.088911906 -0.11167666 -0.173729 0.048125632 0.2713179 -0.23648675 0.39061 0.15895961
0.31863314 -0.0040730764 0.054792147 0.10766296 -0.06377965 0.2795426 -0.05925585 0.14724202
0.15804993 -0.18572168 -0.13820793 0.27160698 -0.010685318 -0.089535795 0.3467836 -0.1885688
0.0065732305 -0.0005517417 0.26203644 -0.14812703 -0.12365093 0.26269567 -0.015078093 -0.30352816
0.24233721 -0.31434196 0.082855605 0.06741909 0.15303971 -0.3293271 -0.018560313 -0.05047145
-0.26147604 0.22085902 0.3158091 0.14722386 -0.20533298 -0.13458048 0.12744656 0.086912006
-0.3314273 0.042613853 0.23899737 -0.05942228 -0.25320524 -0.015958512 -0.017387742 0.34649998
-0.13095553 0.31739694 0.18726842 -0.26630914 0.029881727 -0.20544602 -0.15792483 -0.116985075
0.06750841 -0.11351149 0.07479796 0.08538161 0.023956748 -0.32372445 -0.039549112 0.35780945
0.17112905 0.08304724 -0.18353738 -0.047263492 0.17461963 -0.12232984 0.17429526 -0.12669623
-0.14302704 -0.35985076 -0.023360265 0.2699542 -0.0073715937 -0.37822184 0.21335979 -0.095967695
-0.30221 0.024662595 0.25214985 -0.16049807 -0.012104856 -0.22830485 0.0840168 0.111724384
-0.15034889 0.011897607 -0.11872417 -0.17470552 -0.108573794 0.352686 -0.0005479561 0.032331783
0.21785589 0.21508574 0.061699286 0.08679775 -0.047075797 -0.013750446 -0.08235253 -0.20754258
0.04074019 0.06339077 -0.08935416 -0.1755496 0.10318668 -0.09225164 0.05909952 0.28501466
-0.25943056 -0.24844168 0.38172707 -0.02997634 0.1983369 -0.06565824 -0.19533144 -0.05063194
0.038082622 0.14276135 -0.11660062 0.17546128 -0.054351028 0.19821557 0.10795003 0.2731677
0.19520156 -0.02599353 0.20314948 0.033599563 0.21573605 0.05965252 0.081297964 0.0017149122
-0.16565539 -0.018158408 -0.16494302 0.027219348 -0.11483065 0.10765896 -0.03538222 -0.035958637
0.07853108 0.15908226 -0.0209534 0.1435286 0.24985811 -0.18533106 0.09159832 -0.11380369
0.15207617 -0.14581023 -0.1049589 -0.060752373 0.23163189 -0.0060734283 -0.0038581006 0.22800499
-0.055413652 0.042677637 -0.05965318 -0.21701391 -0.07279601 0.27719605 -0.008869227 -0.21100765
-0.04362967 -0.35002744 -0.012775158 0.29688886 0.18461159 -0.40446797 -0.042854905 0.22849742
00000000: 5cd0 863d 41f8 ca3d 6924 373e cfad a43e
00000010: d255 8a3e efa8 c0be 1194 9f3d 0f43 8abe
00000020: 452e 35be f308 b8be ec74 77be a560 2e3e
00000030: c84c a83c 8f59 ce3d 993d 333e 3405 8a3d
00000040: baca 883d 663e c53e 2e0d ea3d b277 553e
00000050: a96a 913e fab9 bbbd 8dc2 14be 4be4 d33d
00000060: 778c 8cbe 9c23 83bc bcb8 41be 745a 013e
00000070: 97e0 873e 60a7 60be 9970 453e fa7f fd3d
00000080: 53e6 08be b850 4a3e e8f5 9c3e d2d5 bc3d
00000090: cca1 0a3e fbee 0abd 44ed 363e c533 ca3e
000000a0: d1f6 43bc 4c85 5f3e dd6a f1bd 0325 4a3e
000000b0: c5f2 093e e8bc bb3d 7d5e 3dbe 8379 a43d
000000c0: 4a15 583e 2fdd 333e b444 863e 86e6 70be
000000d0: bb3f a63d 5f65 a2bd 8d1c 743e 3f1a c53c
000000e0: 86ab 8bbd ab35 533d 5cad 343d eef4 7e3e
000000f0: d523 8d3e 2df1 183e 5026 003e a81c bd3d
00000100: 798e 983e 7b1d ab3e 4e39 583e 46ac 6ebc
00000110: 0d02 07bd 00a4 0c3e b0bb 743e 8e71 e9bd
00000120: 7217 b6bd bcb6 e4bd 04e6 31be 621f 453d
00000130: 2eea 8a3e 9529 72be 09fe c73e 4fc6 223e
00000140: e223 a33e 7177 85bb bb6d 603d 667e dc3d
00000150: e89e 82bd 3520 8f3e 43b6 72bd 9dc6 163e
00000160: d7d7 213e d32d 3ebe 6186 0dbe 1210 8b3e
00000170: 7911 2fbc 8b5e b7bd 9f8d b13e 2e18 41be
00000180: 4164 d73b c2a2 10ba a429 863e 9dae 17be
00000190: b33c fdbd 0c80 863e 1b0a 77bc 0b68 9bbe
000001a0: 3f27 783e 6ef1 a0be 33b0 a93d 0513 8a3d
000001b0: 71b6 1c3e 909d a8be cc0b 98bc 27bb 4ebd
000001c0: 30e0 85be de28 623e bbb1 a13e dac1 163e
000001d0: cf42 52be 77cf 09be 5a81 023e ecfe b13d
000001e0: d7b0 a9be dd8b 2e3d babb 743e c764 73bd
000001f0: 1ea4 81be 6dbb 82bc bd70 8ebc 7268 b13e
00000200: 3519 06be da81 a23e 4bc3 3f3e ac59 88be
00000210: 86ca f43c 7160 52be 0cb7 21be df95 efbd
00000220: d941 8a3d b678 e8bd ac2f 993d 8edc ae3d
00000230: f140 c43c 36bf a5be 40fe 21bd cd32 b73e
00000240: 743c 2f3e ac14 aa3d 39f1 3bbe 5d97 41bd
00000250: 7dcf 323e 1188 fabd 757a 323e a8bc 01be
00000260: ae75 12be 5c3e b8be 075e bfbc 7037 8a3e
00000270: 698d f1bb 4ba6 c1be fd7a 5a3e b68a c4bd
00000280: 45bb 9abe 3609 ca3c c919 813e 9b59 24be
00000290: 7253 46bc bfc8 69be 0011 ac3d c1cf e43d
000002a0: 0ff5 19be 2eee 423c a825 f3bd 01e6 32be
000002b0: f05b debd 4293 b43e b6a4 0fba 556e 043d
000002c0: 9d15 5f3e 703f 5c3e 64b8 7c3d 05c3 b13d
000002d0: 8dd2 40bd 8d49 61bc 71a8 a8bd 0b86 54be
000002e0: 2fdf 263d 05d3 813d 50ff b6bd 46c3 33be
000002f0: 8a53 d33d 6eee bcbd 5712 723d 71ed 913e
00000300: 15d4 84be 7f67 7ebe bb71 c33e f190 f5bc
00000310: d418 4b3e d477 86bd f704 48be 7063 4fbd
00000320: 86fc 1b3d 0830 123e 4ecc eebd 1fac 333e
00000330: 2f9f 5ebd 06f9 4a3e e814 dd3d a3dc 8b3e
00000340: ebe2 473e 62f0 d4bc 6b06 503e b29f 093d
00000350: e9e9 5c3e 3356 743d 8c7f a63d e8c6 e03a
00000360: 91a1 29be f1c0 94bc d3e6 28be 1cfb de3c
00000370: 552c ebbd 4d7c dc3d f2ec 10bd 5d49 13bd
00000380: e7d4 a03d 76e6 223e 77a6 abbc 29f9 123e
00000390: ceda 7f3e 6dc7 3dbe e697 bb3d e911 e9bd
000003a0: dbb9 1b3e 474f 15be b1f4 d6bd 7bd7 78bd
000003b0: e930 6d3e 9c03 c7bb 30d8 7cbb 247a 693e
000003c0: 6df9 62bd bfce 2e3d e556 74bd e538 5ebe
000003d0: 1316 95bd a4ec 8d3e 3c50 11bc 6412 58be
000003e0: 06b5 32bd cc36 b3be e54e 51bc d101 983e
000003f0: d20a 3d3e 6d16 cfbe a088 2fbd 3afb 693e

lstm.weight_hh_l1 f4 [64, 16]
0.052214243 -0.3274663 0.108729966 0.07258198 0.09724992 -0.0847983 -0.05973114 -0.28840798
0.050819367 -0.08233669 -0.06450782 0.26099288 -0.08041295 -0.057567313 -0.13435629 0.14842594
0.2674515 -0.21007393 0.25355443 0.19319244 0.05058336 0.2393456 0.13068219 -0.2899475
0.051488925 -0.049816415 -0.29973245 -0.12720166 0.08459034 -0.053971324 0.14687254 -0.26062676
-0.01924877 -0.34459454 0.27583635 0.1613508 0.36790726 -0.25604534 0.052912366 -0.27368617
-0.18157396 0.1302217 0.051568396 0.09529061 0.25352898 -0.0034046168 0.14130853 -0.10895659
0.09908628 -0.11743222 -0.06534401 0.2307014 -0.096415125 -0.08664727 0.3729279 0.07198559
-0.33359247 0.2848849 -0.09426991 0.12215163 -0.01806859 0.1693186 -0.06694669 -0.34159213
0.35143614 -0.2129124 -0.23697805 -0.008198125 0.09527008 -0.14923579 0.041424394 0.19893989
-0.098581284 -0.03590862 0.13057859 0.14640023 0.040922415 0.19664799 -0.113655515 -0.08379505
-0.060480263 -0.26958695 0.093870394 0.041242056 -0.18541771 -0.24221729 -0.090236664 -0.09744165
0.11544477 -0.13344406 -0.10956687 0.056446277 -0.22217178 -0.11747202 -0.05931359 0.0013567936
-0.06310097 -0.22087565 0.15938073 -0.005624774 0.08668073 -0.029103005 0.16508822 0.13102776
-0.1119314 0.2985777 0.107995026 0.25937995 0.10280339 -0.1603706 0.17218453 -0.21301448
-0.08126926 -0.070407994 -0.015653297 0.05771001 0.23255293 -0.19111207 0.2362861 0.08819777
0.21422966 0.16448069 -0.0593086 0.03156728 0.20333497 0.053484514 0.058184844 0.051779818
-0.15384674 0.12799758 0.025828438 0.10035507 0.06929641 -0.13340637 -0.046301592 0.04258345
-0.04489216 -0.09518147 0.08502858 0.17486554 0.029050171 -0.11391802 0.06587537 -0.27840382
0.2308817 0.0068994868 -0.17179029 0.11634186 0.13190307 -0.13468358 -0.09209129 -0.19523886
-0.2676462 -0.17836505 0.008559087 0.16198902 -0.011978786 0.20863257 0.13670123 0.14162341
0.017463246 0.015722742 -0.012881889 0.26473653 0.17840631 0.09278304 -0.06926126 0.021199854
-0.37873095 -0.1305313 -0.22069827 -0.12680021 -0.1124562 0.17809416 -0.091427445 0.007643152
-0.052609727 0.2075167 -0.28245568 0.11696433 0.071744494 0.118841335 -0.19264486 -0.09799426
-0.14590941 0.034457665 -0.24473235 -0.058175754 -0.07961653 -0.14701301 -0.18727988 -0.1921829
0.16178876 -0.20644985 0.31226215 -0.050353985 0.18790483 -0.31927234 0.21175423 -0.11662945
-0.085882686 0.027991835 -0.21675694 -0.011101678 -0.042291693 0.14868142 0.43679526 -0.21520711
0.27444068 0.05085672 -0.22360255 -0.052668467 -0.029805843 -0.19012864 0.15841867 -0.009065697
-0.26787502 -0.047134265 0.14273271 0.16018346 0.045263443 0.035488043 -0.0332799 -0.15938865
0.1837481 0.12290557 0.15573762 0.3426332 0.23044977 -0.112471275 0.23881032 -0.27398536
-0.2828962 0.0007695054 0.046115678 -0.08427711 0.09589265 0.019321416 0.017020158 -0.32006475
0.24838017 -0.20018966 -0.22655217 0.035345104 0.13494721 0.030666208 0.055075034 -0.02240493
0.028633509 0.23809488 0.09882644 -0.12443912 -0.08753716 -0.04063231 -0.051158015 0.12220026
00000000: 9ade 553d aaa9 a7be d1ad de3d dca5 943d
00000010: f72a c73d bbaa adbd a4a8 74bd 36aa 93be
00000020: f827 503d 23a0 a8bd ad1c 84bd dca0 853e
00000030: 8baf a4bd b4cb 6bbd b294 09be f8fc 173e
00000040: 67ef 883e 9f1d 57be e3d1 813e 3dd4 453e
00000050: 7f30 4f3d 0317 753e 8dd1 053e 0074 94be
00000060: 0de6 523d 4c0c 4cbd 8876 99be 2741 02be
00000070: b33d ad3d 0911 5dbd c165 163e df70 85be
00000080: 99af 9dbc b26e b0be 6c3a 8d3e 2539 253e
00000090: 575e bc3e 6018 83be a3ba 583d 9820 8cbe
000000a0: 86ee 39be d658 053e 6239 533d b927 c33d
000000b0: 8dce 813e fe1f 5fbb 2fb3 103e a224 dfbd
000000c0: bfed ca3d 4e80 f0bd 15d3 85bd fd3c 6c3e
000000d0: 4b75 c5bd 2074 b1bd 68f0 be3e 2e6d 933d
000000e0: a2cc aabe 6fdc 913e 9510 c1bd a22a fa3d
000000f0: 9404 94bc db61 2d3e 591b 89bd 2ae5 aebe
00000100: 70ef b33e b505 5abe 60aa 72be 6e51 06bc
00000110: f61c c33d 44d1 18be a0ac 293d e6b6 4b3e
00000120: fce4 c9bd eb14 13bd 65b6 053e f1e9 153e
00000130: 439e 273d 175e 493e 39c4 e8bd bd9c abbd
00000140: 27ba 77bd 4d07 8abe 1f3f c03d 6eed 283d
00000150: 24de 3dbe cf07 78be 00ce b8bd 7d8f c7bd
00000160: 4f6e ec3d 8fa5 08be 9864 e0bd 3634 673d
00000170: 0081 63be 2c95 f0bd cff2 72bd 70d6 b13a
00000180: 153b 81bd 3a2d 62be b434 233e 0650 b8bb
00000190: ab85 b13d 6d69 eebc e30c 293e 242c 063e
000001a0: 4a3c e5bd 2ddf 983e 7f2c dd3d 73cd 843e
000001b0: 958a d23d 3138 24be 2451 303e 7820 5abe
000001c0: 7f70 a6bd 1132 90bd 583b 80bc 5561 6c3d
000001d0: 5b22 6e3e e2b2 43be fcf4 713e 08a1 b43d
000001e0: 055f 5b3e a06d 283e 93ed 72bd b14c 013d
000001f0: 0b37 503e 9412 5b3d 3b53 6e3d 1317 543d
00000200: 008a 1dbe cc11 033e 2996 d33c f586 cd3d
00000210: 47eb 8d3d ae9b 08be bda6 3dbd fc6b 2e3d
00000220: d7e0 37bd 81ee c2bd 7723 ae3d f40f 333e
00000230: a0fa ed3c da4d e9bd aae9 863d f28a 8ebe
00000240: 416c 6c3e 1715 e23b cbe9 2fbe a444 ee3d
00000250: 9911 073e 7eea 09be 5c9a bcbd b2ec 47be
00000260: ec08 89be 54a5 36be 6a3b 0c3c 73e0 253e
00000270: ac42 44bc c7a3 553e 68fb 0b3e ba05 113e
00000280: 150f 8f3c fbcc 803c 8f0e 53bc 8c8b 873e
00000290: 25b0 363e 0905 be3d d9d8 8dbd 51ab ad3c
000002a0: 06e9 c1be ffa9 05be bafe 61be ead7 01be
000002b0: 704f e6bd 515e 363e 503e bbbd 6873 fa3b
000002c0: 4c7d 57bd 427f 543e 089e 90be ff8a ef3d
000002d0: c7ee 923d 1663 f33d b244 45be 37b1 c8bd
000002e0: 4769 15be 7b23 0d3d 1e9b 7abe b349 6ebd
000002f0: fe0d a3bd 948a 16be 4cc6 3fbe 98cb 44be
00000300: f4ab 253e 9767 53be d3e0 9f3e fb3f 4ebd
00000310: 206a 403e aa77 a3be 1ad6 583e 6cdb eebd
00000320: 43e3 afbd 224f e53c 88f5 5dbe d0e3 35bc
00000330: 0e3a 2dbd f13f 183e a1a3 df3e 415f 5cbe
00000340: 7d83 8c3e 234f 503d 11f8 64be e4ba 57bd
00000350: 622b f4bc 15b1 42be 8138 223e 4a88 14bc
00000360: ea26 89be dc0f 41bd 8628 123e 2207 243e
00000370: 2966 393d e95b 113d 8150 08bd c736 23be
00000380: 7628 3c3e eab5 fb3d af79 1f3e 9e6d af3e
00000390: 06fb 6b3e 5757 e6bd b18a 743e cf47 8cbe
000003a0: c5d7 90be a2b8 493a cbe3 3c3d 7a99 acbd
000003b0: 5e63 c43d f247 9e3c dc6d 8b3c 87df a3be
000003c0: 5f57 7e3e 85fe 4cbe 4bfd 67be 07c6 103d
000003d0: 9a2f 0a3e b337 fb3c 5c96 613d 8b8a b7bc
000003e0: d290 ea3c 25cf 733e 8465 ca3d f0d9 febd
000003f0: af46 b3bd 116e 26bd 118b 51bd 2144 fa3d

lstm.bias_ih_l1 f4 [64]
0.1349821 0.31791127 0.08762055 0.08686179 0.007885676 0.29147708 -0.12678607 -0.039220463
-0.052528724 0.27478513 0.028418032 -0.08508016 0.09676782 0.13064706 0.04286897 -0.08523309
0.13423759 -0.17930877 0.0017487351 0.2717633 -0.05598339 0.16570403 -0.04300049 0.016167365
0.053980514 0.076728955 -0.031041097 0.13889425 -0.16639385 -0.16167423 0.20527415 -0.15272874
0.1532272 0.14409503 -0.059973255 -0.10592579 0.20828877 0.1713186 0.08370236 -0.097510494
0.05249169 0.07544832 -0.13672176 0.04372385 -0.112123705 0.18574862 0.0090962285 0.18205824
0.34917215 0.20016415 0.23154797 0.09808974 0.077611595 0.1260638 0.021492649 -0.01732364
-0.06722939 0.15507019 0.28829187 0.062294804 -0.08006056 0.079207055 -0.11986494 -0.07946748
00000000: bf38 0a3e 44c5 a23e 6772 b33d 98e4 b13d
00000010: ec32 013c 7c3c 953e 35d4 01be a3a5 20bd
00000020: 5c28 57bd a3b0 8c3e efcc e83c 823e aebd
00000030: 352e c63d 58c8 053e 6097 2f3d b08e aebd
00000040: 9475 093e b89c 37be d035 e53a 8f24 8b3e
00000050: d74e 65bd 51ae 293e 4821 30bd 6c71 843c
00000060: ac1a 5d3d 1224 9d3d e649 febc 4b3a 0e3e
00000070: 2663 2abe ee8d 25be 6333 523e ec64 1cbe
00000080: 97e7 1c3e a68d 133e 84a6 75bd 9fef d8bd
00000090: a749 553e 256e 2f3e 256c ab3d 95b3 c7bd
000000a0: 8701 573d a684 9a3d ca00 0cbe c817 333d
000000b0: 1da1 e5bd e334 3e3e 5908 153c 7a6d 3a3e
000000c0: b1c6 b23e d5f7 4c3e e91a 6d3e 46e3 c83d
000000d0: d4f2 9e3d de16 013e 5a11 b03c 4eea 8dbc
000000e0: 90af 89bd b8ca 1e3e fe9a 933e d628 7f3d
000000f0: caf6 a3bd 4f37 a23d c07b f5bd d9bf a2bd

lstm.bias_hh_l1 f4 [64]
0.15394631 0.029472684 -0.10079142 -0.1298375 0.11883417 0.037671734 -0.048439063 -0.12785049
0.13335645 0.024418173 0.2560052 -0.22826694 0.27452025 0.24743511 -0.09305928 0.0004089507
0.23918936 0.026427766 -0.17896508 -0.017135033 0.26197797 0.066946365 -0.20635295 0.07604601
-0.08878469 0.008534849 -0.17715898 0.018128548 -0.1673221 -0.00959012 0.12983511 0.11771819
0.20522429 -0.11789547 0.13177226 0.26677924 0.18043931 -0.25576586 0.10155604 -0.022891333
-0.116975196 0.21060856 -0.10592074 0.20716104 0.22653237 0.10853603 -0.09249099 -0.18581691
0.20426452 0.08172185 0.18605931 -0.1425751 0.19812179 0.15335792 0.06383756 -0.078408614
0.3212106 0.19129348 -0.20254622 0.16688874 -0.054752927 -0.039552152 -0.11668943 -0.035704184
00000000: 1aa4 1d3e b370 f13c bb6b cebd 1ff4 04be
00000010: 545f f33d ad4d 1a3d 0a68 46bd 3deb 02be
00000020: 988e 083e 9f08 c83c 1d13 833e cfbe 69be
00000030: eb8d 8c3e a15f 7d3e dd95 bebd 6f68 d639
00000040: 0eee 743e 0b7f d83c 9f42 37be c55e 8cbc
00000050: fa21 863e 2d1b 893d 304e 53be 03be 9b3d
00000060: bfd4 b5bd c0d5 0b3c 2a69 35be 5282 943c
00000070: 7c56 2bbe e11f 1dbc 7ff3 043e 3c16 f13d
00000080: 5126 523e 2e73 f1bd 4fef 063e 4a97 883e
00000090: 15c5 383e bef3 82be 9dfc cf3d 9b86 bbbc
000000a0: b190 efbd c5a9 573e f9ec d8bd 0622 543e
000000b0: 1af8 673e 2348 de3d eb6b bdbd ca46 3ebe
000000c0: b82a 513e c95d a73d 5586 3e3e 35ff 11be
000000d0: 70e0 4a3e dc09 1d3e 44bd 823d b294 a0bd
000000e0: b775 a43e 70e2 433e 4768 4fbe e2e4 2a3e
000000f0: 9b44 60bd 7001 22bd defa eebd 8d3e 12bd

lstm.weight_ih_l2 f4 [64, 16]
-0.18940185 0.1440306 0.2176554 0.12509784 -0.10385094 -0.036550373 0.24861568 -0.1950498
0.034479793 -0.19937584 0.010549371 -0.17303406 0.053985454 0.1515859 -0.06692194 -0.15254
-0.09169222 -0.057739653 -0.00509878 0.32224232 0.2605259 -0.0071347873 0.12031527 0.021921927
-0.012704514 0.015645184 -0.13671876 0.24581991 -0.0088399155 0.26894033 -0.09159335 -0.2833937
0.11729569 0.078804776 0.30059063 0.014215338 -0.030632744 -0.30454338 0.29238543 -0.23653573
-0.20999455 0.11887773 0.04475777 -0.07765149 0.17462094 0.06555303 0.19981328 0.025601733
-0.24489687 0.028152525 0.3850283 -0.080440596 0.09179899 0.12606746 0.0924371 0.0329289
0.20482314 -0.1748808 -0.19018187 0.22865441 0.058270138 -0.24828945 -0.057455346 0.0762717
-0.009477956 -0.2738266 0.01659621 0.04096663 0.13747555 0.11461598 -0.05222297 -0.29827186
-0.23269077 -0.054510713 -0.15834223 0.19863184 0.12110571 0.11936457 0.038877606 0.08192068
0.009396442 -0.048230488 0.46024495 0.17283654 0.1868856 0.19973068 -0.023560053 -0.3902851
0.1674443 -0.1256576 -0.3662751 -0.16332617 0.0061940034 -0.04317033 -0.16788533 -0.0963483
0.12042117 -0.011609179 -0.39776275 0.1919627 0.21189709 -0.27840334 -0.019571269 -0.012104114
-0.28781134 0.26903707 0.12827022 0.068851694 -0.20019548 -0.008900658 0.23719306 -0.2699856
0.055399556 0.06884782 0.034634512 0.18738593 0.18104143 -0.12741287 -0.011539656 0.2019191
-0.078248695 0.2359307 0.1941897 -0.1303843 -0.18422055 0.24998502 0.066090345 0.003971823
-0.13193157 -0.15184999 -0.074255496 0.28613678 0.18525606 0.13671651 0.040145814 -0.1705984
-0.009309372 0.112906896 0.10682601 0.2631957 0.25754258 0.2536151 0.14784689 0.006722092
-0.029818237 -0.044386957 0.077097796 0.103753634 0.10297372 -0.23924659 -0.072590515 -0.08429912
0.04564878 0.0547504 -0.23107745 -0.0072810426 0.15435453 -0.020665402 0.10875395 -0.13346067
-0.0907184 0.16823089 0.13409965 -0.12600513 0.06548255 -0.25351128 0.20150958 -0.27829596
-0.041378602 -0.1311111 -0.11957305 -0.12113768 -0.058101445 0.06369441 0.14290124 -0.10792595
0.122270525 0.15269351 -0.027899487 0.05536467 -0.17564407 -0.08307241 0.07563761 0.16875803
-0.0022908603 -0.10111984 0.13311589 -0.017657977 -0.046095483 -0.113129824 0.30252886 -0.053300112
-0.023204807 -0.32913283 0.07274346 0.26840344 -0.14528045 -0.3320736 -0.057396583 -0.17633544
-0.22354487 -0.010311508 0.09012381 0.022961766 0.068254225 -0.033629205 -0.07820968 -0.18988347
-0.11432272 -0.1640588 0.18047398 0.26958147 0.25840613 -0.02408407 -0.09641933 -0.14363094
-0.09377124 0.2017042 -0.017018571 -0.062252015 0.057451144 0.22133675 0.026791345 -0.14439785
0.065888144 -0.12313281 0.3578641 0.059427794 0.106656216 0.000938338 -0.041152537 -0.13296571
0.15600261 0.35802093 0.074647024 0.0027685796 0.18827061 0.22126658 -0.12523973 0.093868926
-0.14300428 -0.19310202 0.028131124 -0.18059394 -0.08294785 -0.006294287 -0.04101384 -0.2117685
-0.24834867 0.29385257 -0.0008602409 0.06900322 -0.06329761 -0.012191526 0.050552975 -0.34965515
00000000: 8ff2 41be c27c 133e 0fe1 5e3e a619 003e
00000010: cdaf d4bd d8b5 15bd 1c95 7e3e 23bb 47be
00000020: af3a 0d3d 2e29 4cbe 45d7 2c3c d72f 31be
00000030: da1f 5d3d 5639 1b3e 5f0e 89bd 7233 1cbe
00000040: 21c9 bbbd 6a80 6cbd ab13 a7bb f2fc a43e
00000050: a763 853e efca e9bb da67 f63d 9d95 b33c
00000060: 9826 50bc 542a 803c 0100 0cbe 37b8 7b3e
00000070: 4bd5 10bc 8cb2 893e 4b95 bbbd fb18 91be
00000080: b938 f03d 6664 a13d 04e7 993e 73e7 683c
00000090: 85f1 fabc 1ced 9bbe 8bb3 953e 6c36 72be
000000a0: d008 57be 2b76 f33d ec53 373d bf07 9fbd
000000b0: d5cf 323e ab40 863d da9b 4c3e baba d13c
000000c0: 3fc6 7abe 20a0 e63c 6e22 c53e 0abe a4bd
000000d0: 1c01 bc3d d417 013e aa4f bd3d 74e0 063d
000000e0: 28bd 513e f413 33be 09bf 42be 6224 6a3e
000000f0: abac 6e3d 973f 7ebe 4c56 6bbd 5634 9c3d
00000100: 6e49 1bbc 0033 8cbe c6f4 873c a0cc 273d
00000110: 64c6 0c3e c8bb ea3d c1e7 55bd 17b7 98be
00000120: 7d46 6ebe a046 5fbd 7724 22be 2566 4b3e
00000130: 4506 f83d 6975 f43d 203e 1f3d 08c6 a73d
00000140: 89f3 193c 558d 45bd 3aa5 eb3e 10fc 303e
00000150: f05e 3f3e 3386 4c3e 0301 c1bc 73d3 c7be
00000160: 8576 2b3e 63ac 00be 6988 bbbe fa3e 27be
00000170: 11f7 ca3b 5fd3 30bd 22ea 2bbe 4252 c5bd
00000180: 609f f63d 6d34 3ebc 8fa7 cbbe df91 443e
00000190: 8dfb 583e e28a 8ebe ed53 a0bc 5550 46bc
000001a0: 025c 93be 3abf 893e 4559 033e 1e02 8d3d
000001b0: 0b00 4dbe 11d4 11bc bde2 723e 8d3b 8abe
000001c0: a5ea 623d 1600 8d3d ebdc 0d3d 19e2 3f3e
000001d0: ed62 393e 8578 02be d310 3dbc e1c3 4e3e
000001e0: da40 a0bd d197 713e aad9 463e 7683 05be
000001f0: 50a4 3cbe 13fc 7f3e 605a 873d 1126 823b
00000200: 1219 07be 907e 1bbe 4413 98bd 8580 923e
00000210: c4b3 3d3e 6aff 0b3e f06f 243d 59b1 2ebe
00000220: 5686 18bc bb3b e73d 98c7 da3d 96c1 863e
00000230: 9fdc 833e d7d9 813e 2d65 173e ff44 dc3b
00000240: 6045 f4bc 19cf 35bd 73e5 9d3d c97c d43d
00000250: e3e3 d23d 0ffd 74be 56aa 94bd 04a5 acbd
00000260: 37fa 3a3d f541 603d 919f 6cbe d095 eebb
00000270: 1d0f 1e3e 7d4a a9bc 64ba de3d eaa9 08be
00000280: 92ca b9bd b844 2c3e 6b51 093e 7d07 01be
00000290: b71b 863d 3bcc 81be 8758 4e3e cf7c 8ebe
000002a0: 9c7c 29bd fd41 06be b7e2 f4bd 0817 f8bd
000002b0: c8fb 6dbd 3772 823d b454 123e 4808 ddbd
000002c0: f868 fa3d b05b 1c3e 778d e4bc 10c6 623d
000002d0: 0adc 33be de21 aabd e4e7 9a3d e8ce 2c3e
000002e0: 4222 16bb eb17 cfbd 884f 083e 76a7 90bc
000002f0: 9ece 3cbd 9cb0 e7bd 10e5 9a3e 3851 5abd
00000300: 0218 bebc 1984 a8be 86fa 943d 2d6c 893e
00000310: 66c4 14be 8d05 aabe ae18 6bbd 4791 34be
00000320: f2e8 64be 99f1 28bc d592 b83d 501a bc3c
00000330: dfc8 8b3d c7be 09bd 662c a0bd d070 42be
00000340: 0822 eabd 08ff 27be 2cce 383e 9506 8a3e
00000350: cf4d 843e f54b c5bc 7f77 c5bd fd13 13be
00000360: 230b c0bd 8c8b 4e3e 886a 8bbc f8fb 7ebd
00000370: e451 6b3d 1aa6 623e 8679 db3c 08dd 13be
00000380: 5df0 863d 0e2d fcbd f739 b73e 8f6a 733d
00000390: 936e da3d ccfa 753a 908f 28bd 2a28 08be
000003a0: 26bf 1f3e 854e b73e 8ae0 983d 0f71 353b
000003b0: 03ca 403e b593 623e d83e 00be 5a3e c03d
000003c0: b76f 12be 89bc 45be 3e73 e63c 9eed 38be
000003d0: 90e0 a9bd 4e40 cebb 21fe 27bd d7d9 58be
000003e0: 1d4f 7ebe d873 963e ca81 61ba 8f51 8d3d
000003f0: 2da2 81bd f7be 47bc a310 4f3d 0006 b3be

lstm.weight_hh_l2 f4 [64, 16]
-0.2028215 0.14479132 -0.064582825 0.07977961 0.025230076 -0.123632155 0.121305324 -0.23130062
0.14521715 0.01901173 -0.22686173 -0.053816732 -0.16308653 0.23487148 -0.2833535 -0.14014632
0.11231269 -0.10271009 0.063313 0.39586848 0.25067747 -0.2125262 -0.036793593 0.1027461
-0.13909863 0.009761785 0.020603655 -0.21748196 0.13806751 0.31338453 0.059081193 0.33719522
0.06531308 -0.12997302 0.15146953 -0.06591254 0.085305795 -0.3285663 -0.15249401 -0.14296873
0.05537207 -0.043296352 -0.22389902 -0.34792098 -0.26248533 -0.09532939 -0.15532799 0.10835183
-0.09695249 0.08384326 0.0248836 0.07710523 0.03303156 -0.11494138 -0.013410976 -0.23292759
0.074412346 0.1451291 -0.22258464 -0.060652617 -0.26638246 0.025104554 -0.12313716 0.059445024
0.0032829507 0.111647196 -0.018238507 0.0054463553 0.053731468 -0.3206434 -0.016452946 0.06522038
-0.23596907 -0.24147671 -0.018012514 -0.27301022 -0.08111099 -0.016745832 0.17282012 0.079770535
-0.079873435 -0.27063 0.06895927 0.027540097 0.17945874 -0.3740604 -0.1369301 -0.3174147
-0.20599236 0.07293807 0.19964649 0.14523545 -0.07234028 0.05026224 -0.03203021 0.2663765
0.333831 0.37678862 0.039472427 0.117725365 -0.22237518 0.115834706 -0.25794107 0.0001987686
-0.22920857 0.11751 0.017839143 -0.23273283 0.032677956 -0.0118935965 0.35363516 0.094716646
-0.037612308 -0.06687694 0.27400228 0.28817827 0.10204934 -0.21986678 0.08642305 0.055334225
-0.20898438 -0.27267334 -0.23617546 0.08258957 -0.039781515 -0.15782562 0.20612739 -0.18556283
-0.0603037 0.301597 0.41004175 -0.0038968078 -0.21048996 -0.24927725 0.12872371 -0.21337248
0.04372509 0.010624342 0.16187997 -0.08099583 5.2779178e-05 0.11107378 0.09789177 -0.070132025
0.109165564 0.04627252 -0.10444268 0.17431802 0.09542049 -0.26454362 -0.14582738 0.08767847
0.019316498 0.15957245 0.0074159354 0.098092 0.11206999 0.11748685 0.07422536 0.031868752
0.14789397 0.057449937 0.29337746 0.049214985 0.021869766 -0.10911054 -0.15152028 0.04538935
-0.2861734 -0.16096336 0.08855703 0.1308801 0.08023518 0.10012064 -0.113385245 -0.09901853
0.19510977 0.39491066 -0.08797081 -0.103651054 -0.31920144 0.040896505 0.13733214 -0.07640639
-0.16947849 -0.16369405 0.091214016 -0.21507281 -0.297914 0.069109775 0.06960514 -0.012221794
-0.0146408025 -0.13134721 0.18290775 0.0320738 0.00783749 0.15464593 -0.32439303 -0.0985481
0.15517616 -0.1473392 0.15105464 0.03376541 -0.027996358 0.19648352 0.091566876 -0.11416055
-0.22613244 -0.027459709 0.21061777 0.07477458 -0.052233193 -0.118445754 -0.19040667 -0.13658163
0.022730095 -0.15419081 0.017021572 0.02846709 -0.24362741 0.23596822 0.0035323058 -0.0029462469
0.101679556 0.17038828 -0.12751265 0.14638925 -0.0027883446 -0.16668807 0.08220353 0.121527515
-0.3289202 -0.10187138 -0.07767798 -0.35650694 -0.03775654 0.27426907 0.023656208 0.32208434
-0.28554755 -0.042559747 0.3439015 0.043551657 0.078685425 0.11840739 0.102423824 -0.20334622
-0.016480003 0.06071432 0.16792142 -0.08681649 -0.13008296 0.04930621 -0.07161677 -0.13101064
00000000: 70b0 4fbe 2d44 143e 0044 84bd 7e63 a33d
00000010: 4eaf ce3c db32 fdbd ed6e f83d 12da 6cbe
00000020: ceb3 143e 7dbe 9b3c 714e 68be ef6e 5cbd
00000030: 2800 27be 2682 703e b613 91be 8482 0fbe
00000040: 3204 e63d ab59 d2bd 3faa 813d 46af ca3e
00000050: cc58 803e 78a0 59be e1b4 16bd 8c6c d23d
00000060: df6f 0ebe e5ef 1f3c ffc8 a83c 97b3 5ebe
00000070: 9261 0d3e f073 a03e 1fff 713d daa4 ac3e
00000080: ddc2 853d a617 05be d41a 1b3e 27fd 86bd
00000090: ceb4 ae3d d839 a8be 6427 1cbe 6566 12be
000000a0: d3cd 623d 8457 31bd c945 65be b322 b2be
000000b0: 7a64 86be 0e3c c3bd 4d0e 1fbe 90e7 dd3d
000000c0: 078f c6bd 04b6 ab3d b1d8 cb3c 59e9 9d3d
000000d0: 1a4c 073d 6366 ebbd b6b9 5bbc 9284 6ebe
000000e0: 8065 983d b99c 143e 3aed 63be e16e 78bd
000000f0: 4863 88be 11a8 cd3c 562f fcbd a07c 733d
00000100: c626 573b 49a7 e43d ec68 95bc 5777 b23b
00000110: 8715 5c3d 5f2b a4be 54c8 86bc 4392 853d
00000120: e0a1 71be ac45 77be fb8e 93bc ffc7 8bbe
00000130: 851d a6bd 8e2e 89bc c2f7 303e bc5e a33d
00000140: af94 a3bd 0490 8abe 853a 8d3d c59b e13c
00000150: 08c4 373e d884 bfbe 6737 0cbe 2e84 a2be
00000160: a9ef 52be 8e60 953d 2170 4c3e 9ab8 143e
00000170: 2427 94bd c7df 4d3d 1c32 03bd 8062 883e
00000180: e6eb aa3e 70ea c03e d7ad 213d ff19 f13d
00000190: 52b6 63be bf3a ed3d da10 84be 8a6c 5039
000001a0: a7b5 6abe 15a9 f03d 6523 923c 8451 6ebe
000001b0: 52d9 053d 5cdd 42bc ab0f b53e cdfa c13d
000001c0: 5d0f 1abd c7f6 88bd 074a 8c3e 1a8c 933e
000001d0: 3fff d03d c224 61be 91fe b03d 24a6 623d
000001e0: 0000 56be d79b 8bbe fbd7 71be b824 a93d
000001f0: f1f1 22bd 0a9d 21be 0f13 533e 2f04 3ebe
00000200: 0301 77bd ec6a 9a3e fef0 d13e 9661 7fbb
00000210: ae8a 57be 8942 7fbe 26d0 033e 517e 5abe
00000220: 1419 333d b811 2e3c ddc3 253e 24e1 a5bd
00000230: 365f 5d38 a67a e33d 7b7b c83d 61a1 8fbd
00000240: 3292 df3d 4188 3d3d 0be6 d5bd 6c80 323e
00000250: d16b c33d 4372 87be c653 15be c590 b33d
00000260: a23d 9e3c f666 233e 6001 f33b 75e4 c83d
00000270: f384 e53d f29c f03d 7703 983d cf88 023d
00000280: 8471 173e a050 6b3d 9235 963e a795 493d
00000290: 3928 b33c 5975 dfbd 2228 1bbe 2fea 393d
000002a0: 5285 92be 94d3 24be 635d b53d 6f05 063e
000002b0: 5852 a43d 0d0c cd3d 8636 e8bd 3aca cabd
000002c0: dbca 473e bb31 ca3e 0a2a b4bd 0147 d4bd
000002d0: 5f6e a3be 1883 273d cca0 0c3e f47a 9cbd
000002e0: c58b 2dbe 6a9f 27be 6ace ba3d 0c3c 5cbe
000002f0: 2f88 98be 6d89 8d3d 248d 8e3d eb3d 48bc
00000300: fadf 6fbc e27f 06be 2b4c 3b3e d15f 033d
00000310: d168 003c 815b 1e3e d816 a6be 96d3 c9bd
00000320: 80e6 1e3e 16e0 16be 11ae 1a3e 994d 0a3d
00000330: 9e58 e5bc fa32 493e 6a87 bb3d 02cd e9bd
00000340: 438f 67be 2ff3 e0bc 2fac 573e 6a23 993d
00000350: 79f2 55bd b093 f2bd f7f9 42be 0edc 0bbe
00000360: 7734 ba3c 32e4 1dbe d370 8b3c d133 e93c
00000370: 7779 79be a7a1 713e 427e 673b d215 41bb
00000380: 5f3d d03d 447a 2e3e ad92 02be 10e7 153e
00000390: a9bc 36bb 47b0 2abe 535a a83d 6be3 f83d
000003a0: 3a68 a8be f1a1 d0bd a215 9fbd 1488 b6be
000003b0: 9aa6 1abd ff6c 8c3e aaca c13c 3de8 a43e
000003c0: 4a33 92be 2153 2ebd db13 b03e 3963 323d
000003d0: d325 a13d 937f f23d 95c3 d13d fe39 50be
000003e0: 1201 87bc 94af 783d 98f3 2b3e d8cc b1bd
000003f0: 7834 05be 4ff5 493d d0ab 92bd a727 06be

lstm.bias_ih_l2 f4 [64]
-0.079019785 0.17548431 0.16060482 0.16402392 0.33337948 0.20596485 -0.18771617 0.08957182
0.3443806 0.25529864 0.3130559 -0.057290204 -0.039221182 -0.1169127 0.03163912 -0.005266415
-0.082407646 0.0032275985 -0.07204034 -0.13703352 -0.013108692 0.03958693 0.08396447 -0.08046448
0.16405849 0.17875811 -0.096863724 0.0658709 -0.0012301463 -0.12862973 0.21976885 -0.19641319
-0.095957726 0.17704934 0.08767822 0.1837247 -0.12735084 0.029210847 -0.15555045 0.10129384
-0.14278017 -0.23626444 0.11686197 0.04075953 -0.21639091 0.23293549 -0.157592 -0.05705766
0.12412614 -0.092791766 0.34404117 0.16092716 0.22549187 0.20098856 -0.08900849 0.16795081
0.35513592 0.081563994 0.186199 -0.008335054 0.22856528 0.30619055 0.047104817 -0.009365866
00000000: 20d5 a1bd 29b2 333e 9775 243e e3f5 273e
00000010: b7b0 aa3e 73e8 523e ab38 40be 6e71 b73d
00000020: a752 b03e 81b6 823e dd48 a03e 22a9 6abd
00000030: 64a6 20bd ed6f efbd 0698 013d e491 acbb
00000040: 57c5 a8bd 1e86 533b e389 93bd 8452 0cbe
00000050: d7c5 56bc e825 223d 90f5 ab3d 90ca a4bd
00000060: f3fe 273e 5e0c 373e 7d60 c6bd 53e7 863d
00000070: dc3c a1ba 83b7 03be 160b 613e 8a20 49be
00000080: 7c85 c4bd 6c4c 353e a390 b33d 5422 3c3e
00000090: 4268 02be 964b ef3c 9e48 1fbe 2573 cf3d
000000a0: f734 12be 4eef 71be 5455 ef3d 77f3 263d
000000b0: 9495 5dbe a486 6e3e cc5f 21be 4bb5 69bd
000000c0: d835 fe3d 9c09 bebd 2a26 b03e 17ca 243e
000000d0: 57e7 663e f2cf 4d3e 154a b6bd 4cfb 2b3e
000000e0: 60d4 b53e 060b a73d f3aa 3e3e c08f 08bc
000000f0: 040d 6a3e 02c5 9c3e fbf0 403d 4a73 19bc

lstm.bias_hh_l2 f4 [64]
0.09219707 0.16595694 0.012178633 0.017446602 0.29216263 -0.040652316 -0.16931413 -0.09842284
0.27340773 0.13774888 0.13853407 -0.08478508 -0.13216336 0.298578 0.042374607 -0.02744174
-0.104218654 -0.11896186 0.098409496 0.055223186 0.017590258 -0.124562666 -0.021196147 -0.15482312
0.09461874 0.18033542 0.057391554 0.026572095 -0.07966408 -0.0024509751 -0.1879386 0.023325788
-0.090977944 0.06108606 0.15402949 0.14102505 0.11567338 -0.16708545 -0.10436735 -0.25115052
0.020145904 -0.09637586 0.0327212 -0.19884397 0.19722897 0.1576112 -0.17382053 0.10404684
0.1267961 0.3317212 0.29590923 0.12519501 -0.082474716 0.29890564 0.31336713 0.20035844
0.07599953 0.31142402 0.011439774 0.26847628 0.24460943 -0.1700695 0.09687866 -0.03387876
00000000: d1d1 bc3d 9ef0 293e e488 473c 2dec 8e3c
00000010: 5796 953e 0b83 26bd af60 2dbe ea91 c9bd
00000020: 19fc 8b3e 0b0e 0d3e e0db 0d3e cda3 adbd
00000030: d555 07be 37df 983e ff90 2d3d 80cd e0bc
00000040: 9770 d5bd 47a2 f3bd eb8a c93d b531 623d
00000050: 7219 903c b61a ffbd 8ba3 adbc f489 1ebe
00000060: 78c7 c13d d9a9 383e 6813 6b3d b9ad d93c
00000070: ec26 a3bd 8aa0 20bb fa72 40be b915 bf3c
00000080: a552 babd 6035 7a3d e8b9 1d3e df68 103e
00000090: 2ae6 ec3d 7318 2bbe 8dbe d5bd cd96 80be
000000a0: 0609 a53c b560 c5bd aa06 063d c19d 4bbe
000000b0: 64f6 493e d564 213e 02fe 31be 8216 d53d
000000c0: d6d6 013e 5cd7 a93e 6a81 973e 1f33 003e
000000d0: 81e8 a8bd 290a 993e a871 a03e c32a 4d3e
000000e0: a4a5 9b3d f872 9f3e e46d 3b3c b975 893e
000000f0: e57a 7a3e b326 2ebe 5268 c63d 74c4 0abd

lstm.weight_ih_l3 f4 [64, 16]
0.06913322 -0.09115986 0.17644392 0.27946338 0.08121588 -0.056181014 -0.19884582 -0.25364268
0.05627595 -0.08345752 -0.1302167 -0.0774338 -0.043838963 0.18853469 -0.110893674 0.06097251
-0.20490795 -0.06891075 0.27598906 0.17842299 0.046436775 0.008032825 0.13758147 0.060230643
-0.14891326 0.026234519 -0.050542388 -0.0045646834 0.02366814 -0.093554996 -0.07824439 0.16080314
0.27578473 0.08196785 0.059939597 -0.08184397 -0.020722365 0.14506008 -0.19130336 -0.11455094
0.09479008 -0.20438959 -0.31736416 -0.25868195 -0.28360096 0.017165966 0.27466652 -0.042349428
-0.2572531 0.007187752 0.33032984 0.16780935 -0.15919657 -0.15654449 -0.23320913 -0.025513086
0.24272792 -0.1849322 -0.10097156 0.19815123 -0.06778831 0.060337067 0.09502039 -0.1872847
-0.009398447 0.1375142 -0.086682476 0.19201142 -0.20947753 -0.02080849 0.11328123 -0.16496888
-0.19697548 0.01697458 -0.039660376 -0.10538582 0.13733731 -0.11003724 -0.13743687 -0.15376791
0.14641173 0.22231494 -0.028797003 0.032092642 0.100403726 0.1524294 0.12113558 -0.017356656
-0.32657006 -0.17583543 -0.32764152 -0.25441366 -0.013401825 -0.011006583 0.06056008 -0.0064693997
-0.26578292 -0.15203895 0.17751035 -0.025810668 -0.17872453 -0.35685578 0.091720834 -0.3357282
-0.03528777 0.07244413 -0.26121068 -0.026633976 0.083763465 -0.10727468 -0.13677591 -0.05729996
-0.25572094 0.15398262 -0.05735643 0.10918606 -0.24621756 -0.23241709 -0.12546583 0.07565949
-0.10942801 -0.050746255 0.11339798 -0.13212857 -0.15783042 0.23609795 0.09703954 -0.061329354
0.23960459 0.03691591 0.3002425 -0.16874412 -0.20654258 0.08567582 -0.20489016 -0.29515317
-0.045303572 0.06697204 -0.082656965 -0.2727706 -0.1993669 -0.10320699 0.0989868 -0.12289003
-0.30407217 -0.2626802 0.15438057 0.35383323 0.1629447 -0.068923205 0.13482876 -0.12712163
0.031284638 -0.17542718 -0.21709055 0.18779618 0.0033078808 0.0126625085 -0.10513824 0.24056202
-0.20539299 -0.12890613 0.23558877 -0.08782538 -0.23059085 -0.29151207 -0.017344736 -0.13699491
0.017799295 -0.3048146 -0.078392595 0.1550236 -0.23373859 -0.109897226 -0.23023422 0.0124352425
-0.036803715 0.091548584 0.20006405 -0.0043459577 0.1483891 -0.36352354 -0.18259096 0.11098255
-0.030667895 -0.1401462 -0.04334029 -0.24196036 0.0933098 0.2836038 -0.034370825 0.06765109
0.14476717 0.11672307 0.2555753 -0.12986454 0.06776788 -0.1792493 -0.24917686 -0.24806698
0.0077449325 -0.030191474 0.047959816 -0.026614837 -0.19811866 0.049708243 -0.15172662 -0.18708938
0.082187824 -0.3377294 0.2226146 -0.005087455 -0.1369609 -0.19996935 -0.28873873 0.050792582
0.26207316 0.044805028 -0.06278698 -0.12798586 0.04107717 0.02595587 0.04534803 -0.048288777
0.1191981 0.12739615 0.25407454 0.11952287 -0.07668461 -0.18685071 0.162651 -0.11549808
0.005226605 0.0012854084 -0.19509496 -0.18073867 0.0043806685 0.11991958 0.039243933 0.132881
0.10926562 0.047837257 -0.07843286 0.3090099 0.076099 -0.19035107 -0.057132546 -0.010654779
0.059148073 -0.13146487 0.015220259 -0.022912763 -0.18690714 -0.12162474 -0.06782548 0.18627031
00000000: b895 8d3d 05b2 babd b7ad 343e d315 8f3e
00000010: 8354 a63d 101e 66bd 3d9e 4bbe 74dd 81be
00000020: 9c81 663d c7eb aabd 8757 05be 9d95 9ebd
00000030: 7c90 33bd 3d0f 413e 391c e3bd 50be 793d
00000040: 64d3 51be 1421 8dbd 704e 8d3e 84b4 363e
00000050: 7d34 3e3d 1c9c 033c 28e2 0c3e 68b4 763d
00000060: b87c 18be c6e9 d63c 8905 4fbd 5793 95bb
00000070: b0e3 c13c c399 bfbd 983e a0bd 94a9 243e
00000080: a833 8d3e c3de a73d 3983 753d d09d a7bd
00000090: f3c1 a9bc a18a 143e 07e5 43be af99 eabd
000000a0: 4d21 c23d 814b 51be 8e7d a2be f671 84be
000000b0: 2534 91be a49f 8c3c 17a1 8c3e 9876 2dbd
000000c0: aeb6 83be 3c87 eb3b fe20 a93e 37d6 2b3e
000000d0: 6d04 23be 334d 20be 60ce 6ebe d200 d1bc
000000e0: ab8d 783e de5e 3dbe 2dca cebd 28e8 4a3e
000000f0: 99d4 8abd 0024 773d 0d9a c23d 8fc7 3fbe
00000100: f2fb 19bc 86d0 0c3e 9586 b1bd a49e 443e
00000110: 4781 56be 9176 aabc fdff e73d 9aed 28be
00000120: f1b3 49be 460e 8b3c eb72 22bd 85d4 d7bd
00000130: 27a2 0c3e 345b e1bd 40bc 0cbe 5675 1dbe
00000140: f5ec 153e 87a6 633e b1e7 ebbc 9373 033d
00000150: 78a0 cd3d 7416 1c3e ee15 f83d 8c2f 8ebc
00000160: 3134 a7be 340e 34be a1c0 a7be 8242 82be
00000170: 5493 5bbc f554 34bc d90d 783d 42fd d3bb
00000180: b314 88be 19b0 1bbe 46c5 353e e570 d3bc
00000190: 9003 37be cdb5 b6be 22d8 bb3d 91e4 abbe
000001a0: e989 10bd 975d 943d 68bd 85be 7f2f dabc
000001b0: 2e8c ab3d d4b2 dbbd fc0e 0cbe 5db3 6abd
000001c0: dbed 82be 9fad 1d3e 93ee 6abd f19c df3d
000001d0: 7520 7cbe bffe 6dbe 1d7a 00be 5df3 9a3d
000001e0: cb1b e0bd 4edb 4fbd 333d e83d b64c 07be
000001f0: 4c9e 21be a9c3 713e abbc c63d 7d34 7bbd
00000200: e85a 753e 2335 173d 63b9 993e 42cb 2cbe
00000210: e67f 53be ce76 af3d bace 51be 511e 97be
00000220: 3d90 39bd a328 893d 0e48 a9bd 97a8 8bbe
00000230: d626 4cbe 305e d3bd 97b9 ca3d c5ad fbbd
00000240: 59af 9bbe 057e 86be f115 1e3e a129 b53e
00000250: fada 263e 9c27 8dbd 8d10 0a3e 2c2c 02be
00000260: 5224 003d 2fa3 33be fc4c 5ebe a44d 403e
00000270: 08c9 583b 6976 4f3c b852 d7bd e455 763e
00000280: 8a52 52be f8ff 03be 2f3e 713e cbdd b3bd
00000290: 0220 6cbe 1241 95be 8c16 8ebc 6548 0cbe
000002a0: d4cf 913c a910 9cbe 4c8c a0bd 82be 1e3e
000002b0: 2b59 6fbe cc11 e1bd 85c2 6bbe 30bd 4b3c
000002c0: 7ebf 16bd d37d bb3d 97dd 4c3e 8968 8ebb
000002d0: 50f3 173e c21f babe 20f9 3abe d24a e33d
000002e0: 3d3b fbbc 7c82 0fbe 9785 31bd 75c4 77be
000002f0: 3519 bf3d 8434 913e 6cc8 0cbd a88c 8a3d
00000300: d83d 143e 810c ef3d c4da 823e 36fb 04be
00000310: e3c9 8a3d 218d 37be 3828 7fbe 4505 7ebe
00000320: 34c9 fd3b 1c54 f7bc 8371 443d 5c07 dabc
00000330: 9edf 4abe df9a 4b3d 395e 1bbe 5c94 3fbe
00000340: 1752 a83d deea acbe 15f5 633e aab4 a6bb
00000350: 7a3f 0cbe c4c4 4cbe 90d5 93be e20b 503d
00000360: 742e 863e 7a85 373d 7696 80bd ba0e 03be
00000370: 8940 283d 68a1 d43c dbbe 393d 74ca 45bd
00000380: 221e f43d 2374 023e 0f16 823e 68c8 f43d
00000390: d20c 9dbd cb55 3fbe fc8d 263e 428a ecbd
000003a0: f143 ab3b 267b a83a f9c6 47be 8f13 39be
000003b0: b68b 8f3b 6698 f53d 3fbe 203d f511 083e
000003c0: a7c6 df3d 00f1 433d 68a1 a0bd 8c36 9e3e
000003d0: cbd9 9b3d 64eb 42be d103 6abd 6291 2ebc
000003e0: 4045 723d ba9e 06be 655e 793c 8cb3 bbbc
000003f0: 9664 3fbe 6416 f9bd 16e8 8abd a5bd 3e3e
