checkpoints/model_weights_epoch_10.pt (torch, 36335 bytes, 18 tensors)

lstm.weight_ih_l0 f4 [64, 1]
00000000: 8850 b93c 90c1 0abd 8006 ec3d 413c 563e
00000010: f686 9abc ff42 1f3e aa77 583d e22b b53d
00000020: cd79 88be 1d4c 773e 6e72 0b3e 4d09 c8bd
00000030: f38c b73d 577e 31be f34f 2bbe 111b 7abe
00000040: af7f 2b3e f59b e53c 839a 28be e05c 9a3e
00000050: 3e00 09be e270 95bd 3825 d2bc 4765 d1bd
00000060: 578d a7bd d8e4 0e3e 90f0 c03c c12d 823e
00000070: 9756 593e 4db7 0e3e 98e8 693d a610 aebe
00000080: c954 3e3e 24eb 5d3e 64ad 953c 2ca5 3cbe
00000090: ffff 563e 1ed8 b7bd f0f5 7abe 022d f8bd
000000a0: c2bb 923e bf0d 75be 7bbc d43d 1531 88bd
000000b0: 7101 98be 8899 2fbe 478c 15bd dd8d 5abe
000000c0: 6587 083e 38cb 62bd 7184 29bd fcb6 743e
000000d0: dbb0 b23d b83e d4bd 29cf 893d ff40 b0be
000000e0: 9c67 ccbc 7bad 783e 827b a1bc ba39 afbd
000000f0: 4aea 9b3e 9a86 1dbb 03a1 4fbe 66e0 aabe
0.022621408 -0.033876 0.11524677 0.20921423 -0.018863183 0.155529 0.052848496 0.088462606
-0.26655427 0.24150129 0.1361787 -0.09767399 0.08962431 -0.17333351 -0.16729717 -0.24424388
0.16747926 0.028028468 -0.16465192 0.30148983 -0.13378999 -0.07296921 -0.025652513 -0.10224395
-0.08181255 0.13954484 0.02355221 0.25425532 0.21224438 0.13937111 0.057106584 -0.33997077
0.1858703 0.2167173 0.018271156 -0.18422383 0.20996092 -0.08976768 -0.2450788 -0.121179596
0.28658873 -0.23931025 0.10387512 -0.06649987 -0.296886 -0.17148411 -0.036510732 -0.21343179
0.13332899 -0.055369586 -0.04138607 0.23897928 0.08725139 -0.10363525 0.06728966 -0.34424588
-0.024951749 0.24284928 -0.019712213 -0.08555932 0.30452186 -0.0024036528 -0.20276265 -0.33374327

lstm.weight_hh_l0 f4 [64, 16]
00000000: 8872 09be 4d4f 7dbe 7f35 62bd 1375 be3d
00000010: c463 6abe 8bb1 a7be 8bd8 58be 9edf 343e
00000020: 4469 4abd 0d39 7bbe a0f0 5b3d 6952 b3be
00000030: 8560 ecbd 0360 f33d cfc7 e7bd ce7d 603e
00000040: b531 343e 6bcc ad3d b5db a0be fe50 58be
00000050: c3fd 60be 75a7 aa3d 7297 3c3e 821c 06be
00000060: af38 9dbd b8c4 14bc 7e5f cbbd 305c 46be
00000070: c1ce 133e ca64 433e af20 d93c cf27 29be
00000080: 5345 54bb 4f01 7abd 1a2d 563c dd29 51be
00000090: 9a86 71bb 2a16 853e 5142 cbbd 040c 84be
000000a0: dbdd 1dbe 64f2 3a3e 85c5 1e3e 0a94 8bbd
000000b0: e8d2 8dbd 6308 ab3d 5f9d 39bc 2b36 95bd
000000c0: 8a7c 24be 5b8d 243e 204b 503e b346 063e
000000d0: abf6 31be 03e3 28be e6b6 60be 5232 313e
000000e0: 5e1f 6d3d a15c b4bd bf1f 293d a7ab 233e
000000f0: d644 da3b 5f48 133e 6bd3 7f3d e327 46be
00000100: e603 49be 90cc 27be 625f b5be 2b16 13be
00000110: 7c0a 8dbe f055 d3b8 6941 683e 1603 7a3e
00000120: c243 0dbc e84d 0b3e dd62 963e 173b 16be
00000130: 2898 0abd 5ae9 41be fa95 063b 480e 823e
00000140: 7fa6 eebd f7fb d03c c680 5cbe 4d68 a53c
00000150: b88a 84be 0ab9 e5bc 1e82 0dbd f539 673e
00000160: de00 d9bb ce72 fd3c cbe1 79be 117e 363e
00000170: 944e a2bd 3cde 2e3e a1ec 923e a12a 84bd
00000180: 8b98 46be 1737 20be 0bc0 43be 5294 99bd
00000190: 7f78 3ebe cb30 4dbe f442 0cbe 7739 aa3e
000001a0: 1211 943d 9793 9fbe 231c 073e 003e 16be
000001b0: 894a 33be 960b c1bc ae73 b43b ea84 333d
000001c0: 6932 4bbe 5056 aebd 29e6 9abe e38d 8b3e
000001d0: 8904 45be 8b96 e83a 1412 fdbd 2e9a 3fbd
000001e0: 9134 fd3d 545a a03e 84ca 5d3e 336e 25bd
000001f0: 558d 593e 408e 8b3d 656c 2ebe 77b1 6bbb
00000200: 4902 7d3e 5611 c5bd 2beb 37be 183e 32be
00000210: 172e 16be b89e 2c3c d870 24be 7d16 b3bd
00000220: 6e2c 5bbe 78db 423c 5d79 5d3e ce32 25be
00000230: 7120 df3c 107d 683e ec21 02be d46e 8c3e
00000240: ec78 863e 56c4 3e3d c3ec 9d3d 3037 87bd
00000250: 9e2c 06be 33ab 80be 28db 1ebc 8e07 443d
00000260: 3b12 6abe 31a0 94be b4ba 38be 473c c1bc
00000270: c0e0 8ebe f1cf 1e3e 1162 6a3e a5a1 6b3e
00000280: 54d1 60be 91af f93d b442 0dbe 0f00 c6bc
00000290: 54c8 813e d3c2 e33d 2474 36be e2fd 1abe
000002a0: 4efe b53d 52c7 e5bd f8ab a83b 351a 1cbd
000002b0: 85c2 e63d 29bf a4be 49be 19bd da74 d43d
000002c0: d4b7 863e d54f 23be 2a1a f1bc b532 aabd
000002d0: 76b1 00be aea6 59be 672f 4f3d 26ee abbc
000002e0: 9c0f 9a3e 44e6 c53d 59ef d1bc 3c2d 683d
000002f0: 0303 c93d b4f0 08be dd31 143e 5bcb 43be
00000300: b6ce e5bd 3c8a aabe 9fb3 07be 7ece 8ebe
00000310: 8570 3c3d e57d 27be 6a8c f93d 4410 623e
00000320: ab12 06be 7eb8 febd 03b8 903e 1832 eb3d
00000330: 72ad 38bd e06a 473e b96f 183e a30d 773e
00000340: e2ec 0dbe 7aca 60bc a32f 30bd 244e 92be
00000350: 1b23 9ebd a915 51bd dc0b 343e cd0e 08bc
00000360: 8543 5f3e 5a8b 36be fbb6 9b3e 5e5e 07be
00000370: a738 dfbc 3e82 3abd 273c 42be 5ca1 22be
00000380: 570a e5bd 4440 82bd a7c1 0a3c 8caf 303e
00000390: d2ae d73b 676f f1bd 3e03 af3e 9230 343e
000003a0: 74ee 753b 34e5 a43e 7406 5cbe 2484 563e
000003b0: 4b39 a0bd 9bb2 5a3e 7e42 a83a 393b 60bd
000003c0: a712 6bbe 642a 84be 15f6 c23c efd0 44be
000003d0: 379e d13d df71 123d 2572 0abe 242b 513d
000003e0: bc80 3abd 4a94 2dbe 6fd7 4abd c1d7 2cbe
000003f0: 7289 243c 7349 5e3e 7fb4 8f3d 91ba 0bbd
-0.13422596 -0.24737282 -0.0552268 0.09299674 -0.2288962 -0.32752642 -0.21176355 0.17663428
-0.049416795 -0.24533482 0.053696275 -0.3502381 -0.11541847 0.11883547 -0.11317407 0.2192299
0.17597087 0.08486255 -0.31417623 -0.21124646 -0.21971802 0.08332721 0.18417147 -0.13096812
-0.07676827 -0.0090801045 -0.09930323 -0.19371104 0.14434339 0.19081417 0.026504843 -0.16519092
-0.0032389953 -0.061036404 0.0130722765 -0.20426126 -0.003685391 0.25993472 -0.09924758 -0.25790417
-0.15416662 0.18256527 0.15505035 -0.068153456 -0.06924993 0.08351209 -0.011329024 -0.07285722
-0.16063133 0.16069548 0.20341158 0.13112907 -0.17379253 -0.16492848 -0.2194477 0.17304352
0.057891242 -0.0880673 0.04129004 0.15983449 0.006661038 0.14383076 0.062457483 -0.19351153
-0.19630393 -0.16386628 -0.35424334 -0.14363925 -0.2754706 -0.00010077271 0.22681202 0.2441524
-0.008622112 0.13603938 0.29372302 -0.14670978 -0.033836514 -0.18936673 0.002053617 0.2540152
-0.1165285 0.025510771 -0.21533498 0.020191336 -0.25887084 -0.028042335 -0.034547918 0.22580703
-0.006622418 0.030938532 -0.2440254 0.17821528 -0.07925144 0.17076963 0.2869616 -0.06453443
-0.19394128 -0.15646015 -0.19116227 -0.07498993 -0.18600653 -0.20038144 -0.13697416 0.33246967
0.072298184 -0.3116729 0.13194327 -0.14672089 -0.17508902 -0.023565095 0.005506954 0.04382793
-0.19843449 -0.085125566 -0.30253723 0.27256688 -0.19240011 0.0017745061 -0.12356964 -0.046777897
0.12363542 0.31318915 0.21659285 -0.040388297 0.2124532 0.068142414 -0.17033537 -0.0035963932
0.24707903 -0.09622447 -0.17960803 -0.174065 -0.1466602 0.010535888 -0.16058671 -0.08744524
-0.21403667 0.011893146 0.21628328 -0.16132662 0.027237149 0.22703958 -0.12708253 0.27428305
0.2626413 0.04657396 0.07711174 -0.06602323 -0.13102958 -0.25130615 -0.009695806 0.047858767
-0.22858517 -0.29028466 -0.18039972 -0.023588313 -0.27905846 0.15509011 0.22888972 0.23010881
-0.21954852 0.1219169 -0.13794976 -0.02416995 0.2534815 0.11121144 -0.17817742 -0.15135911
0.088863954 -0.11219658 0.0051474534 -0.03811093 0.112675704 -0.32177094 -0.037534986 0.1037385
0.26312125 -0.15948422 -0.029431421 -0.08310453 -0.12567696 -0.2125499 0.050582316 -0.020987581
0.30090034 0.0966306 -0.025626825 0.056683764 0.098150276 -0.13373071 0.14472146 -0.19120543
-0.112210676 -0.3330859 -0.13252114 -0.27891916 0.046005744 -0.16356619 0.12184985 0.22076517
-0.13093059 -0.12437533 0.2826539 0.11484164 -0.045087285 0.19474363 0.14886369 0.24126296
-0.13859895 -0.013720149 -0.04301418 -0.28575242 -0.077215396 -0.051046047 0.17582649 -0.00830431
0.218031 -0.17826596 0.3041304 -0.13219592 -0.027248694 -0.045534365 -0.18968259 -0.15881866
-0.11183613 -0.06359914 0.008469022 0.17254466 0.0065821195 -0.117888264 0.3418216 0.17596653
0.0037526162 0.32206118 -0.21486837 0.20948845 -0.07823428 0.21357195 0.0012837199 -0.05474398
-0.22956334 -0.2581359 0.023798982 -0.19220327 0.10235255 0.035753127 -0.13520105 0.051066533
-0.045532927 -0.16951099 -0.04952186 -0.16879179 0.010042535 0.21707706 0.07016849 -0.03411347

lstm.bias_ih_l0 f4 [64]
00000000: 8866 f7bd 1060 863e c89d 32be 4572 103e
00000010: 82b1 593e 639d c1bd 0a07 3c3e e967 8f3e
00000020: 7bf3 403e 492e 01bd c71f 5a3e bd6c bf3d
00000030: 7ad0 7c3e ec75 a83d d01f 39be cc0e 67bd
00000040: 7949 623e 632a edbd 5efa ef3d 3c9d 5dbd
00000050: bc90 b83d 75da 293e ab42 f9bc f6d6 923e
00000060: 5dc8 26be fb66 30be 8b67 543e 5233 0e3e
00000070: 8404 593e 8018 4a3e ff17 c2bd 7a25 163e
00000080: 5835 043e 23b3 79be a48f e9bd 4a6a 39be
00000090: e5ce 5bbe f9b3 89be 523b a53d 20f1 213e
000000a0: b78d 59be 0575 4cbc 409f 7b3e d91e fa3d
000000b0: 686d 5fbe d0eb 363e 2387 2e3e e9a5 7e3e
000000c0: d5dc 893e a8dc 2c3e fc3e dd3d f5fb 0a3c
000000d0: 7779 803e c1fb 893d 8a8e c4bd cf85 433e
000000e0: 9bd2 a83e ccc0 f23d 839f 7b3b dc1b 713e
000000f0: 75ab 943e f46c 313e 0422 95bc 2d09 a73d
-0.12080103 0.26245165 -0.17443001 0.1410609 0.2125912 -0.09453847 0.1836206 0.28008965
0.1884288 -0.03153828 0.21301185 0.09346912 0.24688902 0.08225617 -0.18078542 -0.056410596
0.2209834 -0.1158035 0.117176756 -0.05410503 0.09011981 0.16587241 -0.030427298 0.28679627
-0.1628737 -0.17226784 0.20742624 0.13886765 0.21193129 0.19735909 -0.09477233 0.14662734
0.12910974 -0.24384741 -0.114043504 -0.18106952 -0.21465643 -0.2689512 0.08067955 0.15814638
-0.21245466 -0.0124790715 0.24572468 0.12212915 -0.21819079 0.17863393 0.17043738 0.24867977
0.26926294 0.16881049 0.10803029 0.008482923 0.2509267 0.06737471 -0.095975 0.19094013
0.3297318 0.11853179 0.0038394637 0.23545784 0.2903706 0.17326719 -0.018204696 0.08156047

lstm.bias_hh_l0 f4 [64]
00000000: 7771 72bd 6b54 aa3d 3593 66be 62d1 3f3e
00000010: 6ceb 083e fa21 123e ff56 833e b008 e6bd
00000020: f8b6 4a3d e75c 573e 454f 3fbe 7d42 bc3d
00000030: 7498 b0bd 3f37 54be 0270 0bbe 672c 813e
00000040: 984d 73bc 1cf3 513e 2e68 013e 2a2b 413e
00000050: f22e 763e dde2 15be add6 1abe 7d68 e03d
00000060: e12c f7bd 2762 6ebe 7fad 20be 971a 89bd
00000070: 6aa4 773d 5293 3a3e d631 3c3e 2f63 3abc
00000080: 32a6 d3bd 3598 dcbd d54d 56be c6f7 cf3d
00000090: 6493 31bd 11a0 8bbe cbc7 a03d 5b03 553e
000000a0: 8da5 07bd 1902 0abe 47e6 e13c 6f14 5dbe
000000b0: 2ef6 d13d ac0a e73c 6466 253e 2a23 903d
000000c0: e45f ef3d e6cc 24be d33a 08be 13ed 143d
000000d0: 95a0 2e3e 4ccd 8a3e 8607 ac3e d091 873d
000000e0: 390c 853e b54e 943d 934e 7a3e 2c12 5cbc
000000f0: d703 133e b182 a6bc 6606 7dbd 4291 bfbd
-0.05919024 0.08316883 -0.22517093 0.18732217 0.13371056 0.14270774 0.2565231 -0.11232126
0.0494909 0.21031533 -0.18682583 0.09192369 -0.08622828 -0.207242 -0.13616946 0.2522919
-0.014850043 0.20502895 0.12637398 0.18864122 0.24041346 -0.14637323 -0.15120955 0.109574296
-0.12069107 -0.2327963 -0.15691184 -0.06694525 0.06045953 0.1822026 0.18378386 -0.011376186
-0.103344336 -0.10771219 -0.20928128 0.10154681 -0.043353453 -0.27270558 0.078506075 0.20802061
-0.033116866 -0.13477363 0.027575625 -0.21589826 0.10252033 0.028203331 0.1615234 0.07037957
0.116882116 -0.16093788 -0.1330369 0.036358904 0.17053445 0.27109754 0.3359949 0.066196084
0.25985888 0.07241575 0.24444036 -0.013432067 0.14356934 -0.02032599 -0.06177368 -0.093538776

lstm.weight_ih_l1 f4 [64, 16]
00000000: 4162 69be ba63 343e 66a3 05be 78b4 9bbd
00000010: fd07 343e 6509 48be 0227 09bd 157e 753e
00000020: 6a78 543c ca18 acbd 17f4 7e3e 22bb 213e
00000030: 77fd 3dbe c62b 293e 38ce 2c3e bf35 b3bd
00000040: dec9 1c3c b63e 5abe 8dc8 61be 1e15 84bd
00000050: 1ff2 77be d4ae 08be 954b 58be 1ad9 a3bd
00000060: da4c c1bc 18e0 5cb9 776e a0b9 6406 7d3d
00000070: dd89 1e3e 7e04 60bc c544 2dbe a841 80bd
00000080: 93dd df3d f74d bcbd c6f1 3ebe 6b03 9cbd
00000090: 0317 71be 7976 b7bd 7b44 fcbd 1518 923c
000000a0: 5647 433e d3e1 c9bd e3dc 8e3e 9b08 c83d
000000b0: 23c8 19bb 8a27 9abd b4e3 db3d ba8b 1f3e
000000c0: df45 cf3d 8ccb 093e 80db 2abd 2960 52be
000000d0: 9da0 953d 4bb9 49bd 8a73 983e 2200 38be
000000e0: a68f 2ebe 1186 0bbd df9d 22be b63f c4bd
000000f0: 61a8 05be 67dc 853d adc1 7f3d da7f a63d
00000100: d07f f5bd d2cd 52bd af80 8bbe 8f6e 803d
00000110: 390e 03be d1c9 0f3d fd77 e8bd 5a03 17bc
00000120: 8339 6ebd e9d4 0c3d cf2a a6bd 7cbe 083e
00000130: b5b1 aa3c 39b1 23be d189 583b d2ea 7b3e
00000140: b30f 613e d7b8 173e 7052 98bd e4d2 a0be
00000150: f3b0 debd 1f18 263e 692d 46bd bbee 09be
00000160: 9239 2f3e 408c 97be caae 9c3e 52e0 7cbe
00000170: f152 c8bd 2d28 84bd b733 1abd a443 cabd
00000180: 4f78 04be df3f d43c c2a1 cbbd 7991 85be
00000190: 0b3e 663e 4040 53be 49b4 4cbe 6632 16ba
000001a0: 0e4b c2bd 9a24 4a3d b18c 71bd 56b7 4abe
000001b0: c939 84be 74d8 9b3d a86a 5d3c cc89 5bbe
000001c0: 1817 b33d 6a92 1a3d 39e1 823d 69d0 863e
000001d0: 9568 26be bfba cc3c 6b29 8c3d f5ac 93ba
000001e0: 9079 b63c f6c4 593e 1ae2 f73d 23ee 3d3d
000001f0: d289 b63d e7fa a6bc 00ba 3b3e a6e9 663e
00000200: fd17 c2bc da94 c8bd ef6f 5c3e 2a86 5abd
00000210: fd03 75be 02a9 d8bd 5261 2a3e 13d2 cf3d
00000220: fcb9 2c3e 5a22 393e 3822 66bb b935 7abe
00000230: 7552 9b3b b73a 5d3e 023a ce3d c4b6 cb3d
00000240: c8c1 0e3e bfe3 7b3d 7983 2fbe 1c74 e03d
00000250: 7de5 923d 0dff 83be b5db 9cbe 1c13 fc3d
00000260: 5d3e f8bd f27d 8d3d ce44 9dbd 41c2 8cbd
00000270: 20dd 5cbd 3e63 f6bd 69a7 4cbd 3f67 9abe
00000280: 0885 97bc e49f 943e 0767 5ebe 3365 cebd
00000290: a64e 9dbd 1255 173d 6934 0d3c db08 cdbd
000002a0: 05f8 843c e1d4 6abe b6ac 213e 6e88 44be
000002b0: ca1e 6fbe 8d50 723d 6982 73bc 840a 23be
000002c0: fc0f e5bd da02 b6bd c9a8 a1bd d3e5 153d
000002d0: 5c3e 89bb 7d51 7ebe ba32 22bd e7c0 153e
000002e0: e9b6 c7bc 40c8 8bbe bc34 5d3e 0106 52bd
000002f0: a943 24be bedf a1bd 2118 aa3c 6a59 22be
00000300: cc2c e03c 7de5 933d a60c 513e b4ef 6fbe
00000310: d3eb 7f3e ef98 013e d32f edbd 3b20 eebc
00000320: ca7b e3bd 9e95 83be f23d 52bb 3016 3bbe
00000330: c075 2e3a 81ab 0fbe 5a7c 563d 1b70 653d
00000340: 1976 bdbc 9cfa c03d b25c aa3d 2bfb 1c3e
00000350: 47b7 033e 7f03 2bbe 9a18 423e 9713 913e
00000360: 3e7b db3d 5cd5 593d bcf0 6cbd cbd6 453e
00000370: e0cb a2bd 73c4 8e3e f3a5 813e fb49 943e
00000380: 6968 c4bd 4a2e f2bc 83d0 56bd d00b f93c
00000390: 62c1 b23d dc77 403e 78e9 0c3c d125 2d3e
000003a0: 8725 813e 1c89 073e effe ad3b c2d7 4fbd
000003b0: d81c 8fbe d5d8 1abe b2ad 6bbd fe5a 553e
000003c0: 3918 23be 0905 55be f078 db3d d681 da3d
000003d0: b5f2 5c3e a3ee cebd 6f71 85be f91c ab3d
000003e0: 9907 b5bc 3d40 3dbe 78f2 183e c08e 89be
000003f0: 7dc8 b0bc 9ef6 c13d c8b6 5a3e 551f 0b3e
-0.22791387 0.17616168 -0.13050613 -0.07602781 0.17581172 -0.19534834 -0.033484466 0.23973878
0.012968162 -0.08403166 0.248978 0.15794042 -0.1855372 0.16520604 0.16875541 -0.08750486
0.009569613 -0.21312985 -0.2204916 -0.0644934 -0.24213456 -0.13347942 -0.21122582 -0.08000393
-0.023596216 -0.00021064316 -0.0003059988 0.061773673 0.15482278 -0.013672946 -0.16920765 -0.06262523
0.10930934 -0.09194558 -0.18646917 -0.076178394 -0.23543935 -0.08958144 -0.12317749 0.017833749
0.19070181 -0.09857526 0.27902898 0.09767266 -0.0023465238 -0.07527073 0.1073679 0.15580645
0.10120749 0.13456553 -0.041713238 -0.20544495 0.07306025 -0.049248975 0.2977565 -0.179688
-0.17046985 -0.034063403 -0.15880536 -0.095824644 -0.13052513 0.06536179 0.062440563 0.081298545
-0.11987269 -0.051465817 -0.27246615 0.062710874 -0.12798394 0.035104576 -0.11351011 -0.009217108
-0.058160316 0.034382734 -0.08113634 0.13353914 0.02083669 -0.15985574 0.003304113 0.24601296
0.21978645 0.14816605 -0.07437599 -0.31410897 -0.10873594 0.16220139 -0.04838315 -0.13469975
0.17111805 -0.2959919 0.30602103 -0.24694946 -0.09781445 -0.064529754 -0.037646975 -0.09876183
-0.12936519 0.025909362 -0.09942962 -0.2608755 0.22484605 -0.20629978 -0.19990648 -0.0005729556
-0.09486972 0.049351312 -0.058972064 -0.197965 -0.25825337 0.076096445 0.013514198 -0.21439284
0.08744639 0.037737288 0.06390614 0.2633088 -0.16250832 0.024991391 0.06843837 -0.0011266755
0.022274762 0.21266541 0.12103672 0.046369683 0.08913006 -0.020383311 0.18332672 0.22550067
-0.02369308 -0.09794016 0.21527074 -0.053350605 -0.23927303 -0.10579111 0.16638687 0.1014749
0.16867822 0.1807951 -0.003511561 -0.24434556 0.0047400543 0.21604429 0.10069658 0.09946969
0.13941109 0.061496492 -0.17139997 0.10959646 0.07172678 -0.25780526 -0.30636373 0.12308332
-0.1212127 0.06908788 -0.07679139 -0.068729885 -0.05392182 -0.12030648 -0.049964342 -0.30156896
-0.018496051 0.29028237 -0.2171899 -0.10077896 -0.076810166 0.036946364 0.008618453 -0.10011455
0.016231546 -0.2293277 0.1578854 -0.19192669 -0.23351589 0.05915885 -0.014862635 -0.1592198
-0.111846894 -0.08887263 -0.07893521 0.03659613 -0.004188342 -0.24835773 -0.039599158 0.14624368
-0.02437921 -0.27301216 0.21602148 -0.051275257 -0.16041435 -0.079040036 0.020763459 -0.15854421
0.02736511 0.07221506 0.20414981 -0.23431283 0.24992304 0.12655996 -0.11581387 -0.029068103
-0.11107595 -0.25700086 -0.003208038 -0.18270183 0.00066551194 -0.14030267 0.052364685 0.056015115
-0.023127602 0.094228 0.083184615 0.15330188 0.12862884 -0.16700552 0.18954697 0.28335258
0.10716866 0.05318199 -0.05784677 0.19320218 -0.07949042 0.27884254 0.25321922 0.28962693
-0.09590227 -0.029563088 -0.052444946 0.03040114 0.08728291 0.18795723 0.008600585 0.16908957
0.25223944 0.13235897 0.0053099315 -0.050742872 -0.27951694 -0.15121777 -0.057538696 0.20835492
-0.15927209 -0.20802702 0.10716426 0.106692955 0.2157696 -0.1010411 -0.26063105 0.083551355
-0.02209835 -0.18481536 0.14936244 -0.26866722 -0.021579975 0.094708666 0.21358788 0.13586171

lstm.weight_hh_l1 f4 [64, 16]
00000000: d208 21be 57ec 233e d9e9 333e f64a a23c
00000010: bc9e d73d 0c8a 98be 60ec 5fbe 880e 85be
00000020: 4032 313e a21b acbb 4cab 93be 761f 193d
00000030: bcbe 3abd ca42 84bd 15d5 a3bd eebe c23d
00000040: 611c e23c 0a81 dd3d 5148 5cbe b734 83be
00000050: 0f4b 9ebd 35af d9bc ceac 97bb 6f08 92be
00000060: 2ff3 3fbe 106a 223e 83be 99bd b4d2 81be
00000070: 72f8 013d 0031 68bd e12e 82be 3867 ec3c
00000080: 5d58 c8bd a39f 113e 4ddc 5bbd 3db4 70bc
00000090: 6aab 8fbe bfbc 8cbb 83a6 343e 43c1 b83d
000000a0: c96e 3abe 1e07 363e 881b e8bd 8ba1 70be
000000b0: f2b3 7ebd bd31 a7be bfde 4d3e 5f3e b43d
000000c0: c43d f1bd 6d88 a63d 929d 50be 5bdd 71be
000000d0: d39f c83d f065 d93d 5cfc 913d b329 0cbe
000000e0: 1611 0c3e 4404 553d a28d 8bbe f7d9 9a3d
000000f0: 24d0 51bd da36 10be b7da 8cbe cf5b 223e
00000100: b0ae c53d b4ab 49be aa1c 98bd d7d1 893c
00000110: 55e0 2dbd 6466 55bd 1fdb 6c3e e18c 573d
00000120: c688 dcbd 1d65 dbbc ec87 b3be ccfc 8cbe
00000130: 2be0 963e 8c7b 0fbe 4520 873d 3e85 96be
00000140: 1bb6 8c3d 5c6a c0bd 8a10 aa3c fe69 13be
00000150: 52c8 043c 36b0 413e be9b 953c e734 8ebe
00000160: e2f0 363e 5e86 e3bd d2fb 013e 6345 95bc
00000170: 336d fdbd 26c7 83be 11ad ad3d b3d6 d83c
00000180: 8e52 933e eb70 753d 10d8 46be a367 113e
00000190: dc54 fbbc 1f84 2c3d b5e9 14be 6169 9abc
000001a0: ec2f 27be 56d8 14bc 12f7 2c3e ea82 82bd
000001b0: 7fc6 963e 3e75 143e a316 6cbd 55b2 b73d
000001c0: fa94 333e b580 5d3e b0cc cabd 2486 84be
000001d0: 778b 353e 4a5d ce3d fb22 bdbd 8f35 eb3d
000001e0: e369 7bbe 4137 1cbd 2f63 8cbe 569c a33d
000001f0: 033e af3d e3d3 cc3d df9b b33d de33 55bd
00000200: aac2 45be 9f9e 27bd 95d9 333e def3 c7bb
00000210: a4f8 59bd 5ca4 2b3e 1735 68bd e4ca 25be
00000220: 4b1f a53d 6ef0 d1bd 996e 3bbe 69fc 423e
00000230: e1af 45be dc5e d9bd 91b6 34be 8c8e 7fbe
00000240: 1b8c 62be 61de 1ebe 82c9 cb3d bfb2 153e
00000250: dcb6 0ebe a1fc 3abe 3ae7 1d3e f426 44bd
00000260: 00fe b63d 56aa 073e 0abe 34bd a3a6 68be
00000270: 7620 66be c04e 263c 6522 33be 058b 8bbe
00000280: 091b bdbc 2ebc f6bd d4e0 8fbe b8f1 0bbe
00000290: 8319 143e c77e 883d 8473 863d f0f2 b5bc
000002a0: 4aed e6bd 7abe cabc 661e 3cbe dda7 3ebd
000002b0: 2b91 58be 5429 5dbe 4583 58be 6d63 0e3e
000002c0: 6912 32be 471b 573e f1b6 15be 7af1 90be
000002d0: 4630 25be b031 2bbe c82a 3bbe 85b9 113e
000002e0: 4a25 1f3e 6590 f1bd d8b6 4abe dcba 923d
000002f0: 9ed2 44be bc93 81be 73b4 0c3e 14a4 e63d
00000300: 404d e1bb e142 1ebe e6ae 55be 45af 3e3e
00000310: 8429 abbd 9680 60bd 72b9 a4bd d6f0 9abd
00000320: 3131 97bd 52e1 ffbd 13d6 67bd 72ae 513c
00000330: 00e1 703e 2d1c 15be ec04 273e 2fe3 513d
00000340: 55b9 043d 66e4 823e 3489 dabd 442d e7bb
00000350: b585 7fbe a5a0 143e b6e4 723e ff67 0b3d
00000360: 261b b43d eb67 f83c f243 2ebe 8ece 85be
00000370: f559 a3bd ec91 35bd eb9b 383d 2459 1cbe
00000380: 967a 473e a31d 70bd c39e 7dbe 964c 1f3e
00000390: 6c50 4f3d 9333 ed3d 08f2 79be eccb c4bd
000003a0: 9339 35be 7e78 5bbe b788 b83d 27b8 6f3d
000003b0: da3c 0fbd 6b93 af3c c634 74bd 4609 54be
000003c0: 3b3f 03bd ad2a 60be 0260 443e d544 aebd
000003d0: 2d78 79be 5113 4b3d 9ee4 0c3e 5b40 a33d
000003e0: 2d58 63be 5480 0a3d dd3f 04be 72ff 8fbe
000003f0: f9cb 84bd 12cd 9b3d 4123 c33c 0d3a b03d
-0.15726021 0.16008125 0.17569675 0.019811135 0.10528323 -0.2979282 -0.21867514 -0.2598765
0.17304325 -0.0052523175 -0.28841627 0.03738352 -0.045592055 -0.064580515 -0.079996265 0.09509073
0.027601423 0.10815628 -0.21511962 -0.25626156 -0.0772916 -0.026572803 -0.004628754 -0.2852206
-0.18745111 0.15860772 -0.0750704 -0.25356066 0.031731077 -0.056687355 -0.2542639 0.028857812
-0.09782479 0.14221053 -0.053676892 -0.01469141 -0.28060466 -0.004294961 0.17641644 0.09021237
-0.18206324 0.17776152 -0.11333376 -0.23499124 -0.062183328 -0.32655135 0.20104502 0.08800959
-0.11779359 0.0813149 -0.20372608 -0.23619597 0.09796109 0.10615146 0.07128212 -0.13687782
0.13678393 0.05200602 -0.27256495 0.07561105 -0.05122389 -0.14083424 -0.27510616 0.15855335
0.096524596 -0.19694406 -0.07427342 0.016823692 -0.042450268 -0.0520996 0.23130463 0.052624587
-0.10768275 -0.026781613 -0.35064638 -0.2753662 0.29467902 -0.14011973 0.06597952 -0.2939853
0.06870671 -0.093952864 0.02075984 -0.14395902 0.008104401 0.18914875 0.01826274 -0.27774736
0.17865327 -0.11109613 0.12693718 -0.018221563 -0.12374344 -0.25737876 0.084802754 0.026469564
0.28773922 0.05992214 -0.19418359 0.1419969 -0.030680113 0.042118188 -0.14542277 -0.018849077
-0.16326874 -0.009084782 0.16891125 -0.06372626 0.29448316 0.1449785 -0.057638776 0.08969561
0.17537299 0.21631129 -0.09902322 -0.2588359 0.17728983 0.10076387 -0.092351876 0.11484825
-0.24552111 -0.03813863 -0.2741942 0.07988803 0.0855675 0.10001352 0.087699644 -0.052051418
-0.1931254 -0.040922757 0.1756347 -0.0061020693 -0.053215638 0.16761917 -0.056691255 -0.16190678
0.08062609 -0.102509364 -0.18303908 0.190416 -0.19305374 -0.10613796 -0.17647769 -0.24956721
-0.22123758 -0.15514518 0.09950544 0.14618967 -0.13936943 -0.18260433 0.15420237 -0.04788871
0.089351654 0.13248572 -0.044126548 -0.22719817 -0.2247332 0.010150611 -0.17493589 -0.272545
-0.02308418 -0.12047611 -0.28101218 -0.13666427 0.14462857 0.06664806 0.065650016 -0.022210568
-0.11275728 -0.02474903 -0.18370971 -0.046546806 -0.21149127 -0.21597797 -0.21143825 0.13905115
-0.17389835 0.21006499 -0.14620568 -0.28309232 -0.16131696 -0.16718173 -0.18278039 0.14230926
0.15541568 -0.11795119 -0.19796312 0.07164547 -0.19220969 -0.25308025 0.13740711 0.11261764
-0.006875664 -0.154552 -0.208675 0.18621548 -0.08357528 -0.05481013 -0.080431834 -0.07565467
-0.073824294 -0.12494148 -0.05660064 0.012797939 0.2352333 -0.1456153 0.16310471 0.05124205
0.03240331 0.2556488 -0.10670701 -0.0070549566 -0.24953349 0.14514406 0.23720059 0.034034725
0.08794241 0.03032299 -0.17018107 -0.2613415 -0.07976142 -0.044328615 0.04507057 -0.1526838
0.19480357 -0.058622014 -0.24767594 0.15556559 0.050613806 0.115821026 -0.24408734 -0.096092075
-0.17697744 -0.21432683 0.09010451 0.05852523 -0.034970142 0.021432599 -0.05962064 -0.20706663
-0.032042723 -0.2189128 0.19177249 -0.085092224 -0.2436225 0.04957897 0.13759086 0.07971259
-0.22201605 0.03381379 -0.12914987 -0.28124577 -0.06484217 0.076074734 0.023820521 0.08604822

lstm.bias_ih_l1 f4 [64]
00000000: f5ef 433d 02f0 0ebe abd2 4abe ab75 1e3d
00000010: 214a a03e 946d 983d 2ad0 a8bd b688 833e
00000020: 4909 c8bd 1ee5 7abc 8979 b0bc 3d5f 783e
00000030: be40 da3d 9cd7 b03b 31e0 863e 55e4 f23d
00000040: 5fe8 963c c4fc 3dbe 4b85 a13d cd9e e33d
00000050: 61a7 343e fa34 b5bc 2089 95bd 87ce 5e3d
00000060: bf99 583e 709e e0bd 14d5 19be 65b9 923e
00000070: 52a1 123d 0c69 42bc 8f3a 6cbd 5d34 453c
00000080: b0e3 f23c ecc4 613e 9147 81be b664 3cbe
00000090: 4343 34bd 45e1 233d e82d 9e3d e446 b83d
000000a0: 6ddf 35be 90bd afbd 4d56 aebd 46d8 2bbe
000000b0: 4afd 833e 15a8 0fbe 9e4e 8abe 5eb6 d6bc
000000c0: 04f0 d6bd 6870 f5bd ccd3 ca3c c7ba 5d3e
000000d0: ed41 a0bb c38b 943e 5f5f 6abc 5cb0 e7bd
000000e0: de9c 3b3c b68e 113e 91ef 22be 9fd9 333e
000000f0: 3138 2bbe 4ce4 1ebe a522 d33d 25c0 ae3e
0.047836263 -0.13958743 -0.19806926 0.038686436 0.31306556 0.07442775 -0.08242829 0.2569024
-0.09767396 -0.015313415 -0.021542327 0.2425508 0.1065688 0.0053967964 0.2634292 0.11859957
0.01842135 -0.18553454 0.07886752 0.11114273 0.17641975 -0.022119988 -0.07301545 0.05439618
0.211524 -0.109677196 -0.15022689 0.2865707 0.03579838 -0.011865865 -0.057673033 0.01203641
0.029649585 0.22047776 -0.25249913 -0.18397793 -0.04400946 0.040009756 0.077236 0.08997896
-0.17761011 -0.08581078 -0.08512554 -0.1678172 0.25779182 -0.14028962 -0.27013105 -0.026210006
-0.10494998 -0.119843304 0.024759196 0.21653281 -0.0048906715 0.2901288 -0.014304965 -0.11312935
0.011450974 0.14214596 -0.159117 0.17563485 -0.16720654 -0.15516776 0.10309342 0.3413097

lstm.bias_hh_l1 f4 [64]
00000000: 3bfa 8f3e da92 e0bd 5b37 813e af2a 733c
00000010: 73c8 333d f228 463e 0b2c 16be 2642 3dbd
00000020: e0ce 1fbe 757a 53be 3cea c9bd fcc0 52bd
00000030: 54f7 c1bc f3b3 76be f99c e33d 3b59 a63e
00000040: be9d 13be 06dc 273e bbf5 513d 1b84 1abd
00000050: 0384 2b3e 557a 4e3d 60c3 3b3e 5114 233e
00000060: c36b 4a3e e642 bf3c 949d 5dbe 4b52 f23c
00000070: 8a77 1b3d 8a64 453e fc91 713d a26a 193e
00000080: 6880 c1bd 6e44 6ebe 95e1 643e 2235 e3bd
00000090: 455d 1cbd f371 bdbd 04fc d9bd ac84 05be
000000a0: 4f15 28be ccf1 b6bd 814f 85be 9b0b 7dbe
000000b0: 3e10 1a3e a5fd 0b3e db04 69be 7911 01be
000000c0: 3db3 9dbd 5505 c13d 8439 8c3e 3fe6 46be
000000d0: e5ac 77bd 1542 8e3d cd2d 253e c017 7bbd
000000e0: 7329 b13d c1f5 ad3d 7302 113e de0d c73c
000000f0: 4587 3c3d c7a6 68be fd8c bb3c 413e 393e
0.28120598 -0.1096551 0.25237545 0.0148417195 0.043892335 0.19351557 -0.14665239 -0.046205662
-0.1560626 -0.20652182 -0.0985913 -0.051453575 -0.023677506 -0.24092083 0.111139245 0.32489952
-0.14415643 0.16392526 0.051259737 -0.03772364 0.16749577 0.050409634 0.18336248 0.15925719
0.1976767 0.02334733 -0.21642143 0.029580256 0.0379558 0.19276634 0.058977112 0.14982083
-0.0944832 -0.23268291 0.22351678 -0.11094119 -0.038174886 -0.0925025 -0.10643771 -0.13038892
-0.16414379 -0.08932838 -0.2603722 -0.24711458 0.15045258 0.13670976 -0.22755758 -0.12604322
-0.077002026 0.09424845 0.2738763 -0.1942377 -0.06046762 0.06946198 0.16130753 -0.061301947
0.08650484 0.084941395 0.1416109 0.024298605 0.04602744 -0.2271987 0.022894377 0.18090154

lstm.weight_ih_l2 f4 [64, 16]
00000000: 8df5 efbd d39c 43be 5296 c63c eefd 4cbe
00000010: 3253 f83d 688f 36be 66c3 2cbe 3a6b d33d
00000020: f142 b33d 4af1 7ebe 0c9f b6bb 6cf5 61be
00000030: c9e3 833d f5c8 5e3e ef39 29be fdd1 c63d
00000040: 06ee 573c bf30 6d3e ad7d 8a3e 20e7 b93d
00000050: b1bb 92be e1dd 2a3e b655 38be 1e53 51be
00000060: ce2d 4dbe ec5a 443d 4a27 a83d e585 513e
00000070: 254b e6bc b67c 56be c109 6bbe 2acd 413e
00000080: 58a7 353e 345b 303e 7ee2 8d3d 4a5d 40be
00000090: adac 13be 0363 dfbd 175e 093d fa7e c5bd
000000a0: 376e d83c e932 a43c 910d 1cbd 32ac 7abe
000000b0: d05d e23d 37fe a23c 97cb 153e 9c3c 4ebe
000000c0: 83ea f2bd 6407 973d e41f 6b3d 3969 07be
000000d0: bac8 57bd 0cb8 77be 280c 9ebe 3007 a73c
000000e0: cc77 11be e490 293e e00a 50bd 89fc 2c3d
000000f0: 35d2 ae3b 994f 52be 09a9 48bd 19ca 60bd
00000100: 684e 283d 9661 51be 2cc5 4bbe fbd8 c53d
00000110: 561a 23be 39b0 2f3e 175e 313e 4d33 53be
00000120: 331b 3abe e88f 323d 88e7 7dbe 97ce 3dbe
00000130: 2374 9a3e ed0a d8bd f916 2d3d 426c 99be
00000140: c763 50be 74e2 e83d 4b7a 63bd 02b1 bdbb
00000150: cffb a4bd 4c1f a53d 4b20 aa3d 3103 cf3d
00000160: c007 343d 3ccc 94bd cf9b 3abe f9fc 34be
00000170: bb46 a6bd 8569 80bc c56b 36be 83da 79be
00000180: 2a21 bd3d 2770 903c d5ab 2dbd 9021 273d
00000190: 79ae c5bd 11be d53d c504 193e 4712 3ebe
000001a0: e2a0 f6bc f515 d73d 5f3e 01bc 9ecf 24be
000001b0: a522 f0bd 0473 6ebe 8425 ebbd 903e 32be
000001c0: 506d ffbc 7c44 5c3e 73d2 acbc 26ec f1bd
000001d0: d4a1 4cbe 1e47 8c3e 0b82 873e 0335 a73c
000001e0: c590 a63d e314 d5bd b371 3f3c aed9 07be
000001f0: 9c83 2a3e 78b2 efbd e925 89be 113f 883e
00000200: a82a 043d b064 6cbe f42e 92b9 27d5 afbd
00000210: 5d46 f6bd adeb 453e 8568 be3c a386 3bbe
00000220: 1c60 c33c 6147 eb3d b3b4 90bc 7000 00bd
00000230: d5d2 4e3e 91bb 74bd 21bf 83be 558d 74be
00000240: ff58 303c cb58 bf3d 46ba 6fbd dfe9 cabb
00000250: c028 a6be a3f5 1bbe 4b7c 583e bfd0 a93d
00000260: d149 c03d cc87 8bbe bf55 fa3d cd82 a8bd
00000270: 2d02 4dbe eb2d e1bc c362 b93d 2e78 143e
00000280: fdf2 35be 15c4 5cbe df29 34bd c866 e1bc
00000290: 1039 3dbe 5dcc 493d bdd2 99bd 0dcc 1dbd
000002a0: a3ad 0c3e d699 483d 1ad6 8cbe 8cf5 c33d
000002b0: 093b 893c 13fd 05be 479c 34be 5bda a23d
000002c0: a16e f1bd 1e49 e6bd 08d8 1f3d f04a d4bd
000002d0: 797f 7c3e c6e9 743c 8f41 b03d 5459 5d3d
000002e0: b503 793e 45e4 d13d f75a 19be 5840 303e
000002f0: d81a 613e 7143 3ebd d0f9 263e 4e8b 0abd
00000300: 0b59 303e 73ed 483d 818f 4fbe 1269 5d3d
00000310: 5bff 6fbc cda4 febd d5e5 babd b030 24be
00000320: ba3e 6f3e 29cb 9cbe 9fa3 bc3d d859 1fbe
00000330: 44f1 e5bd 0309 3b3e b481 9fbd 248c 05be
00000340: 4e40 0abe cdae 173e a7e3 84bd 1ae8 123e
00000350: faa3 11be 04e5 e63d 525d 91be 03bf 483e
00000360: 1c6a 03be b1a7 143e 48b0 383e e86a eebd
00000370: a1df 2e3e 169e a3bd 17b9 ba3d 12f2 61bd
00000380: 7795 f5bd d334 55be 4217 923d 1b61 1bbe
00000390: 837a 03be 0699 96be 87d0 65be 78b4 0d3e
000003a0: 372c efbd dd20 12bd e195 dcbd 9f5b 1f3d
000003b0: 25ce 0fbe da27 913d e28c 71be a4e8 96be
000003c0: e02d 913e b018 0e3e a4b6 a5be 799f 29be
000003d0: 7b65 85bd 9568 de3d aede 05be b2ce 173d
000003e0: f810 09be de25 623d 41bf 8ebd ca0c 71be
000003f0: c73d 6f3c d20f 9cbd d479 f5bd c9a0 1ebe
-0.11716757 -0.19102792 0.0242416 -0.20018741 0.12125243 -0.17828143 -0.16871414 0.10323186
0.087530024 -0.24896732 -0.005573159 -0.22066277 0.06439931 0.21756347 -0.16526006 0.09708021
0.013179308 0.23163126 0.27049008 0.09077287 -0.28658822 0.16686203 -0.18001446 -0.20441863
-0.20037004 0.047938272 0.08210619 0.20461233 -0.028112004 -0.20946011 -0.2295294 0.1892592
0.17739618 0.17222291 0.069279656 -0.18785587 -0.1442134 -0.10907557 0.033536997 -0.096433595
0.026419742 0.020043807 -0.038098875 -0.2447975 0.110530496 0.01989661 0.14628445 -0.20140308
-0.11861136 0.073744565 0.05740346 -0.13223733 -0.052681662 -0.24191302 -0.3086865 0.02038917
-0.14205855 0.16559178 -0.05079162 0.042233024 0.005335117 -0.20538177 -0.04898933 -0.054880235
0.0410904 -0.20447382 -0.19899434 0.09660526 -0.15928015 0.17157067 0.17321049 -0.20625038
-0.18174438 0.04359427 -0.24795353 -0.18535839 0.3016673 -0.10548959 0.042258237 -0.29965407
-0.20350562 0.113713175 -0.05553655 -0.0057889232 -0.08055841 0.0806261 0.08306941 0.101080306
0.043952703 -0.07265517 -0.18223499 -0.17674626 -0.081189595 -0.015675316 -0.17814548 -0.24399762
0.09234841 0.017631603 -0.0424002 0.040803492 -0.09652419 0.10436643 0.14943226 -0.1856166
-0.030106012 0.10502235 -0.007888406 -0.16094825 -0.11725358 -0.23286062 -0.11481765 -0.17406678
-0.031180054 0.215105 -0.021096444 -0.1181262 -0.19983608 0.27398008 0.26466402 0.02041102
0.08133081 -0.104043745 0.011684823 -0.13266632 0.16651767 -0.11703962 -0.26786736 0.26610616
0.032267243 -0.23085284 -0.00027882273 -0.085855775 -0.120251395 0.19328184 0.023243198 -0.18313079
0.02384954 0.11488224 -0.01766429 -0.031250417 0.20197614 -0.05974919 -0.25731757 -0.23882039
0.010763406 0.09343108 -0.058527254 -0.0061924304 -0.32452965 -0.15230422 0.21141164 0.08291768
0.09389079 -0.27252042 0.12223386 -0.08228073 -0.20020361 -0.027487716 0.090520404 0.1449897
-0.17768474 -0.21559174 -0.043985244 -0.02751483 -0.18478799 0.04926716 -0.07510898 -0.038524676
0.13738112 0.048974834 -0.27507097 0.09568319 0.016751783 -0.13084821 -0.1763774 0.07951804
-0.11788679 -0.11244415 0.039024383 -0.10365856 0.24658002 0.014948314 0.08606254 0.054040268
0.2431782 0.10248617 -0.14976107 0.17212045 0.21982896 -0.046451036 0.16306233 -0.033824258
0.17221467 0.049054574 -0.20269586 0.05405528 -0.014648284 -0.12433777 -0.09125868 -0.16034198
0.23363772 -0.3062375 0.09210896 -0.15561616 -0.112276584 0.18265156 -0.07788411 -0.1304174
-0.13501093 0.14812775 -0.06488734 0.14346352 -0.14222708 0.1127415 -0.2839151 0.19604115
-0.12833446 0.14517094 0.18035996 -0.116414845 0.17077495 -0.07989137 0.09117334 -0.055162497
-0.11991399 -0.20820932 0.07133342 -0.15173762 -0.12839703 -0.29413623 -0.22442828 0.13838375
-0.11678355 -0.035675872 -0.10770775 0.038905736 -0.14043482 0.07087679 -0.23588899 -0.29474366
0.28355312 0.13876605 -0.32365906 -0.1656474 -0.065134965 0.10859791 -0.13073227 0.037062354
-0.1338538 0.055211894 -0.069700725 -0.23540035 0.014602131 -0.07620205 -0.119861275 -0.15491022

lstm.weight_hh_l2 f4 [64, 16]
00000000: 1e57 1fbe 5c57 36be 440d 93bd a358 2b3e
00000010: ca27 c93d 3415 88be 7730 ac3c 91eb 593e
00000020: c3f3 b93c 7907 ed3c 23ac 8dbe fa42 5a3d
00000030: 598d 4a3e 34a1 873d e20e 7e3e 5bc6 a6bd
00000040: 781b 06bd 1ce0 733e 3a3c e03d 99b6 e33d
00000050: ca85 dbbd c7d8 653c e52a e83d df16 43bd
00000060: bda3 a5bd f23a 5f3d 43b0 32be 76c9 913e
00000070: 0f29 513e 0b76 54be 66e2 1bbe dc17 323d
00000080: 28d0 243e ec4c 49bd 8335 2f3e 13ec 23be
00000090: a02c 433e 16c7 543d 0287 7fbd 0b2a 4cbe
000000a0: ea2e dcbd 56f5 863e 7316 96bb cce7 953e
000000b0: 05b5 0d3c 1c98 67be a3d3 33ba bc73 0e3e
000000c0: debd d5ba d416 9f3d 6d92 443d 7b77 973d
000000d0: 2ee7 1ebe 76f2 0b3e 8e10 30bd 556e 20be
000000e0: 5bde 4b3d 9812 8fbd f4c7 633d 3270 2abe
000000f0: 6a70 fe3d 1003 113c 2bfa b8bc 7d5e 44be
00000100: 24c0 15be 02d5 b43b 0e58 d6bb ce6d 21be
00000110: 5044 803d 9aca 123e f96b da3d d50b 8d3d
00000120: 89d7 56be 052e 0f3e 2e69 e1bd 17b3 91bc
00000130: 5a49 933e fbfa eabc 1e67 27be df65 c43d
00000140: 6521 c93d 0337 44bc 594d 56be eee2 46be
00000150: 8929 843c f47c 343e bfa7 b23b 6b61 4ebe
00000160: 6fb2 c43d 76f7 823e 41ed 793e 1833 bb3c
00000170: 7914 a13d fe20 5ebe 03e4 8b3e a3ef aa3c
00000180: 5a89 553e 6923 5d3e ac54 eb3d 2c4f ad3d
00000190: f6e8 973e 6cbe 77be 680d e03d 4fb2 933d
000001a0: 3c43 fc3d 472e 35bd 4f68 033d 45bb 2fbe
000001b0: fc06 253e 4584 58be f832 26be 3d43 063d
000001c0: fc4f 5ebe bb24 803e 530f b53c 51a4 2bbe
000001d0: 4ad9 593e b69e 7c3e 4d21 423d c2e8 7fbe
000001e0: e23f 733e 8518 efbc d8a2 40be 5d24 bb3b
000001f0: aa13 3a3d 9ce2 81bc b357 f8bd a649 9d3d
00000200: 0ae1 dd3d cfef 803e c576 3f3e e1ab 1f3d
00000210: dcc6 f6bd 144d e63d f8b0 89bc 0ee9 89bd
00000220: 2c58 92bc a661 8a3e 9f83 56be 86a0 0ebe
00000230: 9989 7c3e 5667 1dbe 886b 493e ddb8 84be
00000240: 922b dcbd 94b3 643e db98 0abe b258 92bd
00000250: 522d 0bbd 06ad 6f3d 5e14 8bbe d850 333e
00000260: efa1 7cbd 4768 5e3e 66fa 6c3d 7223 0b3c
00000270: 05ec 6ebd 15aa 00bd 3067 0a3e 23c9 0bbd
00000280: 6d2c a7bc 51de 2b3d 2b30 633b 7c38 0bbe
00000290: b345 a23d 8231 79be a875 0e3d 5424 6e3c
000002a0: 1d5c 263d 29a3 c6bd fdf2 713d 9275 223e
000002b0: 6c6e 853e b0b2 46be 6201 d8bc bfb0 cebd
000002c0: 5ea2 0d3c fbad 4abd 228b 9cbd 6880 f2bc
000002d0: d5fe 623e dbcb 60bd 6f7b 913e 3e70 bdbd
000002e0: b959 41bc 9fa8 83be 569f 2abe 7753 23bd
000002f0: 0396 b5bd 23f1 a33c 6177 653e bc3d 1b3e
00000300: 741b 293e f78b febc edd4 103e 1dcb 363d
00000310: 6e16 7a3e 6bb0 14be 768d b03d de7c 68bd
00000320: 63f0 29be a55f 36be dd3c 633d 2b5d 0b3e
00000330: 13d3 a9bb 669d 43be 0de4 0bbc 71aa 093e
00000340: 9c1f 9b3e 8b3a 20be a3c4 d6bd b755 3e3e
00000350: 6956 89bd 00ad 19be 936b 2f3d d478 bd3d
00000360: d3cc e0bd 3134 43be db63 723c 9742 04be
00000370: 4ee1 55be 92f7 983e a863 733d c930 edbd
00000380: 5018 743e 3bdc 66be 2f10 e13d b460 28be
00000390: c0cc de3d 77cc db3d 6587 c2bd e6df 05be
000003a0: 1c6c 62be 64ad 363d 7a83 273e e880 d4bd
000003b0: 1da3 913d 25b9 09be 37e2 06be cb9d 25be
000003c0: 7b4b 223e 7b9e 03bc f0fb 023e 12ad 343e
000003d0: 087c 22be 765a 25be 1f8f 38be 5c5b 31bd
000003e0: 7a11 5fbd c337 c4bc 8adc 1abd 5f90 b73b
000003f0: 1c2f 633e 478f 273e 66b2 923e e8c9 9bbe
-0.15560576 -0.17806762 -0.071802646 0.16733031 0.09822042 -0.26578677 0.021019204 0.21281268
0.022699242 0.028934227 -0.27670392 0.05328653 0.19780482 0.06622544 0.24810365 -0.08143302
-0.03274104 0.2381596 0.10948987 0.11118812 -0.107188776 0.0140287345 0.113363065 -0.047629233
-0.08087871 0.054499574 -0.17450051 0.28474015 0.20425819 -0.20748155 -0.15223083 0.043479785
0.1609503 -0.049145624 0.17110257 -0.16008024 0.19059992 0.051947676 -0.062384613 -0.19937913
-0.10751136 0.2635905 -0.004580313 0.2927841 0.008649115 -0.22616619 -0.00068598444 0.13911337
-0.0016307195 0.07768026 0.047991205 0.07395836 -0.15517876 0.1366671 -0.042984538 -0.15667088
0.0497726 -0.06985968 0.055610612 -0.16644362 0.12423785 0.008850828 -0.022580227 -0.1917667
-0.14624077 0.0055185566 -0.0065412587 -0.15764543 0.062630296 0.14335099 0.106651254 0.068870224
-0.20980658 0.13982399 -0.110063896 -0.017785592 0.287669 -0.02868413 -0.1634793 0.09589743
0.098208226 -0.011976006 -0.20927943 -0.19422504 0.016133087 0.17625791 0.005452126 -0.2015435
0.09604346 0.25579423 0.24406911 0.022851512 0.07865233 -0.21692273 0.27322397 0.02086622
0.20853177 0.21595539 0.11490759 0.084623665 0.29669923 -0.24193734 0.10940057 0.07211744
0.123175114 -0.044233587 0.0320819 -0.17161281 0.16115946 -0.21144207 -0.1623038 0.032778967
-0.21710199 0.25028023 0.022102034 -0.167619 0.21274295 0.24669918 0.04739504 -0.24991134
0.23754838 -0.029186497 -0.1881212 0.005711122 0.04542891 -0.015855126 -0.12126102 0.07680063
0.108339384 0.2518296 0.1869765 0.038982276 -0.12049648 0.1124517 -0.016808018 -0.06733905
-0.01786431 0.27027625 -0.20948647 -0.13928422 0.24661864 -0.15371451 0.19669926 -0.2592229
-0.10750498 0.22334129 -0.13534872 -0.071458235 -0.033978768 0.058514617 -0.27163976 0.17511308
-0.06167787 0.21719466 0.057855986 0.008492338 -0.058330555 -0.031412203 0.13515925 -0.034127366
-0.020406926 0.041960064 0.0034666162 -0.13595766 0.0792345 -0.24335292 0.034780174 0.0145350285
0.04061519 -0.09699089 0.059069622 0.15865162 0.26060808 -0.19404101 -0.026367847 -0.100923054
0.008644668 -0.049482327 -0.07643725 -0.029602244 0.22167523 -0.05488191 0.28414485 -0.09249924
-0.011801177 -0.25714585 -0.16662344 -0.03987452 -0.08866503 0.020012444 0.2240882 0.15160269
0.16514379 -0.0310726 0.14143725 0.044627298 0.24422619 -0.14520423 0.086207315 -0.056759708
-0.16595607 -0.17809923 0.055477966 0.1360976 -0.0051826327 -0.19103011 -0.008538258 0.13443924
0.30297554 -0.15647332 -0.10486724 0.18587385 -0.067059346 -0.150074 0.0428272 0.09251562
-0.10976567 -0.19062878 0.014794315 -0.12916027 -0.20886728 0.2987638 0.05942121 -0.11581571
0.238374 -0.22544949 0.10989415 -0.1644314 0.10878897 0.10732358 -0.09498481 -0.13073692
-0.22111553 0.044598952 0.16358748 -0.103761494 0.071111895 -0.13449533 -0.13172232 -0.16173474
0.15849106 -0.00803339 0.12791419 0.17644146 -0.15867627 -0.1614779 -0.18023346 -0.043300018
-0.054460026 -0.02395237 -0.03780798 0.005601927 0.2218594 0.1636325 0.28651732 -0.3042748

lstm.bias_ih_l2 f4 [64]
00000000: a547 c43b 982a 22be e9ad 233e e833 2d3e
00000010: 5b6d d5bd f2d5 f1bd aa1b 1a3e 080d dfbd
00000020: a4ea 7bbd 6ad0 27be 4d1d 393e acd2 cfbd
00000030: c626 a2bd 756a 233e 2f7e 9e3d 6783 a93d
00000040: e62b 133d bc57 3c3e 64bd 23be 0f47 bd3d
00000050: e649 813e f99b 27bc 1ea8 363e e72a 31be
00000060: b195 4a3e 3010 923e fe81 593d c7c3 e5bd
00000070: 3b70 0a3e e71f 69be f115 593e d02a 35be
00000080: 0b05 193d 28c9 833d 56ab 303e 2935 3fbe
00000090: 0c7b b03d bb6f 303e a1fa 1bbe 8337 32be
000000a0: 4d47 aabd c34b 803e 48d3 713e 20e6 603e
000000b0: 0629 6d3e 2254 953d 8ff9 9bbd f622 8cbe
000000c0: b99d 233e 7dc4 da3d b127 8cbd 9efa f2bd
000000d0: 5218 c9bd 4287 b23a 792e e33d 9b6a 8e3e
000000e0: ba27 ea3d f537 1fbc 30ae c3bc b038 c43d
000000f0: 6c8e dc3d e6d1 713e 51cb 9eba a4f9 0f3d
0.005989986 -0.1583656 0.1598431 0.16914332 -0.104212485 -0.11808385 0.15049616 -0.108911574
-0.061503068 -0.16388097 0.18077584 -0.10147604 -0.07917552 0.15958579 0.07738911 0.08277016
0.035930537 0.18392843 -0.15990216 0.09242069 0.25251693 -0.010230058 0.17837569 -0.17301522
0.19783665 0.28527975 0.053102486 -0.11218982 0.13519375 -0.22766076 0.21199776 -0.17692113
0.037358325 0.06434852 0.1725286 -0.18672623 0.08617219 0.17230122 -0.15232326 -0.17403989
-0.08314381 0.25057802 0.23615754 0.21962786 0.2316018 0.07291438 -0.07615959 -0.27370423
0.15978135 0.106820084 -0.06843508 -0.11864208 -0.09819092 0.0013620632 0.11092848 0.2781571
0.114333585 -0.009717931 -0.02388677 0.09581125 0.10769352 0.23615226 -0.0012115036 0.035150185

lstm.bias_hh_l2 f4 [64]
00000000: bbec adbb 6a4f b3bd 83e2 0cbd ba86 7d3e
00000010: ae3b 193e c7a4 a63d 4564 273d 91e8 2fbe
00000020: da51 9f3c 399f 62bd 428e 13be eeb6 96bd
00000030: d8d1 54be 2aeb 1bbe ac29 4ebd deaf 943b
00000040: 6546 e9bd 9b2b dfbc 31ee ae3d dbc1 343e
00000050: 5d98 683e 53e6 633e c16e a03d 1088 27bc
00000060: 4f80 b2bd 46c7 10be 3e9c 56be 6d25 443e
00000070: 03e7 38bd af14 ca3d 1c0c e63d 1bc4 d4bb
00000080: 9d34 133e e26d 7bbb 26c7 31be ce3f 23bd
00000090: af98 5b3e 263d 25be e1cc 573e cf3e 2cbe
000000a0: 9e02 6c3d 6c62 f7bd aad6 42be 1845 4fbe
000000b0: 9122 013e 72ea 60bd 9789 9a3d 6bd8 09be
000000c0: 5545 6c3e 1d6a b2bd a9c9 8c3e 72e8 aabd
000000d0: 3c57 983e 1e27 c2bc ee85 c2bd 6f9a 15be
000000e0: 418f bd3d 20b8 8c3e 33fc 8a3e 213d fe3c
000000f0: b5ee a83d 4c77 db3d 62a2 acbd 6837 733e
-0.0053077615 -0.087553814 -0.034395706 0.24758425 0.14964172 0.081368975 0.04086711 -0.17178561
0.01944821 -0.055327628 -0.14409736 -0.0735911 -0.20783174 -0.15226427 -0.05033271 0.0045375666
-0.1139038 -0.027242472 0.08541525 0.17652075 0.22714372 0.2225583 0.07833625 -0.010225311
-0.08715879 -0.14138517 -0.20958039 0.19154902 -0.045142185 0.09867226 0.112327784 -0.006493104
0.14375539 -0.0038365056 -0.17361125 -0.03985577 0.21444963 -0.16136608 0.21074249 -0.16820835
0.057619683 -0.12079319 -0.190272 -0.20241201 0.12610842 -0.054911084 0.075457744 -0.13461463
0.23073323 -0.08711646 0.27497604 -0.08345117 0.29754055 -0.023700293 -0.09498201 -0.14609693
0.09255839 0.27484226 0.27145538 0.031035008 0.08248655 0.107161134 -0.084294096 0.23751605

lstm.weight_ih_l3 f4 [64, 16]
00000000: a09c 083e 3978 463e 547c a13d bbd7 8bbe
00000010: 5c54 ed3d c524 513e f5ec 6fbb e591 18bd
00000020: c9df e83d 8f99 1d3e 956a 2e3c e14c 173e
00000030: 0c50 0d3e ad3f 5abc 4a6b 913e af29 0e3e
00000040: 6093 293e f139 0abe 2144 cebc 73de 83bc
00000050: b5ae 623d 4cc7 0abe ebd6 32be 4d2f 1dbd
00000060: b8f4 a73d a6e6 6c3e fa1d 3f3e 8f24 ea3d
00000070: e23e b9bd a704 29be fb9e 383e d6b0 cb3b
00000080: e810 8e3e 3636 123d b4b9 a83c d374 59bd
00000090: 6aa8 413e 7937 20be b2bb dabd 6756 ee3d
000000a0: c32c 71be e542 25bd 67a9 273d f26a 8e3e
000000b0: d16d 59bd c21b 99bd c0a2 acbd 48dc 9b3d
000000c0: 9a85 17bd d896 b43d adb9 93be 17db 0b3e
000000d0: 9634 423e 7da0 45be 89d5 3b3e 9f0c 673e
000000e0: 3d0d 093e 5aa2 2d3e 7fac bebb 45ad 56bc
000000f0: 9212 4d3e 8b81 6d3c 4c88 423e fe3c 1d3e
00000100: 67f9 a3bd 5a6b 523e 12a3 13be 40f6 90bd
00000110: 554b 403e afbd 743d 438f b5bd c405 afbc
00000120: 303d 9bbd 5a88 92bb 2bd8 8ebe 9389 023e
00000130: e13a 1dbb 7495 423e 5ff8 493c 19e6 30be
00000140: bfb9 18bd 129e 643e b8da 7cbe 64c0 1f3e
00000150: 6af6 e33b 6fe6 41be dd81 6fbc 3bd4 493d
00000160: 3c66 11bd 3563 4a3e 4192 f43d 28e3 8c3e
00000170: 2929 2d3d 7d05 0bbe a0c5 233e 2314 a2be
00000180: b0a1 57bd c165 29bd f509 a63d cd14 47be
00000190: c04a 8a3e 7b63 3ebe 550d 9c3e e580 a6bb
000001a0: 1b47 96bd 0ae5 083d 66e3 5ebe 2fbf 993d
000001b0: 5a8e 93bd c9c2 38be e37c 7a3e 95c7 babd
000001c0: f657 303e 884a 97bb 91e8 00bd 9888 1ebe
000001d0: 5afc 893d d7bb d9bd 0ebd 9dbe d264 ec3d
000001e0: 9ad1 0b3e 7c93 9a3e 5f45 89bd e137 0a3d
000001f0: e794 f2bc cca4 a6bc 03a4 39be ae92 05bd
00000200: 6769 a23d e230 873d 5531 3fbd 2fd3 03be
00000210: c86c 993e ffaa fb3c 5818 01bd a686 543e
00000220: 32c4 26be bc46 233e bbc9 afbc d129 8a3e
00000230: 2c23 59bb bede f73d 0ab9 783e 298a d53c
00000240: 0a84 283e 15eb 44be ea79 2bbe d1e4 313e
00000250: 8428 073e 8692 14bc a171 863d 7205 bebd
00000260: 9862 dd3b efb2 873c aba2 17be f7f3 f5bc
00000270: 325d 28be 49ac 1f3d 0260 a8bc a5f8 33bd
00000280: aa0a 26bd 898b ed3d f270 95bd 8aae 963d
00000290: 09d2 2d3d 0ce2 7b3d df89 713e fa8e 13be
000002a0: bb3a 43bd e58e 39be 1af1 5fbe 3199 f83d
000002b0: 1255 903e 2a31 b93d c614 24be 20b9 be3c
000002c0: bf53 67be ee71 253e ad23 1cbd f0e4 ef3d
000002d0: 58c3 24be 86d9 bdbb 04be cdbb ec02 333d
000002e0: cff7 f9bd 17a7 873e f022 4ebe b5e7 8e3e
000002f0: 6ca6 da3d c4e1 f5bd d61d 3abe acda 8bbe
00000300: 808f eabd 1a54 24be 0179 a3bd ccca 63be
00000310: 122e 07be 9952 813e 24bb ff3b b71a 0dbe
00000320: bb10 113e 7f00 0abe 1997 45be e474 48be
00000330: d0d7 0c3e 7301 ca3d f01e a0bd 9e7b e2bd
00000340: db08 8c3e a759 59be 9c81 91be 169e d7bb
00000350: 0df0 4c3e 0caa 0d3e 0183 97bc 261d ad3b
00000360: fcc3 413e 598e 78bd c878 85bc 3ee9 953e
00000370: 4053 33ba 01f5 763e 74ff 9f3e aa78 5dbe
00000380: 952a 3d3e 9644 0b3d f1ea 4d3e 8f07 9cbe
00000390: 0040 ed3d deaa 213d a1e2 9b3d 9be9 52be
000003a0: 776b 95bc 59d7 a23e cad0 063e 851d 3cbd
000003b0: 2e80 903e 611d cc3d 90f4 19be 7cfd 67be
000003c0: 3aa7 27be 3488 1b3c 9de1 00be 5119 6bbe
000003d0: 0163 293d 2948 cabd 6bf8 9e3c 7701 cebd
000003e0: 3ba1 2b3e 2574 843e 06f6 88be 9060 8b3e
000003f0: 5ec7 8d3e ae93 343e 45b5 853e fe6b 80bd
0.13340998 0.19381799 0.07885042 -0.27313027 0.11588356 0.20424183 -0.0036609743 -0.03724851
0.11370809 0.15390609 0.010645528 0.1477542 0.13800067 -0.013320846 0.28402168 0.13883089
0.16560125 -0.13498665 -0.02517897 -0.016097283 0.055342395 -0.13552588 -0.17464797 -0.038375188
0.08200973 0.2313486 0.18663779 0.11432754 -0.09045197 -0.16505681 0.18029396 0.006216149
0.27747273 0.03569623 0.020596363 -0.053089928 0.18911901 -0.15646161 -0.10680331 0.11637574
-0.23552231 -0.040347 0.04093304 0.27815968 -0.053083245 -0.074759975 -0.084294796 0.07610375
-0.036992647 0.08817834 -0.28852597 0.13657795 0.18965372 -0.19299503 0.18343176 0.22563408
0.13383956 0.16956463 -0.005818903 -0.013102834 0.20026615 0.0144962175 0.18997306 0.15355298
-0.08006554 0.20548764 -0.14417675 -0.070782185 0.18778737 0.05975121 -0.08865216 -0.021365054
-0.0758003 -0.004471821 -0.27899298 0.12747793 -0.0023991393 0.19002324 0.012327283 -0.17275275
-0.037286516 0.22325924 -0.2469281 0.15600735 0.006956865 -0.1893556 -0.014618364 0.049274664
-0.03549789 0.19764407 0.11941958 0.27517056 0.04227558 -0.13576312 0.15993357 -0.31655988
-0.05264443 -0.041356806 0.08107368 -0.19441529 0.27010155 -0.18592636 0.30478922 -0.0050812834
-0.07337781 0.033421554 -0.21766433 0.075071685 -0.07204886 -0.18043055 0.24461703 -0.091200985
0.17221054 -0.004617039 -0.031471793 -0.15481794 0.06737585 -0.10631531 -0.308083 0.115426674
0.13654175 0.30190647 -0.067026846 0.033744697 -0.029612018 -0.020342253 -0.18128972 -0.032610588
0.0793026 0.066011205 -0.046677906 -0.12873529 0.29965806 0.030721186 -0.031517357 0.2075449
-0.1628578 0.15944952 -0.021458497 0.26985028 -0.0033132536 0.121030316 0.24289337 0.026066856
0.16456619 -0.19230302 -0.16745725 0.17372443 0.13199049 -0.009068137 0.06564642 -0.09278382
0.006756138 0.016564814 -0.14808147 -0.030023558 -0.16441801 0.038982663 -0.020553593 -0.043938298
-0.040537514 0.1159888 -0.07296933 0.073575094 0.042436633 0.061494872 0.2358775 -0.1441001
-0.04766343 -0.18120916 -0.21869317 0.12138594 0.28189903 0.090425804 -0.1602355 0.023281634
-0.2259054 0.16156742 -0.03811996 0.11713588 -0.16090143 -0.005793753 -0.006278755 0.04370396
-0.12205469 0.26494667 -0.20130515 0.27911153 0.10676274 -0.12005952 -0.18175444 -0.2731527
-0.11453152 -0.16047707 -0.07982064 -0.2224533 -0.13201168 0.2525833 0.0078042913 -0.13779722
0.14166538 -0.13476752 -0.1929592 -0.1957584 0.13754201 0.09863558 -0.07818401 -0.11058734
0.27350506 -0.21225606 -0.28419197 -0.0065801246 0.20013447 0.13834399 -0.018495085 0.005283016
0.18922418 -0.06068263 -0.016292945 0.29279512 -0.00068407133 0.24116899 0.31249583 -0.21628061
0.18473275 0.034000956 0.20109154 -0.30474517 0.11584473 0.039469592 0.076115854 -0.20596926
-0.01823972 0.31804922 0.13165584 -0.04592659 0.28222793 0.09966541 -0.150347 -0.2265529
-0.16372386 0.009492923 -0.12586065 -0.22958876 0.041354183 -0.09877045 0.019405564 -0.10058873
0.16760723 0.2586986 -0.267502 0.2722211 0.27691168 0.1763446 0.2611486 -0.06270598
