checkpoints/model_weights_epoch_40.pt (torch, 36335 bytes, 18 tensors)

lstm.weight_ih_l0 f4 [64, 1]
00000000: 9479 903e f416 d1be 9ee8 f5bc 511d 86bd
00000010: 100f 07be a771 fdbe 3042 46be db7a 023d
00000020: 6c41 a7be 68c5 9a3e fd06 8ebe 03f9 573d
00000030: 51b3 b5bd 49c4 cabe 1552 b1be 064c 06bb
00000040: 5c99 c73d fbe2 77be e25c fdbc dd4f a6be
00000050: 9320 7b3e 4f0e cfbe b945 4cbe 6dbd f2bd
00000060: 4ba7 e9be 2392 e03d e82a 903e d00c f5bd
00000070: c867 7f3e bda2 babc 4b3e ec3d 149d e5be
00000080: 3ca1 c33e fd69 2f3e 4d7a 873d 6d55 7bbe
00000090: cfd0 133e a0d9 903e 257f 553e 7034 babe
000000a0: 1aa0 6c3e f6e7 19be 26d2 b0be c53d ac3c
000000b0: 73a0 813e 2f1d 9dbe 2ab0 c43e 60b1 c6bd
000000c0: bd1f b23e ac29 223e e699 aebd dbf6 6b3d
000000d0: 8ae7 b73e 5a45 64be 823c d33e 2fb1 053e
000000e0: 221f b1be 53ce b63e b47f 543e 026f 05be
000000f0: 7112 97bd 353b 293d 4cea 28bc a39d a8bc
0.28217757 -0.40837824 -0.030018147 -0.065485604 -0.1318934 -0.49500772 -0.19361186 0.031855445
-0.326671 0.30228734 -0.27739707 0.05272771 -0.088720925 -0.3960288 -0.34632936 -0.002049209
0.09746048 -0.2420768 -0.030928079 -0.32482806 0.24524145 -0.40440604 -0.19948472 -0.11852536
-0.45635447 0.10965373 0.28157735 -0.119653344 0.24941933 -0.022782678 0.11535319 -0.44846404
0.3820895 0.17130275 0.06615124 -0.24544306 0.14435123 0.28291035 0.20849283 -0.36368132
0.23107949 -0.15029892 -0.3453533 0.021025548 0.25317726 -0.30686328 0.38415653 -0.097018
0.3478984 0.15836209 -0.085254475 0.057608467 0.35918838 -0.2229208 0.412571 0.13055871
-0.34594065 0.35704288 0.2075184 -0.13030627 -0.07376564 0.04131623 -0.010309767 -0.02058298

lstm.weight_hh_l0 f4 [64, 16]
00000000: 1004 17bd e120 fa3e 21f4 ec3d 94cd 923e
00000010: d3ca 303e a87d b1be ad4f 883e 94ab 6abe
00000020: 6bb6 4fbe a72b 5ebd 5df8 a1bd ff0e d63e
00000030: 7d8d 3d3d 969a ddbd d358 06be ed37 c93e
00000040: 7721 0ebe 4527 07bc d8cb aabd 0d03 823e
00000050: 0abc febd d43c bf3c be9b 56be 9f9e a03d
00000060: b0b7 03be 19de 95be 10e2 c0bd af3d bd3c
00000070: c06f b8bd 1700 cc3d f518 58bd c9ab b13e
00000080: 015b d13e 7e58 31be 838a 43be a74a 8ebe
00000090: 2cd2 073e bde5 af3e 4060 9dbd 4c4c 6bbd
000000a0: c68b 08bd 36b5 8bbd 0c28 3cbe a63f 64be
000000b0: ebd3 113d ab81 d5bd 1985 243e 089a adbe
000000c0: 1d20 b63e 8f40 833e 5879 a53e d8a4 0a3e
000000d0: a4af aa3e c802 acbe bb70 dc3e 18a5 803d
000000e0: 9555 d73c 16fd 18bd a170 b2bd 4272 a93e
000000f0: e7d4 ba3e 00ae 0a3d e1eb 8ebe fac8 a93e
00000100: 5d8f ae3d ff56 e2bd 7391 0e3e cfdf b2bc
00000110: dc4a 94bd 5569 07be 43ed 063e 2ca6 183e
00000120: 20cd 46be 5083 80be 222d fdbc c425 783e
00000130: f9a0 f93d 1dd0 d7bd a77e f1bc 4d64 c43d
00000140: 7796 a23e f269 be3d 18b3 803e fb6a 0bbe
00000150: b598 cd3e 7893 94bb dc1d 183e 00bf 8cbe
00000160: 35b5 603d 8f3c e4be deb2 1fbe 4471 443e
00000170: 61d8 983e 995e d43d 07ad 243e 37c6 113e
00000180: e639 a5bd d4b5 833e b4a4 0f3e 526b 973e
00000190: ab9b 8b3e cff1 d4bd b582 423d 1543 99bd
000001a0: f48b 8cbd 6d97 88be e643 b33d d68f 16bd
000001b0: 03bc 643e 4dea 3a3e 4d53 353d 65fc a0bd
000001c0: 5a58 283e 3f3a 7f3d 08d9 a03d 0c8c b33d
000001d0: e3ff e23d d08c 6c3d 7bc1 113e b7f8 023e
000001e0: 6fbb a53b 73b7 33be 1dad 03be b120 593e
000001f0: eb06 ac3e 58e2 52be d868 3abe 8a46 2bbd
00000200: 1e8a c0bb a9ef f33d 6296 853e 9425 fabd
00000210: f4a9 b23e a83e 96be 2964 a03e 6995 0c3e
00000220: 8749 95bd c3e9 f23c 1520 5e3d 3f1b 293e
00000230: 3670 74be fc7f 84bc 2af7 8dbe b40f 18be
00000240: 598a 08be da22 943e f3fb 45be a2d9 e13d
00000250: 0b80 0dbe 8ad4 19be f344 ecbd 70e7 1b3e
00000260: 1054 fabd 48c3 c0bd ebef 0fbe 8886 323e
00000270: aa07 043e e8b3 2a3e 04cd 3ebe 4d1a ecbd
00000280: be22 a73e 7b12 44bb 7c1d 993d 3012 4a3e
00000290: 4639 853e 18b0 9bbd b3fb 9e3e 064e b6bd
000002a0: 6e18 51bc 18e2 41be fbc2 333e 7efb 853e
000002b0: 16fc 753e 19db 91bd f8fd b838 598a 1b3d
000002c0: 7214 063e 536d 8c3d 2b78 883e 0bc2 823e
000002d0: ec74 9f3d 959e 0bbe 29a8 983e 1258 a7bc
000002e0: 8290 90bd 5ea0 47be ea9d a2be 54e1 603e
000002f0: ee14 ec3d 4d03 203e 440f 8e3d e816 36be
00000300: d070 02bc fb24 333e bce3 cc3d 20de 1e3d
00000310: 84a5 01bd 607d adbd c069 05be 31f9 993d
00000320: f73b 90bd 7115 d0bc 7615 d43d e4c1 8f3e
00000330: 46de ac3a c079 213e 882e 97be 8b07 dd3c
00000340: af03 443d 8a40 5c3e e1ff aebd d06b d83d
00000350: 877f c33e 0d34 223d 429a eb3d 962b b6be
00000360: f119 0b3e 442a c6bd d00a 83be 75b9 243e
00000370: 1269 6cbd 103e 92be 827b e83d 4e15 493d
00000380: fd9e 293e c3dd b63e 332f 843c bd39 1e3e
00000390: 657c 9b3d e662 0ebc 41bc 913d 091e 2e3d
000003a0: be4e 82be 5b89 fbbe a489 a1be d4be 9a3e
000003b0: 29d3 e03e 8765 0dbd 66ff 4a3e be68 a43e
000003c0: b1d4 ad3c 734d 8abd 506d 203b f621 613d
000003d0: 3156 df3c 8407 7bbd 0361 0d3d 6ae5 de3d
000003e0: 77a5 68be 8940 45bd 53c2 473d 7f38 023e
000003f0: 50d2 163e 84a1 fa3d 0ee4 4fbe c6ed 46be
-0.03686911 0.4885321 0.115700014 0.2867247 0.17264871 -0.3466618 0.26623288 -0.22917014
-0.2028443 -0.05424085 -0.079087 0.41808316 0.046277512 -0.108205006 -0.13119821 0.3930048
-0.13879953 -0.008249109 -0.08339661 0.25392953 -0.12438209 0.023344435 -0.20957848 0.078427546
-0.1286304 -0.2927101 -0.09418118 0.023100702 -0.090056896 0.09960955 -0.052758176 0.34701374
0.40889743 -0.17318913 -0.19095807 -0.2779133 0.13263768 0.34354964 -0.07684374 -0.05744581
-0.033336423 -0.068216726 -0.18374652 -0.22289905 0.03560249 -0.10425123 0.16066398 -0.3390658
0.35571375 0.25635192 0.3231914 0.13539445 0.33337128 -0.33595872 0.43054757 0.06281489
0.026285926 -0.037350737 -0.087128885 0.33094984 0.36490557 0.033857346 -0.27914336 0.33161145
0.08523438 -0.110517494 0.13922672 -0.021835236 -0.07240841 -0.13223775 0.13176446 0.1490714
-0.19414186 -0.25100183 -0.03090531 0.24233156 0.12188906 -0.10537741 -0.029479338 0.09589443
0.3175542 0.09297551 0.25136638 -0.13615029 0.4015557 -0.004534181 0.1485514 -0.2748947
0.054860312 -0.44577453 -0.15595576 0.19183832 0.29852584 0.103696056 0.1608163 0.14235769
-0.08067684 0.2572466 0.14027673 0.29574066 0.27267203 -0.10397684 0.047487933 -0.07483498
-0.068626314 -0.2667803 0.08753185 -0.036758266 0.22337346 0.18253441 0.044268895 -0.078606404
0.16439953 0.062311407 0.078538954 0.08766946 0.11083963 0.057751477 0.14233963 0.1279019
0.005057744 -0.17550449 -0.12859006 0.21203877 0.33599028 -0.20594156 -0.18204057 -0.04181532
-0.00587584 0.11910946 0.26091295 -0.12214199 0.3489529 -0.29344678 0.31326416 0.1372887
-0.07289415 0.029652482 0.054229815 0.165143 -0.2387093 -0.016174309 -0.27727634 -0.1484974
-0.13334025 0.2893284 -0.19334392 0.11027838 -0.13818376 -0.15022483 -0.115365885 0.15225005
-0.12223065 -0.09412247 -0.14056365 0.17434132 0.12893549 0.16670191 -0.18632895 -0.11528454
0.32643694 -0.0029918242 0.07476327 0.197335 0.2602026 -0.076019466 0.31051406 -0.089016005
-0.012762172 -0.18933904 0.17554848 0.26168436 0.24021944 -0.07121868 8.821109e-05 0.037973735
0.13093737 0.068567894 0.2665418 0.25538668 0.07785973 -0.13634713 0.29815796 -0.020427737
-0.07058813 -0.19494769 -0.31761104 0.21960956 0.115274295 0.15626259 0.069365054 -0.17782176
-0.007961467 0.17494576 0.100043744 0.038786054 -0.03165199 -0.08471179 -0.13028622 0.075182326
-0.070426874 -0.025400849 0.10355656 0.28077614 0.0013188801 0.157691 -0.29527688 0.026981136
0.047855075 0.21508995 -0.08544899 0.105674386 0.38183233 0.03960042 0.11504032 -0.35580128
0.13584115 -0.0967603 -0.25594187 0.16086371 -0.05771739 -0.28562975 0.11351682 0.049092583
0.16564555 0.35716066 0.016135788 0.15451713 0.07592086 -0.008690571 0.07115985 0.042509113
-0.254507 -0.4912823 -0.31550324 0.30223715 0.43911102 -0.034520652 0.1982399 0.32111162
0.021219583 -0.067530535 0.0024479218 0.05496403 0.027262779 -0.061286464 0.034516346 0.10883601
-0.2271937 -0.04815725 0.048769306 0.12716864 0.14728665 0.12237838 -0.2030184 -0.19426641

lstm.bias_ih_l0 f4 [64]
00000000: cad3 693e f57b 393e 05e3 febd 2ed9 c13c
00000010: ea1c 383e a9a9 15bd 5098 573c 8962 863d
00000020: f29c 463d ba12 9dbd a6af c0bc 35ba ee3d
00000030: fdca dd3b 766d 0d3e a515 1f3b 4bbb c93d
00000040: acb6 f2bb 1a4b 133e 1c26 3d3e 3abc 313e
00000050: b7ce 5b3e c633 5e3c 92fb 843e ab5d 5bbe
00000060: 256f a6bd 0a9b 6ebe 1d8e 7bbd b1a3 873e
00000070: d2d7 223e 315c 3ebe 45ef e03c 54c6 0c3e
00000080: 0d51 8b3e 004d 0f3e b083 db3d 75c1 6bbd
00000090: 1e7e 5a3e 6775 2abe 673e e33d 1a6f b0bd
000000a0: e40e 54be 34ab 8cbe 442e 0bbe 3a6f 063e
000000b0: c30c a33d 958f 1a3e e9da 2ebc 3f65 623e
000000c0: 1467 143e a5ec 773d bb45 7c3e 6b5a 013e
000000d0: 7279 cfbd 187a c03b 4d36 263e a129 11be
000000e0: 58fa 843e 4fa0 163e c02d d2bd 910c 1d3e
000000f0: 69dd 4ebd 6f2d 8fbd 86a4 a13e e5d7 fb3d
0.22834697 0.18113692 -0.12445644 0.02366313 0.1797978 -0.036538754 0.013158873 0.06561763
0.04848952 -0.076695874 -0.023521256 0.1165661 0.006768583 0.13811287 0.0024274376 0.098501764
-0.00740703 0.14384118 0.18471569 0.17356959 0.21465574 0.013562148 0.25973183 -0.2142245
-0.08126668 -0.2330133 -0.061414827 0.26492074 0.15902641 -0.18589856 0.027457843 0.13747531
0.27210274 0.13994217 0.10718477 -0.057557542 0.21337172 -0.16646348 0.11095887 -0.08614941
-0.20708805 -0.27474368 -0.13591868 0.13128367 0.079614185 0.15093835 -0.010672309 0.22108935
0.14492446 0.060528416 0.24635975 0.12632148 -0.10130586 0.0058739297 0.16231652 -0.14176036
0.25972247 0.1470959 -0.10262632 0.15336825 -0.050504122 -0.06991088 0.31570834 0.12297038

lstm.bias_hh_l0 f4 [64]
00000000: 2171 1a3d 9ac6 d5bd ce13 b43d 800a 07bc
00000010: 8d9f 923d 8d10 0f3e 5f14 ea3c 44ab 6b3e
00000020: 9e2c 923e 7036 8f3e 03d3 f6bc f0ba 803e
00000030: 8fb7 853e cf2b 223e cb60 b93e 90d9 c7bc
00000040: fe2f 0b3e ac0e 4dbd 6ad7 3dbe 754b 513e
00000050: f26b 713d 4e34 72be a908 5f3e 6873 e3bd
00000060: a9e5 2dbd 6ef8 61bd cc65 4c3e ba7e 483b
00000070: e02d 49be f47d 0b3d 6031 003e 89f1 523e
00000080: 9952 16be 57e0 843d 685c 523e 0d27 703c
00000090: 716c b63d 249a 023d bdff 843e 02b9 313e
000000a0: cd92 ac3d 1d11 543d 62e3 513e b437 623e
000000b0: d840 003d 7a91 b13d bdc9 2ebe 5358 1dbe
000000c0: a63f e23e 3d21 813c df36 aa3d 2e3c c23e
000000d0: 0d67 563e 62a4 413e b94d 2abe ef97 f33c
000000e0: b20d 1abd 0968 f23d ae58 683e 21e4 063e
000000f0: 187e a93e c149 033c 1ede 2e3e 4983 593e
0.037705544 -0.10438271 0.0879284 -0.0082422495 0.07159338 0.13971157 0.028574167 0.23014551
0.28549665 0.2797122 -0.030129915 0.25142622 0.26116607 0.15837024 0.3620666 -0.024395734
0.13592526 -0.05006282 -0.18539205 0.20438941 0.058940835 -0.23652765 0.21780647 -0.11105996
-0.04245535 -0.05516856 0.19960707 0.0030593113 -0.19646406 0.034055665 0.12518835 0.20599951
-0.14679946 0.06488102 0.20543063 0.014657748 0.08907402 0.03188528 0.25976363 0.17355731
0.084264375 0.051774133 0.20496896 0.22091562 0.03131184 0.086703256 -0.17069145 -0.15365724
0.44189185 0.01576292 0.08311247 0.37936538 0.20937748 0.18910363 -0.16631211 0.029735534
-0.037610717 0.118362494 0.22690079 0.13172962 0.33104014 0.00801319 0.17076918 0.21241488

lstm.weight_ih_l1 f4 [64, 16]
00000000: 3e49 8a3d 6cba 273e 73d4 5b3e 7e5b cc3e
00000010: 0492 8d3e f015 f5be 5d4e e63d 2d86 80be
00000020: 38bf 7ebe 7d5d b9be 7589 79be 7451 683e
00000030: 1bcb 743d f288 ca3d c79b 0a3e 8812 323e
00000040: c99c 6c3d 3d33 cf3e 48de 063e 10be 7e3e
00000050: 64e4 8d3e 3634 ebbd 0081 0fbe 12a4 073e
00000060: bef9 96be 3e39 323b 575a 47be 2530 143e
00000070: 0939 8b3e 0f01 73be 0c6b 433e f997 1d3e
00000080: 0466 1fbe 8361 473e 4d9e a13e 5dd1 ce3d
00000090: ce1a 073e 7f68 4fbd 28cb 353e 3a69 d73e
000000a0: fe3e d1bc b8aa 643e 64eb bbbd 4ff1 523e
000000b0: 2ce2 073e 119e 123e b425 58be c0b4 ae3d
000000c0: c904 513e c891 253e f58c 873e 34a2 7cbe
000000d0: 4286 a83d bafc 8fbd c472 6e3e ed23 963c
000000e0: 6330 79bd 1778 4c3d 64d1 d73c b2e5 793e
000000f0: 5744 883e aed7 1e3e f019 0b3e 5e9e a03d
00000100: 326a a13e 10cc b23e 37b4 663e 789a c6bb
00000110: aae9 99bc 11ee 073e f7a0 823e 22d2 09be
00000120: 8050 b8bd 8674 06be 3518 4abe e746 7c3d
00000130: 256e 933e 389c 89be fa98 cd3e be68 2e3e
00000140: d374 a63e c503 933c 5013 8a3d 5add f03d
00000150: 498b 6abd c5bf 983e 6389 56bd 4299 173e
00000160: ebd9 1f3e 1ac6 3dbe 606d 1cbe b533 913e
00000170: 22b8 4abb f002 ffbd e495 be3e 76e0 19be
00000180: 9d14 873c 3115 333d 975e 8c3e 9bf6 01be
00000190: 76ec f1bd 02a4 883e 5fee 14bb 06ef 9bbe
000001a0: cf6a 743e ec36 a2be 0425 8d3d c199 a93d
000001b0: 0682 2b3e a436 babe b9aa 793b 68bc 29bb
000001c0: 5cc1 88be d407 663e 05e9 a73e a90d 213e
000001d0: 3218 49be cc1b 1ebe dfc8 093e 3cf4 cd3d
000001e0: 8e5e b2be 3ef8 073d 3012 813e 96c5 40bd
000001f0: b712 7dbe 6311 b63c 83c7 29bd 1e51 b63e
00000200: 7499 07be cfb7 af3e 9818 4e3e d3b2 75be
00000210: 6a61 003d 5f42 5abe a2c7 1bbe f559 d2bd
00000220: 27cc 2e3d dfd0 d9bd 4026 803d 3784 ce3d
00000230: 1528 e73c caf1 afbe db24 bbbc b12e cd3e
00000240: 8875 3d3e 004e b93d 06f1 33be b03a 49bd
00000250: 9d88 3b3e afdb e2bd 148f 3c3e ec8e 0ebe
00000260: 60ee 08be fcde bcbe bc2d 30bd 163e 8d3e
00000270: 324c 6b38 2fd0 d1be 3f2d 733e 46cf babd
00000280: 25f0 a3be fb8e a13c 3a9c 863e e71b 1ebe
00000290: a931 65bc 7c4b 76be 1054 a83d 63b9 0b3e
000002a0: abfe 23be 4858 863c 836c d2bd 68f9 2bbe
000002b0: 9bc3 e4bd b7e7 ca3e 2f04 9cbc f88e 0b3d
000002c0: 9f16 603e 2c02 633e aa11 8b3d 4de7 bd3d
000002d0: 5fd7 4ebd 756c 793b efcc a3bd 8f1e 4ebe
000002e0: dfd7 653d 2def 973d 62df ddbd 8727 31be
000002f0: fcbb d43d 79d3 15be dc49 cf3d 304f 933e
00000300: 55e0 97be eab1 82be a4d5 c73e c463 92bc
00000310: 3d00 3c3e 3d03 a4bd 3bfd 51be 320b 273b
00000320: 9d27 d23c 1448 2a3e 38dd bfbd 5a77 383e
00000330: 37c5 83bd 99fd 7d3e 080e b03d ad34 8d3e
00000340: c703 433e ff79 e03c 9097 593e 15b2 ce3d
00000350: 4a0e 573e 196b 3f3c 6396 b53d 6987 d63c
00000360: 66ea 60be 1b98 6abb 4280 2dbe 1ed0 343d
00000370: 52a8 d5bd efd1 ac3d 4731 16bd ee9b 073d
00000380: dd78 b63d 498c 563e 0520 7cbb 2aed 413e
00000390: 9a3c 823e 0311 47be 7c24 de3d 4c68 ddbd
000003a0: df5d 0d3e 8d3d 12be 9048 ffbd b3c2 1ebd
000003b0: 6cb7 803e 2654 83bd 207b e03c 2e2d 913e
000003c0: 8da6 18bd 98f8 f93d f9d9 37bd e0ca 44be
000003d0: f29b 7fbd ce5f 8f3e 25e9 2e3c 52ca 5fbe
000003e0: 8b46 5bbd 965e b7be 0310 01bd 6a6b a23e
000003f0: 889c 553e 3ead e7be 6ee4 46bc 8d25 a83e
0.06752251 0.16379708 0.21467762 0.39913553 0.27650464 -0.478683 0.11245415 -0.25102368
-0.24877632 -0.36204138 -0.24368842 0.22687322 0.05976401 0.098894015 0.13535987 0.17389882
0.05776671 0.4046878 0.13170731 0.2487719 0.2771331 -0.11484568 -0.14014053 0.13246182
-0.29487413 0.0027194764 -0.19468056 0.1447149 0.27191952 -0.23730873 0.19083804 0.15390004
-0.1556626 0.19470792 0.31566086 0.100985266 0.13193819 -0.050636765 0.17753279 0.4207247
-0.025542732 0.22330749 -0.091757566 0.20599864 0.13269871 0.1431811 -0.21108133 0.08530569
0.20411982 0.16168892 0.2647473 -0.2467125 0.08228733 -0.07030626 0.23285967 0.018327678
-0.06083716 0.049919214 0.026344962 0.24404028 0.2661464 0.15511963 0.13584113 0.07842706
0.31526333 0.34921312 0.22529684 -0.0060608946 -0.018788178 0.13274409 0.2551343 -0.13459066
-0.08999729 -0.13130388 -0.19735797 0.061591055 0.2879497 -0.26876998 0.40155774 0.17032143
0.32511005 0.017946133 0.06741965 0.117609695 -0.05726174 0.2983381 -0.052377116 0.14804557
0.15610473 -0.18532601 -0.15276098 0.28359762 -0.0030932506 -0.12451732 0.37223732 -0.15027031
0.016489321 0.04372138 0.27415916 -0.12691729 -0.118126795 0.26687628 -0.0022725088 -0.30455798
0.23868869 -0.31682527 0.06891826 0.08281279 0.16748819 -0.36369812 0.0038096143 -0.0025899652
-0.26710021 0.22463924 0.32794967 0.15727867 -0.19638136 -0.15440291 0.13455532 0.1005635
-0.34837765 0.033195727 0.25209188 -0.047063433 -0.2471417 0.022225088 -0.041450035 0.35608763
-0.13242131 0.34319922 0.2012657 -0.23993997 0.0313429 -0.21314381 -0.15212873 -0.10271064
0.042675164 -0.10635542 0.062572956 0.10083812 0.028217355 -0.34364158 -0.022844722 0.40074685
0.18501866 0.090480804 -0.17572412 -0.049128234 0.18313833 -0.110770576 0.18413955 -0.13921708
-0.13372183 -0.36888874 -0.043012366 0.2758643 5.609933e-05 -0.40979144 0.23747729 -0.091215655
-0.32019153 0.019721499 0.26291066 -0.15440331 -0.013988891 -0.24052233 0.08219159 0.13644938
-0.16015117 0.016399518 -0.10274603 -0.1679436 -0.11170121 0.3962991 -0.019044964 0.034071892
0.2188363 0.22168797 0.067904785 0.09272633 -0.050498363 0.003805903 -0.07998072 -0.20128845
0.056114074 0.07418666 -0.108336225 -0.17300235 0.10387418 -0.14631452 0.101215094 0.28771353
-0.2966334 -0.25526363 0.39030182 -0.017869838 0.18359466 -0.0800843 -0.20506756 0.002548885
0.025653655 0.16629058 -0.09368366 0.18014279 -0.064341 0.24803771 0.08596426 0.2757925
0.1904441 0.027401922 0.21249223 0.1009256 0.21001545 0.011683249 0.088665746 0.026187615
-0.21964416 -0.0035796228 -0.16943458 0.04414379 -0.10432495 0.08438479 -0.03666809 0.03310769
0.089097716 0.20951952 -0.0038471234 0.18938127 0.2543686 -0.19440083 0.108468026 -0.10810909
0.1380534 -0.14281292 -0.12465012 -0.0387599 0.2513994 -0.064125344 0.02740246 0.28354782
-0.03726821 0.122056186 -0.04488561 -0.19218016 -0.06240458 0.2800278 0.010675703 -0.21854523
-0.053534072 -0.3581435 -0.03150941 0.31722575 0.20860493 -0.4524936 -0.012139423 0.3284115

lstm.weight_hh_l1 f4 [64, 16]
00000000: 1cfe 803d 0433 bdbe 8b65 293e ef0b e13d
00000010: 205a 083e e288 d4bd 6444 d4bc e545 b5be
00000020: 6d16 153d f287 37bd 913d f8bd 1a80 9a3e
00000030: 94f9 02bd e141 fcbc 6254 d0bd 61f2 f03d
00000040: 64bc 8d3e 774c 63be 8ce0 883e 0bc1 4f3e
00000050: bdd5 753d f6a8 6c3e 6716 103e 29e7 9bbe
00000060: ee9f 313d de3f 1bbd cbd5 9dbe b75c efbd
00000070: dfdc bb3d 9f2f 3abd f0ad 1f3e c546 8bbe
00000080: 3a49 66ba 18c5 b6be f475 893e 5583 293e
00000090: 472e c03e c092 8abe 6107 913d 5231 8abe
000000a0: a2d8 43be 67f9 103e 844c 623d 330f d53d
000000b0: 7981 7c3e 98aa 6c3c 0bc2 1f3e a83d 00be
000000c0: 50dc ba3d 5c5a ebbd 018b 8ebd 0305 733e
000000d0: df21 b9bd be77 cbbd abb7 c23e b555 ab3d
000000e0: f3b2 b6be 67f3 913e 9f55 a8bd 5f7a f93d
000000f0: 1f17 b8bc 3121 2e3e 23d8 5abd a1a0 b2be
00000100: 1219 a83e 506e 6cbe 1640 5dbe 615d 8e3c
00000110: 9080 f13d cedb 22be 260f 743d 6d93 393e
00000120: 7776 e9bd 19ed a6bc 3919 f83d ef5a 283e
00000130: 8e07 7a3d 56de 4c3e 696a abbd 24b7 ccbd
00000140: 83cb 28bd 651d 91be ec46 c43d 9762 4a3d
00000150: a0e6 34be b081 82be e6cd 98bd 65e4 a1bd
00000160: 7982 d43d 9f35 f6bd a73e d7bd bc79 8a3d
00000170: e418 85be 7f89 cebd 87ad 3dbd 33d3 81bc
00000180: b350 71bd 8fff 6cbe c1e4 3b3e ff75 df3b
00000190: 91a9 c73d f742 0fbd ec37 313e 537b ce3d
000001a0: 1585 f4bd 9691 9e3e 6e1f b13d f262 8a3e
000001b0: 7a23 013e b0be 1dbe fd4e 393e 65fb 62be
000001c0: efe6 85bd 2404 acbd 5697 5ebc aad4 8c3d
000001d0: 57d5 7b3e 7333 54be c544 833e c49f ac3d
000001e0: 0830 4e3e 55d2 383e 7140 82bd a885 373d
000001f0: fcee 513e 817c 9d3d 66df 973d 6f02 013d
00000200: b50f 10be 02c0 ef3d 00c2 353d 4ad2 e33d
00000210: 170d a33d 40d9 13be 0eee 0ebd 3967 1e3d
00000220: 8eb4 65bd 6bf8 a8bd faf1 933d 9d63 3e3e
00000230: fb3e 043d a78f d1bd b8aa 9d3d a58f 95be
00000240: 7143 6c3e 6852 803a b78f 20be 8d63 003e
00000250: 9b02 0e3e 90a2 13be b711 aabd e541 50be
00000260: 85a3 8dbe 9fea 30be 5b1a ff3a 7513 2d3e
00000270: 3f4d 72bb d232 5b3e aa9a 163e 2a68 073e
00000280: 6dd8 163d bd0f b63b f52c aabc f452 8b3e
00000290: 6afa 403e ab11 973d b01f 51bd 6d55 d93c
000002a0: b9a5 cabe 52cd f3bd e27e 5dbe c0ad f3bd
000002b0: d4da f5bd b90c 4b3e 67f8 99bd d33d 36bc
000002c0: 0c2d 3dbd 5728 573e ee7d 8dbe d6b5 f53d
000002d0: c149 973d b4d1 ed3d 1f91 46be b4bc c6bd
000002e0: 2786 1cbe d42a 123d e87b 7bbe 6268 6fbd
000002f0: e463 98bd 5956 14be e760 3fbe a03a 48be
00000300: 4174 413e cb7b 5abe 3389 993e df03 4cbd
00000310: b69f 433e 1a3f afbe 3e89 6b3e 8590 dbbd
00000320: 8ca2 d0bd 474c 123d f184 52be bc4e dcbb
00000330: af50 6cbd 6289 313e 4412 e73e 8254 73be
00000340: ea00 8d3e 4a32 293d 79af 4cbe ae13 3ebd
00000350: 1774 cbbc d63d 46be 3e70 263e c9ae 3cbd
00000360: 8b51 88be b604 23bd fa73 f63d b69d 2c3e
00000370: 6416 863d ef27 233d 548a e8bc b55e 29be
00000380: 51ec 423e 4ce5 d83d 919f 3f3e 1639 b73e
00000390: b0c1 793e f509 f8bd 517d 813e ea2e 9cbe
000003a0: cbd3 94be 6495 8b3c 3c7d d43c da1d 8cbd
000003b0: bf8a ee3d 4bad 013d d608 003d e908 acbe
000003c0: 9aa9 833e 5ca7 60be aa85 48be 2747 583d
000003d0: 6d3d 1a3e 7cf1 bf3c 5a87 893d 75be 9fbd
000003e0: c499 a53c 789d 823e fb04 683d e68e dcbd
000003f0: ba06 50bd c3b5 f7bc 64af 19bd 9f31 e03d
0.062984675 -0.36952984 0.16542642 0.10988604 0.1331563 -0.10377671 -0.025911517 -0.35404888
0.03639834 -0.044807382 -0.12121118 0.3017586 -0.031976297 -0.030793132 -0.10172345 0.1176498
0.27682793 -0.22197138 0.26733816 0.20288484 0.06001829 0.23111328 0.14071046 -0.304498
0.04336541 -0.037902705 -0.30827174 -0.11687606 0.09172987 -0.04545557 0.15593696 -0.2720243
-0.00087847153 -0.35697246 0.26847804 0.16554005 0.37535307 -0.27065086 0.070814855 -0.26990753
-0.19125608 0.1415764 0.055248752 0.1040329 0.24658765 0.01444497 0.15601365 -0.1252352
0.091240525 -0.11491844 -0.06960107 0.2373238 -0.090396635 -0.099349484 0.38030753 0.08365957
-0.35683402 0.28506014 -0.08219456 0.121815436 -0.022471962 0.17004849 -0.05342878 -0.34888175
0.32831627 -0.23088956 -0.21606478 0.01737851 0.117920995 -0.15904161 0.05958476 0.18122645
-0.113995485 -0.020376729 0.12114186 0.16440938 0.06104236 0.2000669 -0.083699055 -0.09995869
-0.04120971 -0.2834274 0.0958384 0.04941043 -0.17666101 -0.2548957 -0.07461147 -0.07904891
0.10376448 -0.12021946 -0.10509997 0.067615 -0.25995553 -0.10084819 -0.046308067 -0.015847778
-0.05891485 -0.23144363 0.18348981 0.006819486 0.09749139 -0.034975972 0.17306489 0.10082116
-0.11939446 0.30970448 0.08648573 0.27028614 0.1261119 -0.15404773 0.18096538 -0.22166212
-0.06538188 -0.08399227 -0.013585886 0.068765 0.24593101 -0.20722751 0.25638404 0.084289104
0.2013551 0.18048985 -0.063599475 0.0448052 0.20501322 0.07689763 0.07415657 0.03149646
-0.14068492 0.117065445 0.044374466 0.11124094 0.07961481 -0.14438343 -0.034894995 0.03867266
-0.056080393 -0.08250507 0.07223888 0.18592687 0.032286625 -0.10232478 0.07698578 -0.29211155
0.23072602 0.0009790184 -0.15679823 0.12537976 0.13868181 -0.14417481 -0.0830416 -0.20337637
-0.27663818 -0.17277001 0.0019462811 0.16901954 -0.0036972312 0.21406105 0.14707437 0.13223329
0.036827493 0.0055560754 -0.02077339 0.27211726 0.18845525 0.07376417 -0.05105561 0.026529992
-0.3957956 -0.11904396 -0.21630433 -0.118983746 -0.12004629 0.19829072 -0.07518082 -0.0111231385
-0.04618554 0.21011482 -0.2763514 0.11997573 0.07387114 0.11612263 -0.19391297 -0.09703961
-0.1528555 0.035685375 -0.24558985 -0.058449157 -0.074409276 -0.14486064 -0.18689309 -0.19553614
0.18892004 -0.21336286 0.29987487 -0.04980838 0.19103894 -0.3422783 0.23001572 -0.10720924
-0.10187253 0.035717275 -0.20558526 -0.006723253 -0.057694133 0.17337564 0.45131123 -0.23762706
0.2753976 0.041307725 -0.19988813 -0.046405487 -0.02483563 -0.19359526 0.16253754 -0.046065126
-0.26624712 -0.039799415 0.120338395 0.16857037 0.065472394 0.039833006 -0.028386272 -0.16540034
0.1903546 0.1059061 0.18713214 0.3578574 0.24390292 -0.12111274 0.2529092 -0.30504543
-0.29067835 0.017039008 0.025938623 -0.06841631 0.116475575 0.031659406 0.031258427 -0.33600548
0.25715333 -0.21938843 -0.19582239 0.05280223 0.15062495 0.023430578 0.067152694 -0.07799999
0.020214923 0.25510764 0.056645375 -0.10769443 -0.050787665 -0.030238038 -0.03752078 0.109469645

lstm.bias_ih_l1 f4 [64]
00000000: b35d 313e 8dd1 a73e 7edc bf3d 9c3b a73d
00000010: 463e 9a3c 389b 983e b60c edbd cf01 e9bc
00000020: 9d21 37bd b16e 8f3e eb55 033d 5f8b adbd
00000030: 3897 c53d 1970 103e e3a7 6a3d d9f8 8fbd
00000040: 6536 f73d afae 40be fcea d3bb dc31 8f3e
00000050: 9740 17bd 3196 283e cba9 33bd 3b66 863c
00000060: 6198 5e3d 2c6d a53d 14a5 f5bc 6713 0e3e
00000070: 7255 2cbe e94c 29be d16f 4e3e b28e 20be
00000080: 341d 213e a2bf 183e b992 69bd d40d e4bd
00000090: 723f 5b3e 0271 303e 6368 aa3d 558c d5bd
000000a0: d62b 593d b809 9e3d 3860 10be 11ae 313d
000000b0: 2fee e2bd 284b 3a3e eee1 f739 871c 463e
000000c0: 50ca c13e 697f 5d3e 16fd 6d3e 9935 d73d
000000d0: f38a ab3d 73d8 063e b0c1 013d ee09 ffbb
000000e0: 1bad 6dbd 8c2b 203e 9045 953e 33da 813d
000000f0: 89af a3bd 489b b43d 86f5 d6bd fcc2 7fbd
0.173209 0.32777062 0.093682274 0.081656665 0.018828522 0.29805923 -0.1157469 -0.028443245
-0.04470979 0.28014138 0.03206436 -0.084738486 0.09647983 0.14105262 0.057289016 -0.07029886
0.12070922 -0.18816637 -0.0064672213 0.27967727 -0.036926832 0.16463543 -0.0438631 0.01640617
0.05434454 0.080774635 -0.029985942 0.13874589 -0.1682947 -0.16533245 0.20159842 -0.15679434
0.15733796 0.14916852 -0.05702469 -0.1113545 0.21410921 0.17230609 0.083206914 -0.10427157
0.05302032 0.077166975 -0.14099205 0.043378893 -0.11080586 0.18192732 0.00047279842 0.1934682
0.37849665 0.21630634 0.23241076 0.1050827 0.08376112 0.13168506 0.031678855 -0.007783166
-0.058026414 0.15641612 0.29154634 0.06340446 -0.07992465 0.0881868 -0.10496049 -0.06244181

lstm.bias_hh_l1 f4 [64]
00000000: 0ec9 443e c31a 213d a301 c2bd 9e48 0abe
00000010: 45e4 043e a843 353d 9f30 19bd 20c4 efbd
00000020: 4d90 103e 50e9 f33c 0bf1 843e 4165 69be
00000030: 2a68 8c3e b203 843e 9c0d a1bd e061 7b3c
00000040: ab13 673e 6eef 8f3c 64ac 3fbe ca13 17bc
00000050: c3e3 8f3e e8ea 863d 5130 54be 373b 9c3d
00000060: e015 b5bd 9f1e 4e3c 8854 34be 264b 933c
00000070: c848 2dbe 8d0f 59bc ed2f 013e c0c2 e83d
00000080: ee5b 563e 380f e7bd 41f4 093e bbcf 853e
00000090: e1ba 3e3e 5572 82be dbf8 ce3d 97e9 f2bc
000000a0: 867b eebd 526c 593e d8ab e1bd 94c7 533e
000000b0: 8f51 693e b574 d63d 1315 cfbd bd97 32be
000000c0: f131 6f3e f26c c83d 8168 3f3e 0ed6 0abe
000000d0: 822c 513e 71cb 223e c899 973d ba0a 8dbd
000000e0: f72b a93e 4243 453e 2013 4cbe ca07 2c3e
000000f0: 11b6 5fbd 0273 fabc a474 d0bd ab03 99bc
0.19217321 0.039332163 -0.094729684 -0.13504264 0.12977703 0.044253975 -0.037399884 -0.1170733
0.14117546 0.029774338 0.2596515 -0.22792532 0.2742322 0.2578407 -0.07863924 0.015343159
0.22566096 0.017570224 -0.18718106 -0.009221027 0.28103456 0.065877736 -0.20721556 0.07628482
-0.08842063 0.012580543 -0.17610371 0.01798017 -0.16922295 -0.0132483365 0.12615938 0.113652706
0.20933506 -0.112821996 0.13472082 0.26135048 0.18625976 -0.25477853 0.10106059 -0.0296524
-0.11644654 0.21232727 -0.11019105 0.20681602 0.22785018 0.10471479 -0.101114415 -0.17440696
0.23358895 0.09786405 0.18692209 -0.13558218 0.20427135 0.15897919 0.07402378 -0.068868116
0.33041355 0.19263938 -0.1992917 0.16799846 -0.05461699 -0.030572418 -0.101784974 -0.018678507

lstm.weight_ih_l2 f4 [64, 16]
00000000: 9ca3 7cbe e91a 1d3e 5e03 813e 6b56 0a3e
00000010: ab98 ccbd 80aa acbc 710e 713e 5153 67be
00000020: 6bc6 7c3d 56d5 49be e77a 95bc 6052 27be
00000030: 7661 b33d bc40 053e 69da 97bd e2d9 0abe
00000040: 7619 15be af51 4bbd c490 e03c b996 a73e
00000050: 9678 843e 66bd 3d3c 388f da3d d2c9 28bc
00000060: 98dd ac3c 1e51 613c 2e97 29be b00d 823e
00000070: 35a8 b73c 378f 803e ce88 cbbd a420 89be
00000080: 47ef 273e 92b4 773d c961 a23e 6765 103d
00000090: e8f1 07bc 0216 b4be 5eca a83e 8fe8 6fbe
000000a0: 04c1 84be 5643 123e f8ae 413d a5f8 69bd
000000b0: 86c1 363e cc7e d63d a835 713e 4b68 9cbc
000000c0: c0d6 87be 924e de3c 0667 c93e eecf 9bbd
000000d0: df99 c33d 899d 033e 0223 c23d 76d2 9a3c
000000e0: 1dcb 553e fb55 2fbe aa49 4bbe fe3b 6f3e
000000f0: 5bb6 893d c8e4 7fbe 7a97 60bd 8f11 9b3d
00000100: 194a debb 02c0 95be de37 b93d 5ddf 9f3d
00000110: d33f 2d3e 8a69 bf3d 082e bcbc 67e6 b1be
00000120: c619 83be 40d1 c1bc 7a49 4ebe 3ea6 6c3e
00000130: 8593 343e b57d 113e 2cac 8a3d d71f 563d
00000140: aca9 82bc cbe9 48bd 00c0 f83e 100e 3b3e
00000150: ef2e 463e 72ee 4f3e 66af b2bc 5217 d4be
00000160: e8cb 343e 4e77 f3bd 7977 c7be 9edb 1bbe
00000170: 4038 083d b0a8 32bd 8910 29be 9f74 c8bd
00000180: 29bc 253e 6314 1dbd 9a4e c5be e46e 5e3e
00000190: 40ce 733e f7b7 a1be baad b13c 2bfa 8238
000001a0: 623c a7be a897 993e 40a1 0b3e a5a1 c53d
000001b0: 7a95 61be 6c60 e83c 045e 8b3e 68af 9fbe
000001c0: 2c0e 613d 9cc6 8f3d 3c48 043d 5cf6 363e
000001d0: 4689 303e 60a7 03be 76e6 79bc 620b 5a3e
000001e0: ebd7 98bd 5c1f 6b3e a945 563e 9ff7 09be
000001f0: b941 44be a5ba 7e3e a825 833d 912a 9a3b
00000200: 8786 02be 8d39 42be db11 38bd 5dc0 a73e
00000210: f23d 683e eb0b 033e 6dad 923d 97d3 49be
00000220: f46d f0bc 7651 1b3e 3ad9 883d c42b 983e
00000230: fef8 933e c6f2 8d3e 7d43 323e 072d 7ebc
00000240: 0cc4 d2bc 3205 73bd b38f c33d 02dd d93d
00000250: 0a7c d73d 051f 7bbe 0e7b 7fbd 317e e1bd
00000260: 196f 663d 510a 823d 29d9 7abe 17ea 5d3b
00000270: 7b78 273e 642f 20bc 5147 ef3d 9349 17be
00000280: 16ec c2bd fed2 2d3e 42a7 213e 7957 f6bd
00000290: c579 8b3d 31c8 83be 73ea 503e c31f 93be
000002a0: cc0e 39bd 4d44 03be 64c7 05be ce31 f1bd
000002b0: 05bc 2ebd df8a 8a3d cbb2 153e 4e41 e7bd
000002c0: 70bc 053e 4f94 103e 8e30 2abd ffea 463d
000002d0: 8548 39be 033f aebd f654 aa3d 1a42 2f3e
000002e0: 666b c73b 1203 cebd 559e 173e ded7 80bc
000002f0: aef0 92bd 5156 d2bd 3724 9d3e 19b6 7bbd
00000300: cbcc 30ba 8b75 b5be 71c6 ec3d ef42 973e
00000310: 992b f5bd 6db6 b5be 25d5 e5bc f600 44be
00000320: 5939 80be 9775 943c 2e06 933d 763c 4a3d
00000330: d380 b13d ccdb e0bb cc55 4fbd 9758 61be
00000340: 1b33 f7bd c690 39be 5739 6b3e 2452 923e
00000350: e772 8b3e 8c84 cfbc 9444 afbd ded3 49be
00000360: 9ffc b9bd 27f0 5c3e 1389 2dbd ffb7 38bd
00000370: b327 be3d 3afb 6b3e fcd5 213d 1403 1fbe
00000380: d908 713d 8db1 0abe 30c5 c23e ab34 853d
00000390: ef6d e43d 0636 173b 0ec1 1cbd c1ec 2bbe
000003a0: 37cc 263e 3412 ba3e 04a0 5d3d b6aa 403c
000003b0: 9548 5b3e 4b97 603e 68e3 f9bd c97a c03d
000003c0: e29f 04be 88b2 64be 45a3 5d3d a5e1 26be
000003d0: a33d 84bd 0326 babc 8198 76bc e410 77be
000003e0: 10ec 85be 690b a23e 7945 92bb 5dc1 bb3d
000003f0: 4df3 69bd fdda 003c 63c5 9a3d 9742 c0be
-0.24671787 0.15342297 0.2519788 0.13509528 -0.099900566 -0.021077394 0.23540665 -0.22590376
0.061712664 -0.19710287 -0.018247081 -0.16340017 0.087588236 0.13012975 -0.07414705 -0.13559678
-0.14560494 -0.049638446 0.02741278 0.3273218 0.2587325 0.011580801 0.10671848 -0.010302024
0.021101758 0.01375225 -0.16561577 0.25401068 0.022419075 0.25109264 -0.09938203 -0.26782715
0.16399871 0.06047494 0.3171523 0.035252955 -0.008297421 -0.3517304 0.32966894 -0.23428558
-0.2592851 0.14283499 0.047286004 -0.05712189 0.17847261 0.10473403 0.23555624 -0.0190927
-0.2653103 0.027137075 0.39336413 -0.07608019 0.09550833 0.12853064 0.094793335 0.018899184
0.20878263 -0.17122643 -0.1985232 0.23362729 0.06724235 -0.24989617 -0.05483196 0.075717084
-0.0067837355 -0.29248053 0.09043859 0.07806275 0.16918878 0.09346302 -0.022971168 -0.34746096
-0.256056 -0.023659348 -0.20145217 0.23110291 0.17634399 0.1420811 0.067711204 0.05227646
-0.015950046 -0.049051087 0.48583984 0.18267083 0.19353841 0.20305803 -0.021812152 -0.41424042
0.17655909 -0.1188799 -0.38958338 -0.15220496 0.03325677 -0.043617904 -0.16510214 -0.09787869
0.16185059 -0.03834952 -0.3853653 0.21721989 0.23809147 -0.31585667 0.021689285 6.2454805e-05
-0.32663256 0.29998517 0.1363573 0.09649972 -0.22029677 0.02836629 0.27220166 -0.31188512
0.054945156 0.070203036 0.03229545 0.17867416 0.17239866 -0.12856817 -0.0152527 0.21293405
-0.07463058 0.22961181 0.2092501 -0.13473366 -0.19165696 0.24875887 0.06403667 0.0047047813
-0.1274663 -0.18967266 -0.044938903 0.3276395 0.2267988 0.12797515 0.071619846 -0.19709621
-0.029349305 0.15167794 0.06682058 0.2972089 0.28900903 0.27724284 0.17408557 -0.015513665
-0.025728248 -0.059331127 0.09548893 0.10637857 0.105217054 -0.24523552 -0.062373213 -0.11010397
0.056258295 0.06349624 -0.24496903 0.0033861452 0.16354553 -0.009776924 0.116835244 -0.1477416
-0.09517686 0.16975018 0.1578646 -0.12028403 0.06810335 -0.2573867 0.20401935 -0.2873517
-0.045180127 -0.12819023 -0.13064343 -0.117770776 -0.04265978 0.06764769 0.14618985 -0.11291753
0.13060164 0.14119075 -0.04155021 0.048563953 -0.1809407 -0.08508112 0.08316986 0.1711506
0.006085801 -0.10059179 0.14806493 -0.015727933 -0.07174812 -0.1027037 0.30691692 -0.06145296
-0.0006744384 -0.3544124 0.11561287 0.29543254 -0.11971206 -0.35490742 -0.028055737 -0.19140992
-0.25043753 0.018122477 0.07178913 0.049374066 0.086671494 -0.0068621393 -0.05061893 -0.2200645
-0.120702945 -0.18121633 0.22971092 0.28578293 0.272361 -0.025331758 -0.08558002 -0.19709727
-0.09081387 0.21575986 -0.042367052 -0.045097347 0.09284916 0.23045054 0.039510712 -0.15528518
0.05884633 -0.13544293 0.38041067 0.06504186 0.11153781 0.0023072972 -0.03827005 -0.16789533
0.1628884 0.36342013 0.05410768 0.011759451 0.21414407 0.21932714 -0.122015774 0.093984194
-0.12951615 -0.2233373 0.054110784 -0.16297014 -0.06457069 -0.022723204 -0.015051008 -0.24127537
-0.26156664 0.3164933 -0.004463848 0.091677405 -0.057116795 0.007864711 0.0755718 -0.37550804

lstm.weight_hh_l2 f4 [64, 16]
00000000: 401e 54be 8839 213e 8b90 1cbd d4fe ba3d
00000010: 0d1f ea3c 10d6 01be 6f17 f43d 2f41 80be
00000020: cf79 0e3e 4c29 073a a670 65be ad6d 8dbd
00000030: 31ae 35be aaf3 893e 8426 88be df94 f0bd
00000040: bab4 ce3d c456 c2bd 942b a23d 065d d13e
00000050: 00f7 7b3e 1ee6 66be 920a 20bd 718f be3d
00000060: 4285 05be 589f f0bb f3be c63c 4c58 61be
00000070: 8670 053e a464 ad3e f3cc 843d 826b b03e
00000080: a519 9f3d 65b2 10be 7986 123e cb5f 73bd
00000090: fb25 ba3d 3e1f afbe c55c 50be 8f05 3cbe
000000a0: 6e8d 853b eb15 78bd dafe 89be 5583 d1be
000000b0: d062 9abe fbda 99bd 5d08 e7bd e553 1c3e
000000c0: ab7d dcbd 59ce 963d dc00 223d fc13 ab3d
000000d0: c553 ce3c 4a26 f6bd cd5b 5bbc 0ef9 76be
000000e0: 58f3 973d d5d9 0c3e 02e4 64be ee9d 6ebd
000000f0: dcea 8abe 4cde e93c 4398 ffbd 98b4 733d
00000100: 4e3e 513c bf79 c83d 435b d23b fc39 0f3d
00000110: eb1d 1b3d 2a3e aebe bb3f 37bd c5ff da3c
00000120: c840 8ebe 5aff 95be 06ee 4cbd c891 9fbe
00000130: dc6c e7bd 5139 9b3c bcd3 683e e5f3 fd3d
00000140: 8f0a aebd b6ab 85be 0cc9 d23d 4e22 213d
00000150: 42e9 273e db8a c0be 0101 13be be12 acbe
00000160: 64f6 52be 579b 483d ee77 433e 23bb 0a3e
00000170: ed96 b1bd 793b 8f3d 6cba 85bc 0668 8f3e
00000180: 5ebb b83e 8360 b93e 3a8d 293d 815d 003e
00000190: d92c 8dbe 8759 c43d 05e9 9abe 8288 e6bc
000001a0: ec23 87be c25f b33d 7e22 c5bc edcc 8bbe
000001b0: cca3 f8bb 2f25 ec3c e8de c93e e63d 063e
000001c0: fb36 05bd 0b70 85bd ceaa 7b3e 0a41 903e
000001d0: ed00 fe3d b5b4 68be 5494 993d 6cb4 803d
000001e0: 5352 4cbe e4ed 85be c04e 71be dd5f a53d
000001f0: 966e febc 251b 2dbe f089 493e 4613 41be
00000200: 8968 adbd 0175 6f3e 709a e83e 20d0 053d
00000210: 3668 3cbe ea8e 8abe 7114 133e dff8 71be
00000220: ef07 d23c 3084 0dbd eac2 3a3e c834 b5bd
00000230: 9530 4a3b c4bc 033e 5046 1f3e 1e49 35bd
00000240: 6094 ab3d ffb3 b13c cb36 d2bd aee5 443e
00000250: 3101 d03d 4493 98be 0b12 28be 24c7 b23d
00000260: 6334 0f3d 9617 1a3e fb9c 033c 0cf4 a83d
00000270: 2d3e e13d bbcf 053e 42dd 8a3d 02c6 073d
00000280: 98b6 263e bcaf 953d ade9 a63e 071e 2b3d
00000290: a02d 683c f0f5 a5bd e214 1bbe d009 f13c
000002a0: 988d 9bbe cd34 2dbe be12 9a3d a2cb ef3d
000002b0: bb4a 823d e4be e13d 9077 bbbd f633 adbd
000002c0: 0287 3a3e 5a79 c53e f249 c0bd 0ae6 d1bd
000002d0: 1181 c3be 0763 e73c c4f9 df3d f7b5 8cbd
000002e0: b98c 19be d049 29be 2672 a23d 7b08 5abe
000002f0: 679d 9fbe 9e58 b93d 427e 903d ff6f 92bc
00000300: b240 593b 31b1 2dbe da1d 5b3e 08fb 5b3d
00000310: a394 35bc bf2c 133e c16e b3be 34d2 01be
00000320: 74df fb3d 47ba 39be 90f9 fb3d 4a70 fa39
00000330: 6121 6abd 66c3 653e c1bf 043e 41a0 a3bd
00000340: a8dd 89be 04a9 b5bd ff6d 793e 5e63 db3d
00000350: 5993 58bd d41e 2dbe d955 51be 2c9c 17be
00000360: 3410 e63c 90dc 38be 40f7 383c 2d69 3c3c
00000370: 99df 81be e2dc 7f3e bef8 a03c d244 213c
00000380: fe3b 503d 6252 f73d e981 febd dee7 323e
00000390: ac4f 093d 7f5f 51be ae9d a93d 4afc 023e
000003a0: c6d9 9dbe 4642 e9bd 216a 67bd f430 b4be
000003b0: 3d72 a7bc 8de4 863e 4139 4c3c 46f8 a13e
000003c0: c1cf a5be 814b cebd 2733 ac3e efa0 ac3d
000003d0: c73e 913d aefa 5f3d 417b 933d fabf 56be
000003e0: 1b54 72bc 7606 213d f300 233e 9f33 d7bd
000003f0: a247 0fbe f709 7c3d 185b 7abd bad9 f3bd
-0.20714664 0.15744603 -0.038223784 0.09130636 0.02857926 -0.12679315 0.11918532 -0.2504973
0.13913654 0.0005155995 -0.22406253 -0.069056846 -0.1774223 0.26943713 -0.26591885 -0.11747145
0.100930646 -0.094892055 0.07918468 0.40891284 0.24605942 -0.2254872 -0.03907258 0.09304703
-0.13039115 -0.007343214 0.024260974 -0.22006339 0.13031206 0.33865845 0.064844035 0.34457022
0.07768563 -0.14130552 0.1430911 -0.059417527 0.090892754 -0.34203523 -0.20347889 -0.18361495
0.0040756976 -0.060567778 -0.2695225 -0.4092051 -0.30153513 -0.0751247 -0.11280892 0.15266378
-0.10766157 0.073635764 0.0395516 0.08353421 0.025186429 -0.12019022 -0.013388586 -0.24118444
0.07419461 0.13754971 -0.22352603 -0.058256082 -0.27132308 0.028548382 -0.124802135 0.0594984
0.012771202 0.09788846 0.0064195707 0.034967408 0.03787033 -0.34031802 -0.044738512 0.026733289
-0.277838 -0.2929638 -0.050031684 -0.3116591 -0.1130006 0.018948229 0.2273702 0.12400035
-0.08498108 -0.26107568 0.10292253 0.039339356 0.16397575 -0.37605938 -0.14355852 -0.3360805
-0.20601803 0.04897627 0.19088718 0.1354795 -0.08671365 0.069937654 -0.016324244 0.2800905
0.3608045 0.36206445 0.04139445 0.12535669 -0.2757328 0.095873885 -0.30255905 -0.028141264
-0.26394594 0.08758499 -0.024064299 -0.27304783 -0.0075878855 0.028826324 0.39427876 0.1310955
-0.032523137 -0.06515511 0.24576876 0.2817462 0.1240252 -0.22725184 0.074989945 0.06284413
-0.19953279 -0.2615806 -0.23565197 0.08074925 -0.03105859 -0.16904886 0.19681525 -0.18855008
-0.08467204 0.23384477 0.45430326 0.032669187 -0.18399128 -0.2706216 0.14363267 -0.23630093
0.025638549 -0.034549892 0.18238416 -0.08847958 0.003085171 0.12864977 0.15554166 -0.044259183
0.0837791 0.021692274 -0.10264357 0.19228241 0.10156477 -0.29799855 -0.16413133 0.08729389
0.03496207 0.1504806 0.0080330325 0.08249673 0.10998187 0.13067524 0.06780483 0.03314782
0.16280591 0.07308909 0.32600155 0.041776683 0.014171034 -0.081035495 -0.15144685 0.029423624
-0.30381465 -0.16914673 0.07523106 0.11708762 0.0636191 0.110227376 -0.09153664 -0.084571764
0.18215564 0.38569146 -0.09389104 -0.102489546 -0.38184407 0.028245462 0.10936311 -0.068706445
-0.14995088 -0.16532063 0.07931928 -0.21292298 -0.31174776 0.090501055 0.07055332 -0.01787567
0.0033150134 -0.16962124 0.21398106 0.0537062 -0.011082801 0.14372538 -0.35045436 -0.12677842
0.1229848 -0.18137465 0.1230346 0.00047767378 -0.05716074 0.2243782 0.12963773 -0.079895504
-0.26926923 -0.08870128 0.24358366 0.10712312 -0.052874897 -0.16906291 -0.20442905 -0.14805669
0.028083898 -0.18052888 0.011289418 0.011499685 -0.25365904 0.24986604 0.01964986 0.009843068
0.050838463 0.1207626 -0.12427122 0.17471263 0.033523247 -0.20446585 0.08282028 0.12791553
-0.3083021 -0.11389594 -0.056497697 -0.35193598 -0.020440215 0.26346245 0.012464822 0.3163473
-0.32385066 -0.10072995 0.33632776 0.08429133 0.07092052 0.054682426 0.07201243 -0.20971671
-0.01479056 0.039312802 0.15918331 -0.10507893 -0.1399217 0.06153294 -0.06112203 -0.119067624

lstm.bias_ih_l2 f4 [64]
00000000: 67ad 82bd 63e2 413e ef7b 2f3e 9b0b 2f3e
00000010: 9d83 b93e c334 623e 3360 2fbe 2947 a93d
00000020: 3ff5 bf3e 9e45 883e a788 a03e d3b4 77bd
00000030: 4973 92bc 8c08 d0bd b957 413d 7a14 633c
00000040: ff4e bebd ca5f 28bc 04e4 98bd 0c26 05be
00000050: 0833 7bbc a2ec d03c 20d1 bd3d d80c bcbd
00000060: d34d 233e db23 403e 2ac0 e6bd a539 683d
00000070: a814 403a d67e 0cbe 8916 5b3e f20c 4abe
00000080: aae2 c6bd c338 313e c9ea ad3d c110 453e
00000090: 2f1b 01be dedd bf3c d0eb 1cbe 0f71 cc3d
000000a0: ca18 0ebe 3546 7dbe 9743 f43d fb81 303d
000000b0: ce71 57be 5222 6a3e 99c2 20be 2adf 80bd
000000c0: 3880 123e 4c42 a6bd 846b b23e 45dd 2c3e
000000d0: 7a7a 7d3e 546e 5b3e ebaf a1bd d846 263e
000000e0: fb8a c33e d948 c63d 7a11 433e ce46 20bb
000000f0: 81c2 773e b428 a63e 0380 673d 40d3 e43b
-0.0638073 0.18934016 0.1713712 0.17094271 0.36233225 0.2209044 -0.17126541 0.08265526
0.37491795 0.26615614 0.31354257 -0.06047518 -0.017877238 -0.1015788 0.0472028 0.013859862
-0.09292411 -0.010276744 -0.074653655 -0.13002795 -0.015331991 0.02550346 0.09268403 -0.09182137
0.15947656 0.18763678 -0.11267121 0.0566956 0.0007327297 -0.13720259 0.21395315 -0.197315
-0.097112015 0.17306809 0.08492047 0.19244672 -0.12608026 0.023421224 -0.1532433 0.09982502
-0.13876644 -0.24733813 0.11926954 0.04309271 -0.21039507 0.22864655 -0.15699233 -0.06292565
0.14306724 -0.08118114 0.34847653 0.16881283 0.24753752 0.21428806 -0.07894882 0.16237962
0.3819197 0.09681863 0.19049636 -0.0024456265 0.24195291 0.3245293 0.056518566 0.006983191

lstm.bias_hh_l2 f4 [64]
00000000: 8bf9 db3d d720 383e 31f7 bb3c da99 c73c
00000010: 3d69 a43e c3a3 d2bc 3988 1cbe 2fbc d7bd
00000020: b19e 9b3e 3f2c 183e 785b 0e3e aa29 b4bd
00000030: 3af5 e2bd 14b9 a03e af50 6d3d 8f3d 08bc
00000040: 3ffa eabd 3aa5 07be c930 c43d 73e3 7e3d
00000050: aec5 7b3c 40f9 0dbe b46a 4cbc 162b 2abe
00000060: 4665 b83d 55c1 413e fe53 2a3d c883 8e3c
00000070: cb21 9fbd 839d 34bc 8767 46be 4fb2 b73c
00000080: d3af bcbd 9fe6 693d ffe6 1a3e 4d57 193e
00000090: 5880 ef3d 2806 31be ed04 d1bd 5457 81be
000000a0: 61ea c53c 770e dcbd 37e3 0f3d 1f3a 49be
000000b0: 2a1a 503e 8200 1d3e cf60 31be 0212 c93d
000000c0: 1d3c 153e 32c9 af3e c4c6 993e 4d46 083e
000000d0: 7684 77bd 53d9 9f3e 3498 a53e 4e76 473e
000000e0: 2a80 d23d 6a42 a73e 1feb 803c a779 8c3e
000000f0: 3218 843e 625f 1bbe d9af d93d 779a 8fbc
0.10740956 0.17981277 0.022945018 0.024365354 0.3211154 -0.025712853 -0.1528634 -0.1053394
0.3039451 0.14860629 0.1390208 -0.08797009 -0.110819295 0.31391203 0.057938274 -0.008315458
-0.11473512 -0.13246623 0.095796175 0.06222863 0.015366955 -0.13864613 -0.012476612 -0.16617998
0.090036914 0.18921407 0.041584007 0.017396823 -0.07770117 -0.011023882 -0.1937543 0.022423891
-0.09213223 0.057104703 0.1512718 0.14974709 0.116944015 -0.17287505 -0.10206018 -0.2526194
0.024159612 -0.107449464 0.0351288 -0.19651078 0.20322481 0.15332225 -0.17322086 0.09817888
0.14573713 0.34333187 0.3003446 0.13308068 -0.06042906 0.31220493 0.32342684 0.19478723
0.102783516 0.32667857 0.015737114 0.27436563 0.2579971 -0.15173104 0.106292434 -0.01752971

lstm.weight_ih_l3 f4 [64, 16]
00000000: a872 e13c 42bd 28be 2a1d 7a3e 728e b13e
00000010: 5b78 083e 78d2 d2bd c559 35be bdc2 97be
00000020: ac74 113d 6125 20be 4dd0 d8bd 2f87 e0bd
00000030: 0b85 2cbd 92cb 723e 1594 8fbd 4f4a ec3d
00000040: 0899 7dbe 487f 01be 11c4 883e f000 493e
00000050: 7a4a 913d 8289 c6bc 231c 113e 62bf 873d
00000060: 49ed 0abe 8b14 e63c 29ae 21bd 2284 6539
00000070: 40fb 003d 8dfc f8bd 12bd e9bd bbc2 0c3e
00000080: 180b 6e3e a550 7e3d f917 743d bd81 5fbd
00000090: c174 b9bb c651 d53d 791d 44be 9098 debd
000000a0: 5a7a fd3d ce58 58be 24cc 9cbe 3b94 7fbe
000000b0: 062b 8cbe 365a d73b 5a1d 7f3e af5e 66bd
000000c0: 37d5 a1be 7b18 58bc bc0b d33e a358 653e
000000d0: 112e 3abe aa90 36be 214e 5ebe 4c0b 68bd
000000e0: 24d5 803e 0cf2 75be 7ad1 c1bd 6b3e 493e
000000f0: 5d8a cfbd ddfe e03d 7680 f43d 79ef 34be
00000100: 154d 50bd 662e b83d 0a93 99bd df32 5b3e
00000110: 1c6b 4ebe 2ead 40bd 1522 f13d 5014 21be
00000120: 4983 2dbe eeb7 2b3c d08f e9bc 511c cbbd
00000130: e930 0e3e a22a fabd f00f 24be 1372 31be
00000140: 92e5 183e 8a0a 673e df13 7cbd 5ff4 d83c
00000150: cf5c fa3d e7c5 133e 380f ed3d 4f87 b6bb
00000160: baea 9dbe eab8 23be 8dde a2be 59c0 73be
00000170: 4695 ad3b 1794 0bbd e255 0e3d 74c0 9fbc
00000180: c092 9bbe 8ff5 3cbe 7738 293e c5ff 31ba
00000190: ed59 16be 318a c7be 30bc ac3d cd85 abbe
000001a0: 0f7d acbc 92d5 833d c57c 81be 30fb dbbc
000001b0: 26d9 b73d 6685 eebd 94bf 1ebe 5295 85bd
000001c0: ca61 96be d3f4 e93d b88f eebc 83b5 113e
000001d0: b9ba 60be 1b15 84be 3da9 02be d32f 893d
000001e0: c387 bdbd 378f a6bd f45f fb3d 537a 0bbe
000001f0: a286 1fbe bc36 723e 822b c63d 1615 75bd
00000200: e2f3 673e 5987 043d fdef a33e d4e0 2abe
00000210: 12ec 4dbe 07eb bd3d 173b 45be 95a1 98be
00000220: 27f1 0fbd 437f 853d 840e a8bd b946 8cbe
00000230: ab0c 51be 7438 debd bfce cc3d 967e fcbd
00000240: 7944 a4be 2811 8cbe ebb9 433e f2f1 b93e
00000250: 8e04 033e 09d7 92bd e0ff 063e b2d2 07be
00000260: ac6b 4d3d 719f 3ebe cece 62be b8e9 3e3e
00000270: 79a8 9ebc 8591 f13c 037d dcbd 78f3 6f3e
00000280: 7c4f 72be 9a02 08be b2c5 843e 032b 9bbd
00000290: 480f 81be 7c22 9abe daf4 6abc 7efc 0dbe
000002a0: dfa5 1b3d 73b6 9fbe cf2e a1bd 4e65 1e3e
000002b0: 7b6d 7fbe af2e d0bd b7b9 73be 7252 cc3b
000002c0: 2a31 6ebd ab90 a73d beef 633e f9f5 943c
000002d0: d6df 083e 5077 c3be 389d 4cbe 20f5 ce3d
000002e0: 59f7 56bc a2e5 26be c06b 37bd 9b1c 7dbe
000002f0: 215c a63d eeb8 9e3e 57bb 18bd 781a 8d3d
00000300: 7353 0b3e e3e0 f63d ebe8 2e3e c2e3 f2bd
00000310: 69c0 d33d e0a4 65be 6947 93be bacc 60be
00000320: c78f 183d f2f1 97bc f24f 9e3d c276 73bb
00000330: fbc6 19be c432 1b3d eca4 3ebe 3dbf 50be
00000340: 9307 493d 8aa3 c6be 96f7 693e 3bec 493c
00000350: e287 10be fbcf 65be 74c5 96be 5e44 5a3d
00000360: 01fc 8c3e fa47 253d 24d7 7ebd f3ee 07be
00000370: 57ba 073d 2668 b13c 40b6 043d ec4a 78bd
00000380: 08f7 9f3d 7f2b d53d 1b4e 8f3e 01a5 0f3e
00000390: 360d bdbd 9284 58be e811 273e 9efd f5bd
000003a0: 75a2 be3c 17c2 45bc f778 49be fc64 3ebe
000003b0: 33ef 1dbc cadf 033e 86e1 083d 35b0 043e
000003c0: da76 5c3d ea62 9c3c e5e2 b7bd b2b6 af3e
000003d0: 6eb1 973d 198a 7bbe f0ad bbbd a872 24bc
000003e0: 6163 b63d 28de 18be a12c 803c b815 05bd
000003f0: 0a94 44be bcf2 d9bd f52c a8bd 1609 3c3e
0.027520493 -0.16478446 0.24425188 0.3467899 0.13327162 -0.1029405 -0.17710026 -0.2964076
0.035511658 -0.15639259 -0.10586605 -0.10963284 -0.042119067 0.23710468 -0.07010666 0.11537611
-0.24765408 -0.1264621 0.26712087 0.19629264 0.070942834 -0.02423549 0.1417089 0.066283
-0.1356708 0.028085968 -0.039472733 0.00021888365 0.03148961 -0.12157545 -0.114130154 0.13746159
0.2324642 0.062088627 0.059593175 -0.054567087 -0.00565967 0.10415988 -0.19151868 -0.10868943
0.12376852 -0.21127626 -0.30624497 -0.24958889 -0.27376574 0.0065720333 0.2491354 -0.05624264
-0.31607983 -0.01318943 0.4121989 0.22397093 -0.18181635 -0.17828622 -0.21709491 -0.0566514
0.25162613 -0.24018115 -0.094637826 0.19652717 -0.101338126 0.10986111 0.119385645 -0.17669477
-0.05085476 0.08993225 -0.074987486 0.21406125 -0.20158046 -0.047040157 0.11774079 -0.15730405
-0.16944613 0.010480864 -0.028510958 -0.0991751 0.13885845 -0.12215163 -0.16021705 -0.17328672
0.14931324 0.22562614 -0.061542388 0.026483713 0.12224733 0.14430963 0.11575168 -0.0055703293
-0.30843145 -0.15988508 -0.31810418 -0.23803844 0.005297336 -0.034076776 0.034749873 -0.019500948
-0.303854 -0.18453048 0.16525446 -0.0006790127 -0.14682741 -0.3897262 0.084343314 -0.3350052
-0.021055726 0.0643722 -0.25290504 -0.026853174 0.08976965 -0.116465375 -0.15502769 -0.06522621
-0.29371482 0.1142365 -0.029121265 0.14229397 -0.21946229 -0.25797352 -0.12759872 0.06698575
-0.0925441 -0.08132785 0.12274161 -0.13620882 -0.15578702 0.23653692 0.09676267 -0.059834562
0.22651628 0.03235564 0.32019034 -0.16687328 -0.20109585 0.092733435 -0.19260822 -0.29810777
-0.03514209 0.06518414 -0.08205894 -0.27397707 -0.20414989 -0.10850611 0.10000371 -0.12328832
-0.3208349 -0.2735684 0.19113891 0.36317402 0.12794706 -0.07169921 0.13183546 -0.13263968
0.050151512 -0.1861551 -0.22149202 0.18643844 -0.019367443 0.029488334 -0.107660316 0.2343272
-0.23663133 -0.13282242 0.2593208 -0.07576563 -0.2520697 -0.30104434 -0.014340604 -0.1386585
0.037999984 -0.31193885 -0.07870256 0.15468332 -0.24944107 -0.10165154 -0.23801313 0.006235414
-0.058152355 0.0818189 0.22259423 0.018183695 0.13366637 -0.38176966 -0.19981849 0.10105348
-0.013120496 -0.16298535 -0.044780493 -0.24717943 0.08123041 0.31000465 -0.037288036 0.06889814
0.13606052 0.120546125 0.17081039 -0.118598476 0.10339434 -0.22426176 -0.2876542 -0.21953097
0.03724649 -0.018547986 0.07730092 -0.0037149643 -0.15017311 0.03789021 -0.186176 -0.20385452
0.04907949 -0.38796645 0.22848353 0.012324388 -0.14114335 -0.2244262 -0.2944752 0.053287856
0.27536014 0.040351845 -0.062216893 -0.13274746 0.033136692 0.021656107 0.03240037 -0.060618326
0.07810789 0.10408687 0.27989277 0.14027788 -0.092310354 -0.21144322 0.16315424 -0.12011264
0.023270825 -0.0120702 -0.1967505 -0.1859321 -0.009639549 0.12878338 0.0334182 0.12957843
0.053824283 0.019090135 -0.089788236 0.34319073 0.07406889 -0.24564399 -0.09164035 -0.010037102
0.08905674 -0.14928496 0.01564628 -0.032491416 -0.19197097 -0.10642001 -0.082117 0.18362841
