checkpoints/model_weights_epoch_15.pt (torch, 36335 bytes, 18 tensors)

lstm.weight_ih_l0 f4 [64, 1]
0	0x3e924c75	0.28573957
1	0xbe60a141	-0.21936513
2	0xbdf90290	-0.12158692
3	0xbd993d3e	-0.07482384
4	0xbdad9637	-0.08475917
5	0xbeb989e8	-0.36238027
6	0xbe01080a	-0.12600723
7	0x3e0e7f82	0.13915828
8	0xbe42f259	-0.19037761
9	0x3e8afa6e	0.27144188
10	0xbe65e30e	-0.22449896
11	0x3d1f8b48	0.03895119
12	0xbd0be2d8	-0.034151882
13	0xbe8a6c48	-0.27035737
14	0xbe3cd295	-0.18439706
15	0x3c377c11	0.011199013
16	0x3d7b6b4d	0.061381627
17	0xbdf49e1c	-0.119442195
18	0xbdd225ae	-0.10261093
19	0xbe8ab785	-0.2709314
20	0x3e5a6a24	0.21329552
21	0xbea29c09	-0.3175967
22	0xbe1e36e8	-0.15450633
23	0xbe0708d0	-0.13186955
24	0xbec0de01	-0.37669376
25	0x3d9502b0	0.07275903
26	0x3e7466b4	0.23867303
27	0xbe1425b9	-0.14467515
28	0x3e6242a2	0.22095731
29	0xbdb8f227	-0.09030562
30	0x3daa7891	0.083237775
31	0xbeaeb117	-0.34119484
32	0x3e9fa3f7	0.31179783
33	0x3e18151a	0.148518
34	0x3d3758f9	0.044762585
35	0xbe3a3bfa	-0.18186942
36	0x3df5f8b9	0.12010331
37	0x3e422f67	0.18963395
38	0x3e49c147	0.19702636
39	0xbea438de	-0.32074636
40	0x3e2b1a61	0.16709282
41	0xbe00359c	-0.1252045
42	0xbea22de8	-0.3167565
43	0xbaf96380	-0.0019026846
44	0x3e507b51	0.20359541
45	0xbe7320ed	-0.23743029
46	0x3e8e8fda	0.27844125
47	0xbcc135f3	-0.023585295
48	0x3e8db7c5	0.27679268
49	0x3e5da0ce	0.21643373
50	0xbe30790a	-0.17233673
51	0x3debbe74	0.115109354
52	0x3ea384d3	0.31937274
53	0xbd79a079	-0.060944054
54	0x3eb2683f	0.34845158
55	0x3e2886a4	0.16457611
56	0xbe541182	-0.20709804
57	0x3ea023c3	0.31277284
58	0x3e31192d	0.1729476
59	0xbdebd7f3	-0.115157984
60	0xbd6295ed	-0.05531876
61	0x3d79bb50	0.06096965
62	0x3a45b1b6	0.00075414346
63	0x3db69515	0.08915154

lstm.weight_hh_l0 f4 [64, 16]
0	0xbe0362ad	-0.1283061
1	0x3e9ef2dc	0.31044662
2	0x3d07f3dd	0.03319155
3	0x3e466ef5	0.19378264
4	0x3dc698b9	0.09697098
5	0xbe2d5a47	-0.1692897
6	0x3e299807	0.165619
7	0xbe3baaf2	-0.18326929
8	0xbd892f95	-0.06698529
9	0x3d15fc2d	0.036617447
10	0xbccfbe3a	-0.025359262
11	0x3e9c91b0	0.305799
12	0xbda6cfcb	-0.08145102
13	0xbd463b2b	-0.04839627
14	0xbde86f5b	-0.11349364
15	0x3e5dd34e	0.21662638
16	0xbe79a1fa	-0.24378195
17	0xbda3930b	-0.079870306
18	0xbde17ccb	-0.110101305
19	0x3e56433d	0.20924087
20	0xbe4f31cd	-0.20233841
21	0x3d946067	0.0724495
22	0xbe878933	-0.26471862
23	0x3e1a3b8f	0.15061782
24	0xbda9b44d	-0.08286343
25	0xbe46315f	-0.19354771
26	0xbd669fed	-0.05630486
27	0xbc94ca89	-0.018162983
28	0xbe25fc22	-0.16209462
29	0x3e014896	0.12625346
30	0xbcb01425	-0.02149398
31	0x3e93b623	0.28849897
32	0x3eb63b7f	0.35592267
33	0xbe254a9d	-0.16141744
34	0xbe469454	-0.1939252
35	0xbe652833	-0.22378616
36	0x3dce6911	0.100786336
37	0x3e9ce3d9	0.30642584
38	0xbdcfbe0f	-0.10143673
39	0x3bc7f905	0.0061026835
40	0xbd7b07e4	-0.061286822
41	0xbcc4beff	-0.024016855
42	0xbe193a41	-0.14963628
43	0xbe5f9109	-0.2183267
44	0x3c63c500	0.013901949
45	0xbd3e9f6e	-0.046538763
46	0x3de82be9	0.113365
47	0xbea49982	-0.32148367
48	0x3e84e542	0.2595616
49	0x3e2f8cf7	0.17143618
50	0x3e699294	0.22809821
51	0x3d814d5b	0.063135825
52	0x3e7acc59	0.24492015
53	0xbe82bc84	-0.2553445
54	0x3eafb604	0.34318554
55	0x3dd46d54	0.10372415
56	0x3dbd5a20	0.092457056
57	0x3d573116	0.052537046
58	0xbcac659f	-0.02104455
59	0x3e71ee42	0.23626044
60	0x3e87ce2a	0.26524478
61	0x3d962d68	0.07332879
62	0xbe77fb28	-0.24216902
63	0x3e73d59b	0.23811953
64	0x3d82971d	0.06376479
65	0xbde86dab	-0.113490425
66	0x3e013246	0.12616834
67	0xb97decc0	-0.00024216156
68	0xbdb6a847	-0.08918815
69	0xbe2c5875	-0.16830619
70	0x3dff00f3	0.12451353
71	0x3e2ba699	0.1676277
72	0xbe599d3f	-0.21251391
73	0xbe72c7c3	-0.23709016
74	0xbbb1d670	-0.0054271743
75	0x3e74f355	0.23920949
76	0x3de50ce2	0.11184098
77	0xbd66db40	-0.056361437
78	0xbd8f812b	-0.07007059
79	0x3dd4e0a4	0.10394409
80	0x3dcb32f2	0.099218264
81	0x3db7cf04	0.08975032
82	0x3df396ce	0.11893998
83	0xbdbdc2d3	-0.092656754
84	0x3e57afa0	0.2106309
85	0x3c8eeb44	0.017446168
86	0x3cb10c05	0.021612177
87	0xbe0e8585	-0.13918121
88	0x3d9149e6	0.07094173
89	0xbe6f624f	-0.23377346
90	0x3bc56dee	0.0060250675
91	0x3dd5e313	0.104437016
92	0x3e508afc	0.20365518
93	0x3e101ebb	0.14074223
94	0x3e080c6b	0.13285987
95	0x3e06b852	0.1315625
96	0xbdbb33af	-0.09140717
97	0x3e5961e0	0.21228743
98	0x3df2f38b	0.118628584
99	0x3e804878	0.2505529
100	0x3e854ea8	0.26036572
101	0xbd8030b3	-0.06259289
102	0x3d10f0c4	0.035385862
103	0xbdaff251	-0.0859114
104	0xbcd55e1b	-0.02604585
105	0xbe86ace5	-0.26303783
106	0x3dde4513	0.108530186
107	0xbd71154b	-0.058858197
108	0x3e4fe2e3	0.20301394
109	0x3e5d5866	0.21615753
110	0x3d1af55f	0.03783166
111	0xbe00e9eb	-0.12589233
112	0x3e165a2e	0.14682838
113	0xbc150ada	-0.0090968255
114	0x3d51c6d0	0.051214993
115	0x3d05d640	0.032675028
116	0x3dbb0102	0.091310516
117	0x3dfdbef6	0.123899385
118	0x3df6dc34	0.12053719
119	0x3dff1447	0.124550395
120	0x3d767c2b	0.06017701
121	0xbe2682cc	-0.16260833
122	0xbdd2ee49	-0.102993555
123	0x3e34d587	0.17659579
124	0x3e9bb7b5	0.30413595
125	0xbe380337	-0.17969976
126	0xbe36cb74	-0.17851049
127	0xbdf18de5	-0.11794642
128	0xbd8cb3ab	-0.068702064
129	0x3dfe3a4f	0.12413465
130	0x3e64000a	0.2226564
131	0xbde9b140	-0.11410761
132	0x3e90a06f	0.282474
133	0xbe8d2fff	-0.2757568
134	0x3e907a85	0.28218475
135	0x3e2edc89	0.17076315
136	0xbd78f888	-0.060783893
137	0x3ddb5fb7	0.107116155
138	0x3db6f241	0.08932925
139	0x3e0f6f98	0.14007413
140	0xbe7e569c	-0.24837726
141	0xbcf0d71e	-0.02939945
142	0xbe8ae838	-0.27130294
143	0xbe1abafb	-0.1511039
144	0xbe25d2e7	-0.16193734
145	0x3e6e0dec	0.23247498
146	0xbe685c9e	-0.2269158
147	0x3d99f5b0	0.07517564
148	0xbe283450	-0.16426206
149	0xbdd60c25	-0.10451535
150	0xbe14a848	-0.14517319
151	0x3e212c9a	0.1573967
152	0xbd966839	-0.07344098
153	0xbd916125	-0.07098607
154	0xbde50cc9	-0.11184079
155	0x3e0c5216	0.13703188
156	0x3dbee1c4	0.09320405
157	0x3e4e261b	0.20131724
158	0xbe49de76	-0.19713768
159	0xbe3308e4	-0.1748386
160	0x3e961903	0.29315957
161	0x3c229be4	0.0099248625
162	0x3d5a7f5b	0.053344112
163	0x3e80ad49	0.25132206
164	0x3e70126f	0.23444532
165	0xbe2fce43	-0.17168526
166	0x3e968586	0.29398745
167	0xbd58372f	-0.052787002
168	0xbda0f47f	-0.07859134
169	0xbe28a9aa	-0.16470972
170	0x3e5c2b1d	0.21500821
171	0x3e81d9b1	0.25361398
172	0x3e642e20	0.2228322
173	0x39502392	0.00019849677
174	0xbd8c049f	-0.06836819
175	0x3d9de7d2	0.07710232
176	0x3dab540c	0.0836564
177	0x3d4deae9	0.050272856
178	0x3e73f0f4	0.23822385
179	0x3e82fbe5	0.25582805
180	0x3d029588	0.031880885
181	0xbddd5d04	-0.10808757
182	0x3e899781	0.268734
183	0x3c80aacd	0.015706444
184	0xbd484d7e	-0.048902027
185	0xbe123d0f	-0.14281105
186	0xbe8f2054	-0.27954352
187	0x3e48a731	0.19595028
188	0x3dbc1d71	0.09185303
189	0x3e2556c6	0.16146383
190	0x3d8d9b10	0.069143414
191	0xbe4971c8	-0.1967231
192	0xbd056cc7	-0.03257444
193	0x3df0f656	0.11765735
194	0x3d9860a2	0.07440306
195	0xbba8cd20	-0.005151406
196	0xbd5bf932	-0.053704448
197	0xbd1f30b9	-0.038864825
198	0xbe1cab00	-0.15299606
199	0x3d962198	0.07330626
200	0xbcbda9a9	-0.02315219
201	0xbbdb32c2	-0.0066894004
202	0x3e003a23	0.12522177
203	0x3e8053d0	0.25063944
204	0xbd05372f	-0.03252333
205	0x3e3d252c	0.18471211
206	0xbe94d28d	-0.29066887
207	0xbce00d46	-0.02735008
208	0xbd83b03a	-0.06430097
209	0x3e09cc58	0.13456857
210	0xbe29876b	-0.16555564
211	0x3e31d359	0.17365779
212	0x3e921ecd	0.28539124
213	0x3d35a63c	0.044347987
214	0x3cd09b86	0.025464784
215	0xbe8357a5	-0.25652805
216	0x3e1c9067	0.1528946
217	0x3bf97837	0.0076132077
218	0xbe270ac7	-0.16312705
219	0x3db5ae6b	0.08871158
220	0xbe24a072	-0.1607683
221	0xbe40786f	-0.18795942
222	0x3cfa42cc	0.03054943
223	0x3a53a805	0.0008074048
224	0x3c4689ec	0.012117844
225	0x3e83aaec	0.2571634
226	0xbd9eb337	-0.07749026
227	0x3e5d76b6	0.21627316
228	0xbd4f52c2	-0.050616033
229	0x3c3528ef	0.011057123
230	0xbd36d38d	-0.044635344
231	0x3e38e98f	0.18057846
232	0xbe68ddc9	-0.22740854
233	0xbeb18c7a	-0.34677488
234	0xbe4dc9bc	-0.20096487
235	0x3e59285a	0.21206799
236	0x3e9b12a4	0.3028766
237	0x3dbcb6b5	0.09214536
238	0x3de0b3aa	0.10971768
239	0x3e8432ad	0.25819913
240	0x3ca47082	0.02007318
241	0xbdeb3e2f	-0.1148647
242	0xbd6a892d	-0.057259727
243	0xbbe31a0f	-0.0069305967
244	0xbcbbdce9	-0.022932487
245	0x3cb5ccf5	0.022192458
246	0xbc06145b	-0.008183564
247	0x3dc362cc	0.095403284
248	0xbe2ceafa	-0.16886511
249	0x3baf0f90	0.0053424314
250	0x3d931f7b	0.07183739
251	0x3d8cd2d6	0.06876151
252	0x3dcf766d	0.1013001
253	0x3dc102a6	0.09424333
254	0xbe18c784	-0.14919859
255	0xbe807751	-0.2509103

lstm.bias_ih_l0 f4 [64]
0	0x3dff4695	0.12464634
1	0x3e07f911	0.13278605
2	0xbe00d8c0	-0.12582684
3	0xbd576ece	-0.052595906
4	0x3e336e01	0.17522432
5	0xbdeb04da	-0.11475535
6	0xbbab0d1c	-0.0052200686
7	0x3d16bfa6	0.036803864
8	0x3ccda357	0.0251023
9	0xbde13575	-0.10996524
10	0xbd03393d	-0.03203701
11	0x3dba9d0a	0.09111984
12	0xbcbb6ca1	-0.022878947
13	0x3d8175aa	0.06321271
14	0xbdbdc4ff	-0.0926609
15	0x3d74b5cf	0.0597437
16	0x3c86a487	0.016435875
17	0x3dcc9116	0.099886104
18	0x3e44b3a6	0.19209155
19	0x3e5b924e	0.2144253
20	0x3e57b39c	0.2106461
21	0x3d54cba9	0.051952038
22	0x3e76ec23	0.24113517
23	0xbe35bbb9	-0.17747392
24	0xbd595af9	-0.053065274
25	0xbe782910	-0.24234414
26	0xbd43bfb9	-0.047790263
27	0x3e75b0f1	0.23993279
28	0x3e19452f	0.14967798
29	0xbe44a1de	-0.19202372
30	0x3d17dcf6	0.03707596
31	0x3deda461	0.116036184
32	0x3e85186e	0.259952
33	0x3dedbd8b	0.11608418
34	0x3df28ec5	0.118436374
35	0xbd9d0133	-0.07666244
36	0x3e52335a	0.20527402
37	0xbe1a107f	-0.15045355
38	0x3d9ac192	0.07556452
39	0xbd8c726b	-0.06857761
40	0xbe573c97	-0.21019207
41	0xbe8032e0	-0.25038815
42	0xbe11950b	-0.14217012
43	0x3dd9f704	0.106428176
44	0x3d8cf03e	0.0688176
45	0x3e1d1ca7	0.15342961
46	0xbbc40dc3	-0.005983086
47	0x3e504266	0.20337829
48	0x3d8d5711	0.06901372
49	0xbc683c2e	-0.014174504
50	0x3e6f677f	0.23379324
51	0x3c6f4dcf	0.014605953
52	0xbde7c1c5	-0.113162555
53	0xbdf439e6	-0.11925106
54	0x3e07f7e6	0.1327816
55	0xbe279afb	-0.16367714
56	0x3e636b53	0.2220891
57	0x3dfe99c3	0.124316715
58	0xbe0790ea	-0.13238874
59	0x3e014dbe	0.12627313
60	0xbda51e6a	-0.08062442
61	0xbe3d674e	-0.18496439
62	0x3e2e3047	0.17010604
63	0x3d59f376	0.053210698

lstm.bias_hh_l0 f4 [64]
0	0xbd872861	-0.065994985
1	0xbe1c662f	-0.15273355
2	0x3db1454f	0.08655798
3	0xbdad0f03	-0.08450129
4	0x3d8941b0	0.06701982
5	0x3d7be211	0.06149489
6	0x3c2709ec	0.010195237
7	0x3e4e29ef	0.20133184
8	0x3e86333e	0.2621097
9	0x3e7c5b84	0.24644285
10	0xbd1e4aed	-0.038645674
11	0x3e67674c	0.22597998
12	0x3e6d132f	0.23151849
13	0x3daaf254	0.08347002
14	0x3e88b15b	0.2669781
15	0xbd8156cb	-0.063153826
16	0x3e239a4c	0.15976828
17	0xbdc08c76	-0.09401791
18	0xbe3649e0	-0.17801619
19	0x3e7b218a	0.24524513
20	0x3d60ff7d	0.054931153
21	0xbe4ae4a1	-0.19813778
22	0x3e4bfdb5	0.19921
23	0xbd982f86	-0.074309394
24	0xbc69895b	-0.0142539395
25	0xbd84184d	-0.064499475
26	0x3e5a5969	0.2132317
27	0xbcb3a399	-0.021928595
28	0xbe52c083	-0.2058125
29	0x3ce4ce98	0.027930543
30	0x3e0a0aab	0.13480632
31	0x3e3cfd64	0.18456036
32	0xbe22c3d3	-0.15895014
33	0x3d2807e6	0.041023158
34	0x3e5de1f6	0.21668229
35	0xbb91b91d	-0.004447116
36	0x3da5d6ea	0.08097632
37	0x3d442d84	0.04789497
38	0x3e65c10c	0.22436923
39	0x3e43b75a	0.19112912
40	0x3da6376a	0.08116038
41	0x3d9be9cc	0.076129526
42	0x3e4b7c9b	0.19871752
43	0x3e48c3fb	0.1960601
44	0x3ca80f9f	0.020515261
45	0x3db6ab91	0.089194424
46	0xbe29fc79	-0.16600217
47	0xbe2f7b2e	-0.17136833
48	0x3ebb61de	0.36598104
49	0xbd716b14	-0.05894001
50	0x3d907a60	0.07054591
51	0x3e89096b	0.26764998
52	0x3e4a42de	0.1975207
53	0x3d830740	0.06397867
54	0xbe488c22	-0.19584706
55	0x3c001a20	0.007818729
56	0xbd9a1984	-0.07524398
57	0x3dc3c137	0.09558337
58	0x3e49dea2	0.19713834
59	0x3dd64aa9	0.10463459
60	0x3e9a1227	0.30091974
61	0xbddb37e5	-0.107040204
62	0x3cce2ab7	0.025166852
63	0x3e12142f	0.14265512

lstm.weight_ih_l1 f4 [64, 16]
0	0x3d6b4213	0.05743606
1	0xbc041b6d	-0.008063179
2	0x3e0ccf29	0.137509
3	0x3e6c3c56	0.23069891
4	0x3e7d4e21	0.24736835
5	0xbe83498f	-0.25642058
6	0x3d33ca7c	0.043894276
7	0xbe993267	-0.29921266
8	0xbd95827b	-0.07300278
9	0xbeae6277	-0.34059498
10	0xbe734b7a	-0.23759261
11	0x3dd4e26a	0.103947476
12	0xbce37090	-0.027763635
13	0x3d813099	0.063080974
14	0x3e759b83	0.23985104
15	0xbd249aa9	-0.040186558
16	0x3d84b6d2	0.06480183
17	0x3eaaa9ff	0.33332822
18	0x3dcddd7a	0.10052009
19	0x3e134d93	0.14385061
20	0x3e8e80d1	0.27832654
21	0xbd382e73	-0.044966172
22	0xbe1ded77	-0.15422617
23	0x3d9fbd26	0.07799749
24	0xbe64149a	-0.22273484
25	0xbcae8c1d	-0.021307046
26	0xbe34588d	-0.17611904
27	0x3dd802cc	0.105474085
28	0x3e7dc877	0.24783503
29	0xbe4984e3	-0.19679599
30	0x3e4fe96d	0.20303889
31	0x3d8930a8	0.066987336
32	0xbd8a337d	-0.06748102
33	0x3e3a8fc3	0.18218903
34	0x3e8f9017	0.2803962
35	0x3d1506cb	0.03638343
36	0x3e0c45a1	0.13698436
37	0x3d25814b	0.040406507
38	0x3e48cfbd	0.19610496
39	0x3ea9181a	0.330262
40	0x3d5fdf3e	0.05465626
41	0x3e4f04a4	0.20216614
42	0xbe15fdeb	-0.14647643
43	0x3e2db5ae	0.16963837
44	0x3e1936e6	0.14962348
45	0x3c92e439	0.01793109
46	0xbdeece7f	-0.1166048
47	0x3d202f77	0.039107766
48	0x3e284825	0.16433771
49	0x3e4def5b	0.20110838
50	0x3e668fb7	0.2251576
51	0xbe2160af	-0.15759538
52	0x3d31d0ca	0.043412007
53	0xbdea36ec	-0.11436257
54	0x3e509191	0.20368029
55	0x3db8228e	0.08990966
56	0xbdcb1afa	-0.09917255
57	0x3dc42224	0.09576824
58	0x3dc31120	0.09524751
59	0x3e6d8305	0.23194511
60	0x3e82f01a	0.25573808
61	0x3e34eada	0.17667714
62	0x3d8a5866	0.06755142
63	0x3df4ff3c	0.119627446
64	0x3e6f0ced	0.23344775
65	0x3e963958	0.29340625
66	0x3e22a0f7	0.15881716
67	0x3d5ca04b	0.053863805
68	0xbda61d98	-0.08111113
69	0x3d93369d	0.07188151
70	0x3e349a99	0.176371
71	0xbd8a3da4	-0.06750038
72	0xbe0541e6	-0.1301342
73	0xbd5828c2	-0.052773245
74	0xbe0a0e8b	-0.1348211
75	0x39ee893d	0.00045497148
76	0x3e555d0c	0.20836276
77	0xbe4c7f77	-0.19970499
78	0x3eaa4885	0.33258453
79	0x3e1c35cc	0.15254897
80	0x3e9bec68	0.304538
81	0xbb088a10	-0.0020834245
82	0x3d4270e9	0.04747096
83	0x3df03d69	0.11730463
84	0xbd9b016a	-0.07568629
85	0x3e6caf0f	0.23113655
86	0xbd83dd86	-0.064387366
87	0x3e2216d4	0.1582902
88	0x3e102970	0.14078307
89	0xbe37ec1b	-0.17961161
90	0xbdebfb2d	-0.11522517
91	0x3e8a3402	0.26992804
92	0xbc86d172	-0.016457293
93	0xbd1f3926	-0.03887286
94	0x3e9d2388	0.3069117
95	0xbe3b2a15	-0.18277772
96	0xbc881f82	-0.016616587
97	0xbd23c0c8	-0.039978772
98	0x3e7a0dc6	0.24419317
99	0xbe0bd5d1	-0.13655783
100	0xbe116ebb	-0.14202397
101	0x3e5937d3	0.21212701
102	0xbd0c490e	-0.034249358
103	0xbe941350	-0.28920984
104	0x3e617a28	0.22019255
105	0xbe993ded	-0.29930058
106	0x3dddc68c	0.108288854
107	0x3d4ec544	0.050481096
108	0x3e059158	0.13043725
109	0xbe9085d3	-0.282271
110	0xbd66929f	-0.056292173
111	0xbda1bf74	-0.07897845
112	0xbe50b283	-0.20380597
113	0x3e53f346	0.2069827
114	0x3e9e13c0	0.30874443
115	0x3dcc80d7	0.09985512
116	0xbe4c8a87	-0.19974719
117	0xbd956e1d	-0.07296393
118	0x3e1b73f9	0.15180959
119	0x3d1d6df3	0.038434934
120	0xbe8e494e	-0.27790302
121	0x3cf42095	0.029800693
122	0x3e53090a	0.20608917
123	0xbd95d016	-0.0731508
124	0xbe6f81f4	-0.23389417
125	0xbd901f32	-0.070372
126	0x3d1bc1c0	0.03802657
127	0x3ea12cc4	0.31479466
128	0xbe06a685	-0.1314946
129	0x3e8cb4d3	0.27481708
130	0x3e3b4b39	0.18290414
131	0xbe9c809f	-0.3056688
132	0x3ccdf8ba	0.025143016
133	0xbe11fc13	-0.14256315
134	0xbe20dc53	-0.15709047
135	0xbe02ed7b	-0.12785904
136	0x3e124ec4	0.14287859
137	0xbdef32f2	-0.11679639
138	0x3db5b463	0.08872297
139	0x3da07a86	0.078358695
140	0x3cae3ea5	0.021270106
141	0xbe9892c3	-0.2979947
142	0xbd346e2d	-0.044050384
143	0x3e973688	0.29533792
144	0x3e13576f	0.14388822
145	0x3d45f86f	0.048332628
146	0xbe42c6e3	-0.19021182
147	0xbd451caf	-0.048123058
148	0x3e1f85b3	0.15578346
149	0xbe05ae67	-0.1305481
150	0x3e2309f3	0.15921764
151	0xbdd80e46	-0.105495974
152	0xbe13ae62	-0.1442199
153	0xbeafa515	-0.34305635
154	0x3abac972	0.0014250709
155	0x3e8603ec	0.26174867
156	0xbcfd46f5	-0.030917624
157	0xbeab2a92	-0.33430916
158	0x3e3e2946	0.18570432
159	0xbdf3577b	-0.1188192
160	0xbe8b5e7d	-0.27220526
161	0x3d46d047	0.048538473
162	0x3e6f3239	0.23359002
163	0xbe2233f9	-0.15840138
164	0xbc56ef90	-0.01311864
165	0xbe4ea198	-0.2017883
166	0x3dbd3f82	0.09240629
167	0x3dc397bf	0.09550428
168	0xbe04ac17	-0.12956272
169	0x3b3b54d8	0.0028584506
170	0xbde9bd61	-0.11413074
171	0xbe3a569b	-0.181971
172	0xbdba1c57	-0.09087437
173	0x3ea44f9f	0.32091996
174	0x3c88c13b	0.016693702
175	0x3d0ca685	0.034338493
176	0x3e548670	0.20754409
177	0x3e3459de	0.17612407
178	0x3d7caa1b	0.061685663
179	0x3d447d33	0.04797096
180	0xbd56cc9b	-0.05244122
181	0xbc3cf833	-0.011533785
182	0xbdb3b83c	-0.08775374
183	0xbe59390c	-0.21213168
184	0x3d4e59d1	0.050378624
185	0x3d8129ac	0.063067764
186	0xbd956d52	-0.07296242
187	0xbe385ae3	-0.1800342
188	0x3db6d029	0.08926422
189	0xbd3a045a	-0.045414306
190	0x3d2b93eb	0.041889112
191	0x3e829d5d	0.25510684
192	0xbe51d835	-0.20492633
193	0xbe685a2a	-0.22690645
194	0x3eb8e139	0.3610933
195	0xbd37fec1	-0.044920687
196	0x3e4f798c	0.2026121
197	0xbcece294	-0.028916635
198	0xbe37b7af	-0.17941163
199	0xbdbe2c4f	-0.09285795
200	0x3d8f61c0	0.07001066
201	0x3df25b90	0.118338704
202	0xbde65cd6	-0.11248176
203	0x3e2a1dde	0.16612956
204	0xbcf15d03	-0.029463297
205	0x3e2268cd	0.15860291
206	0x3e09a000	0.13439941
207	0x3e8923a5	0.26785007
208	0x3e445cfa	0.19176093
209	0xbda82f83	-0.08212187
210	0x3e48a8be	0.1959562
211	0xbc81c92a	-0.015842993
212	0x3e581159	0.21100368
213	0x3dda8c28	0.10671264
214	0x3d9a4fc9	0.07534749
215	0xbc69bfd4	-0.014266927
216	0xbde3d26f	-0.111241214
217	0xbcb08d5f	-0.021551786
218	0xbe1cf86e	-0.15329143
219	0x3c5a3a5c	0.013319578
220	0xbe0223b2	-0.12708929
221	0x3e0723ac	0.13197201
222	0xbd1512fb	-0.036395054
223	0xbdc43bfd	-0.09581754
224	0x3d80d3b7	0.062903814
225	0x3dd22dba	0.10262628
226	0xbce0833e	-0.027406331
227	0x3de39527	0.11112433
228	0x3e74ab3f	0.2389345
229	0xbe408616	-0.1880115
230	0x3da3aa73	0.07991495
231	0xbde9d1e7	-0.11416989
232	0x3e2db5ca	0.16963878
233	0xbe1054ab	-0.14094798
234	0xbdadce91	-0.08486665
235	0xbd94b8de	-0.07261823
236	0x3e58c4fb	0.21168892
237	0x3d40b592	0.04704816
238	0xbcf57e74	-0.029967524
239	0x3e37e914	0.17960006
240	0xbdb7bc8d	-0.0897151
241	0xbbaada17	-0.0052139866
242	0xbda6312c	-0.081148475
243	0xbe4c616d	-0.1995904
244	0xbdc93d2e	-0.09826122
245	0x3e62ad79	0.22136487
246	0xbd0878b9	-0.033318255
247	0xbe3ed40b	-0.18635575
248	0xbd82ad18	-0.06380671
249	0xbea71421	-0.32632545
250	0x3ca7c0d6	0.020477694
251	0x3e8d985e	0.2765531
252	0x3e1d85a6	0.15383014
253	0xbeaeda64	-0.34150994
254	0xbdc68ac6	-0.09694438
255	0x3e4401ec	0.19141358

lstm.weight_hh_l1 f4 [64, 16]
0	0x3d7155c8	0.058919698
1	0xbe98e28b	-0.2986034
2	0x3ba9fc66	0.005187559
3	0x3d11a36f	0.035556253
4	0x3d90339b	0.07041093
5	0xbd9deaad	-0.077107765
6	0xbdb4b0f4	-0.08822814
7	0xbe395bc1	-0.18101408
8	0x3d3f1fa6	0.04666104
9	0xbde978d5	-0.114
10	0x3c2f8bf6	0.010714522
11	0x3e6189ae	0.22025177
12	0xbe26b672	-0.16280535
13	0xbd9a6425	-0.07538632
14	0xbe212e5b	-0.1574034
15	0x3e2f3222	0.17108968
16	0x3e8c1228	0.27357602
17	0xbe4aa703	-0.19790272
18	0x3e623c2d	0.22093268
19	0x3e3b2c4e	0.1827862
20	0x3d35f51e	0.044423215
21	0x3e782c38	0.24235618
22	0x3df4ce80	0.11953449
23	0xbe7d40f4	-0.24731809
24	0x3d48a941	0.048989538
25	0xbd6c4f44	-0.05769278
26	0xbe8d955f	-0.27653024
27	0xbe0e25d0	-0.13881612
28	0x3d814282	0.063115135
29	0xbd6fa668	-0.058508307
30	0x3e0d97c1	0.13827421
31	0xbe803aff	-0.2504501
32	0xbcbdc530	-0.023165315
33	0xbea4e622	-0.32206827
34	0x3e70ebe9	0.23527493
35	0x3e051746	0.1299716
36	0x3ea7e2a1	0.32790092
37	0xbe64dc5f	-0.2234969
38	0x3c34115f	0.01099047
39	0xbe6c66d0	-0.23086095
40	0xbe1b84e3	-0.15187411
41	0x3dcd92d7	0.10037773
42	0x3d9e12cf	0.07718431
43	0x3d856337	0.06513064
44	0x3e688a31	0.22708966
45	0xbd17300e	-0.036911063
46	0x3dc8c18b	0.098025404
47	0xbd818cd2	-0.063256875
48	0x3d28e3da	0.04123292
49	0xbd9a8c77	-0.07546323
50	0xbd5ed1bc	-0.054399237
51	0x3e424e0e	0.18975088
52	0xbe1bdbc9	-0.1522056
53	0xbd1bebad	-0.038066555
54	0x3ea5b35f	0.32363412
55	0x3d5ca6ec	0.053870127
56	0xbe89f6ca	-0.26946098
57	0x3e75a237	0.23987661
58	0xbdc434f2	-0.09580411
59	0x3dba0a26	0.09083967
60	0xbc0c8b60	-0.008578151
61	0x3dfbe7c8	0.12300068
62	0xbdeb1dc5	-0.114802875
63	0xbe94b6cc	-0.29045713
64	0x3e9d79fb	0.30757126
65	0xbe25191d	-0.16122861
66	0xbe78534f	-0.2425053
67	0xbd657532	-0.05601997
68	0x3d365201	0.0445118
69	0xbdffabdc	-0.124839514
70	0xbacda7fa	-0.001569032
71	0x3e5f7bf6	0.21824631
72	0xbd9073b7	-0.07053321
73	0xbdbb62c2	-0.09149696
74	0x3e2615e3	0.16219287
75	0x3dcff963	0.101549886
76	0x3cafdcb6	0.021467548
77	0x3e224afd	0.15848918
78	0xbe1539f4	-0.14572889
79	0xbd3ecaba	-0.046580054
80	0xbd97729e	-0.07394908
81	0xbe826d60	-0.25474072
82	0x3dcaed24	0.09908512
83	0x3d048392	0.032352038
84	0xbe470da9	-0.19438805
85	0xbe671ab1	-0.22568776
86	0xbde45723	-0.111494325
87	0xbe03ce34	-0.12871629
88	0x3e058a90	0.13041139
89	0xbe125433	-0.14289932
90	0xbe0977eb	-0.13424651
91	0x3d40a8ac	0.047035858
92	0xbe2c9243	-0.1685267
93	0xbe09b02a	-0.13446108
94	0xbd9edcd3	-0.077569626
95	0x3cb4eb39	0.02208482
96	0xbda0abfb	-0.07845303
97	0xbe4f3a15	-0.20237
98	0x3e11804a	0.14209095
99	0xbcb50073	-0.02209494
100	0x3d91c273	0.07117166
101	0xbc6c5fd2	-0.014427142
102	0x3e16b622	0.14717916
103	0x3e17e5af	0.14833711
104	0xbdc8d66b	-0.09806522
105	0x3e90a304	0.2824937
106	0x3dfd459d	0.12366793
107	0x3e79aed3	0.24383096
108	0x3dd35724	0.10319355
109	0xbe339c16	-0.17540011
110	0x3e202283	0.15638165
111	0xbe476041	-0.19470312
112	0xbd824df3	-0.06362524
113	0xbd83db1d	-0.06438277
114	0xbd43f3f6	-0.04784008
115	0x3d2a8586	0.041631244
116	0x3e56f7ad	0.20992918
117	0xbe33ab09	-0.17545713
118	0x3e56b801	0.2096863
119	0x3dfd0fd4	0.123565346
120	0x3e677193	0.22601919
121	0x3e1b1bc0	0.15147305
122	0xbd2bb6b2	-0.04192228
123	0x3c7e16c3	0.0155083565
124	0x3e3db4a9	0.18525948
125	0x3d101775	0.03517862
126	0x3cf38ee7	0.029731227
127	0x3da93251	0.0826155
128	0xbe1bd7cc	-0.15219039
129	0x3e0b219b	0.13587038
130	0xbc098757	-0.008394084
131	0x3dbef533	0.09324112
132	0x3d81b127	0.06332617
133	0xbe016cf5	-0.1263922
134	0xbd69bb09	-0.057063136
135	0x3db945b2	0.090464965
136	0xbd240dc8	-0.040052205
137	0xbdcc564b	-0.099773966
138	0x3dc68b98	0.09694594
139	0x3e2c5cff	0.1683235
140	0x3cbc74cc	0.023004912
141	0xbdf5bc73	-0.119988345
142	0x3d646478	0.055759877
143	0xbe889862	-0.2667876
144	0x3e6493d5	0.22322018
145	0x3c9ae136	0.018906217
146	0xbe3abe3b	-0.1823663
147	0x3de5a0c2	0.11212303
148	0x3e047196	0.12933955
149	0xbe032ec5	-0.1281081
150	0xbdd657d5	-0.104659714
151	0xbe33fdcb	-0.17577283
152	0xbe897d56	-0.26853436
153	0xbe3d8afa	-0.18510047
154	0x3c7fc2af	0.015610381
155	0x3e1c556b	0.1526696
156	0xbc42f851	-0.011900024
157	0x3e4b0594	0.19826347
158	0x3e037e43	0.12841134
159	0x3e1dcd2a	0.15410295
160	0xbcd059c8	-0.025433436
161	0x3d249f2b	0.040190857
162	0xbc4fcdba	-0.012683326
163	0x3e798f38	0.2437104
164	0x3e1290e1	0.1431308
165	0x3e09717a	0.13422194
166	0xbde30239	-0.11084408
167	0x3c9f5193	0.019448077
168	0xbea88af5	-0.32918516
169	0xbe202adf	-0.15641354
170	0xbe676c89	-0.22599997
171	0xbe148c34	-0.14506608
172	0xbdd1beb3	-0.10241451
173	0x3e0b97c8	0.13632119
174	0xbe0689f4	-0.13138562
175	0x3d5b337c	0.053515896
176	0xbd253da0	-0.040341973
177	0x3e563178	0.20917308
178	0xbe99615e	-0.29957098
179	0x3deff789	0.117171355
180	0x3d9aca03	0.07558062
181	0x3debe97e	0.115191445
182	0xbe4610d3	-0.19342355
183	0xbd9a4d19	-0.075342365
184	0xbe1dc890	-0.1540854
185	0x3d167ed4	0.036742046
186	0xbe7216a7	-0.23641454
187	0xbd742c87	-0.059612777
188	0xbdb9410c	-0.0904561
189	0xbe140e1e	-0.1445851
190	0xbe3fa06d	-0.18713541
191	0xbe43d4e1	-0.19124176
192	0x3ddc5305	0.10758022
193	0xbe364a45	-0.17801769
194	0x3e9d36ae	0.3070578
195	0xbd964ce3	-0.07338884
196	0x3e1af1c4	0.15131289
197	0xbe88a7c0	-0.26690483
198	0x3e224bde	0.15849254
199	0xbdea3cd9	-0.11437387
200	0xbcfb76a4	-0.03069622
201	0xb89f3a40	-7.592561e-05
202	0xbe628d23	-0.22124152
203	0xbd06495e	-0.032784812
204	0xbd0168ab	-0.03159396
205	0x3dbf47c9	0.09339864
206	0x3ec67754	0.38762915
207	0xbe1e24d7	-0.15443741
208	0x3e8ebab5	0.2787682
209	0x3d6a15fa	0.057149865
210	0xbe815832	-0.252626
211	0xbd6cbc6d	-0.057796884
212	0xbd03b939	-0.032159064
213	0xbe42024f	-0.18946193
214	0x3e1d0e88	0.15337574
215	0x3d1938e0	0.037407756
216	0xbe8ab7dd	-0.27093402
217	0xbd50311f	-0.050828096
218	0x3e29972e	0.16561577
219	0x3e1dce60	0.15410757
220	0x3cc2249f	0.023699103
221	0x3d09c5c3	0.033635866
222	0xbd150558	-0.03638205
223	0xbe1e0cf7	-0.15434633
224	0x3e3e8cc6	0.18608388
225	0x3e08d782	0.1336346
226	0x3e049451	0.12947203
227	0x3eacd203	0.33753976
228	0x3e6a109f	0.22857903
229	0xbddfe5b1	-0.10932482
230	0x3e6a57d0	0.2288506
231	0xbe74029c	-0.2382912
232	0xbe92220e	-0.28541607
233	0xbb9c81e1	-0.004776225
234	0x3d754d90	0.059888422
235	0xbdbd3ff3	-0.09240713
236	0x3db30dd1	0.0874287
237	0x3c616ddd	0.013759104
238	0x3c2ad1f9	0.010426038
239	0xbe9f4de6	-0.3111412
240	0x3e6a3b51	0.2287419
241	0xbe325da8	-0.1741854
242	0xbe80f619	-0.25187758
243	0x3c5763a9	0.013146319
244	0x3de95c5e	0.11394571
245	0x3d4adf5c	0.04952942
246	0x3cde6cd7	0.027151508
247	0x3b9b2cb2	0.0047355527
248	0x3d3d0eeb	0.046156805
249	0x3e5cd436	0.21565327
250	0x3deb20c3	0.11480858
251	0xbe14acfc	-0.14519113
252	0xbdaaa0a8	-0.08331424
253	0xbd802fbe	-0.06259106
254	0xbd99dd0a	-0.07512863
255	0x3e19a99f	0.15006112

lstm.bias_ih_l1 f4 [64]
0	0x3d96ecf7	0.07369416
1	0x3e99d4d0	0.30045176
2	0x3d8727ed	0.06599412
3	0x3d8fe56b	0.0702618
4	0xbd257eed	-0.04040425
5	0x3e95ad88	0.29233956
6	0xbe12a17e	-0.14319417
7	0xbd4c10bf	-0.049820658
8	0xbd661564	-0.056172743
9	0x3e86fc15	0.26364198
10	0x3cda1305	0.026620397
11	0xbdb8fc42	-0.09032489
12	0x3dc2b863	0.09507825
13	0x3df1c58d	0.11805258
14	0x3d01412d	0.031556297
15	0xbdd62914	-0.10457054
16	0x3e1ad890	0.15121675
17	0xbe311377	-0.17292581
18	0xb9381444	-0.00017555157
19	0x3e7eeefd	0.24895854
20	0xbda96a2a	-0.08272202
21	0x3e3716e3	0.17879824
22	0xbd3e1dae	-0.046415024
23	0x3c89866e	0.016787734
24	0x3d872008	0.06597906
25	0x3d9a7649	0.07542092
26	0xbcc294ee	-0.023752656
27	0x3e0dceef	0.1384847
28	0xbe1dda20	-0.1541524
29	0xbe1a4159	-0.1506399
30	0x3e5e5213	0.21710996
31	0xbe1de270	-0.1541841
32	0x3e0d8313	0.13819532
33	0x3e17b1a7	0.14813863
34	0xbd699c9a	-0.057034113
35	0xbdd91bd7	-0.10601013
36	0x3e2e347e	0.17012212
37	0x3e31afb3	0.1735218
38	0x3d9b1939	0.0757317
39	0xbdc9ea51	-0.098591454
40	0x3d798b3a	0.060923792
41	0x3d7c6f41	0.061629537
42	0xbe0cfd8d	-0.13768597
43	0x3d192733	0.0373909
44	0xbdde1020	-0.10842919
45	0x3e368f73	0.17828159
46	0x3bf4c18f	0.007469363
47	0x3e3bb683	0.18331341
48	0x3e9556f2	0.29167897
49	0x3e3445f8	0.17604816
50	0x3e572c8d	0.21013089
51	0x3d9d83a1	0.07691122
52	0x3d4f7138	0.050645083
53	0x3e01754f	0.12642406
54	0x3b8edbd9	0.004359704
55	0xbcffec25	-0.031240532
56	0xbd9b4045	-0.07580618
57	0x3e153021	0.14569141
58	0x3e921b10	0.28536272
59	0x3d639ecf	0.055571374
60	0xbdb3d67d	-0.08781145
61	0x3d88ef24	0.066862375
62	0xbe085ef0	-0.13317466
63	0xbdcc5735	-0.09977571

lstm.bias_hh_l1 f4 [64]
0	0x3dbdc3a8	0.09265834
1	0x3c44d2a3	0.01201311
2	0xbdfab634	-0.12241784
3	0xbe15f3b4	-0.14643747
4	0x3d90797d	0.07054422
5	0x3d1dd612	0.03853423
6	0xbd84ce9d	-0.06484721
7	0xbe0dc603	-0.13845067
8	0x3e04d356	0.12971243
9	0x3c597fa9	0.013275065
10	0x3e822780	0.2542076
11	0xbe6f1dac	-0.23351163
12	0x3e8bb074	0.2728306
13	0x3e707a0f	0.23484062
14	0xbdd5c0f4	-0.104371935
15	0xbc9b0fea	-0.018928487
16	0x3e832885	0.2561685
17	0x3d066482	0.032810695
18	0xbe393b0a	-0.18088928
19	0xbd2397fb	-0.03993986
20	0x3e70e29a	0.23523942
21	0x3da3ec58	0.08004063
22	0xbe56cd4a	-0.20976749
23	0x3d9d033e	0.07666634
24	0xbd9d420d	-0.07678614
25	0x3beccf1e	0.0072268387
26	0xbe2df28b	-0.16987054
27	0x3c91278e	0.017719056
28	0xbe1ecd76	-0.15508065
29	0x3abd49fe	0.0014441607
30	0x3e11122e	0.14167091
31	0x3dee1b37	0.116262846
32	0x3e42c1cf	0.19019245
33	0xbde92b2c	-0.113851875
34	0x3e09f1c7	0.13471137
35	0x3e888c3d	0.26669493
36	0x3e11afec	0.14227265
37	0xbe81d2fc	-0.2535628
38	0x3dbfa9af	0.093585365
39	0xbcc46197	-0.023972316
40	0xbdde4bd3	-0.10854306
41	0x3e498342	0.19678977
42	0xbddae67c	-0.10688493
43	0x3e4da5e3	0.20082812
44	0x3e6bc09c	0.23022693
45	0x3dcefd47	0.101069026
46	0xbdc0c0d8	-0.09411782
47	0xbe3cfdc1	-0.18456174
48	0x3e164b3c	0.14677137
49	0x3d6bf421	0.057605866
50	0x3e2897f8	0.16464221
51	0xbe27af0d	-0.1637537
52	0x3e2f4354	0.17115527
53	0x3e1d684e	0.1537182
54	0x3d3f4d57	0.046704616
55	0xbdbd1527	-0.0923255
56	0x3ea0118b	0.31263384
57	0x3e3a47d9	0.1819147
58	0xbe526816	-0.20547518
59	0x3e24025e	0.16016528
60	0xbd800204	-0.062503844
61	0xbd5491be	-0.051896803
62	0xbe051e7e	-0.12999913
63	0xbd656d3c	-0.056012377

lstm.weight_ih_l2 f4 [64, 16]
0	0xbdcc9c1e	-0.099907145
1	0x3de5f104	0.11227611
2	0x3e13a14a	0.14416996
3	0x3dee4cd8	0.116357505
4	0xbdc9e483	-0.09858038
5	0xbd8f9f09	-0.070127554
6	0x3e8c41a6	0.27393836
7	0xbdf9db2f	-0.12200009
8	0xbc70b4a5	-0.0146915065
9	0xbe3dd69e	-0.18538901
10	0x3d628c83	0.055309784
11	0xbe37cfea	-0.17950407
12	0xbb36043d	-0.0027773522
13	0x3e41d43e	0.1892862
14	0xbd5c71b6	-0.05381938
15	0xbe33746f	-0.17524885
16	0xbc3bac36	-0.0114546325
17	0xbd26b97e	-0.040704243
18	0xbe0011d8	-0.12506807
19	0x3e8d438d	0.275906
20	0x3e6a3c71	0.22874619
21	0xbc9dbc8a	-0.019254941
22	0x3dd1ffd0	0.102538705
23	0x3e19143e	0.14949128
24	0xbd5cf5aa	-0.05394522
25	0xbc768739	-0.015046888
26	0xbd21de20	-0.039518476
27	0x3e48294d	0.19547005
28	0xbde7fdb5	-0.11327688
29	0x3e89f1b0	0.26942205
30	0xbdebe53c	-0.11518332
31	0xbe871eb0	-0.263906
32	0x3dfdca91	0.12392152
33	0x3ddea474	0.10871211
34	0x3e6dd449	0.23225512
35	0xbcc0db6c	-0.023542129
36	0xbd7e8292	-0.06213624
37	0xbe90b18d	-0.2826046
38	0x3e85e6c5	0.26152626
39	0xbe3fc2cf	-0.18726657
40	0xbe4c5e9a	-0.19957963
41	0x3dbcf5b6	0.09226553
42	0x3daf4186	0.085574195
43	0xbde5a093	-0.11212268
44	0x3df18b45	0.11794142
45	0x3d29051b	0.041264635
46	0x3e255de2	0.16149095
47	0x3d78bcd3	0.06072695
48	0xbe516f3d	-0.2045259
49	0x3ca55ed1	0.020186814
50	0x3ea9aaaa	0.3313802
51	0xbdb13c1b	-0.08654042
52	0x3db58b96	0.088645145
53	0x3de8ef7d	0.11373804
54	0x3dc28f3f	0.09499978
55	0x3dce7c85	0.10082344
56	0x3e3b0d6b	0.18266837
57	0xbe347003	-0.17620854
58	0xbe1a185a	-0.15048352
59	0x3e609a2e	0.21933815
60	0x3c783325	0.015148913
61	0xbe767914	-0.24069625
62	0xbd6c760f	-0.057729777
63	0x3d991359	0.074743934
64	0xbcaae6fa	-0.020862091
65	0xbe766d55	-0.24065144
66	0xbda69c28	-0.08135253
67	0xbc49842e	-0.0122995805
68	0x3db9f394	0.09079662
69	0x3e12b362	0.14326242
70	0xbdbed479	-0.0931787
71	0xbe681679	-0.22664823
72	0xbe50d180	-0.20392418
73	0xbdc2c07b	-0.09509369
74	0xbdd8e9e6	-0.105914876
75	0x3e220456	0.15821967
76	0x3d5aa339	0.053378318
77	0x3dafb3e2	0.08579232
78	0xbbbff696	-0.0058582528
79	0x3e01729f	0.1264138
80	0x3da686b4	0.08131161
81	0xbd42be1f	-0.047544595
82	0x3ebe2a52	0.37141663
83	0x3e0bba56	0.136453
84	0x3e226629	0.15859284
85	0x3e40d471	0.1883104
86	0xbd144d5c	-0.03620659
87	0xbe99ef07	-0.30065176
88	0x3e0f8cfe	0.14018628
89	0xbe13b680	-0.14425087
90	0xbe9b36a3	-0.30315122
91	0xbe4c4216	-0.19947085
92	0xbd8cf76e	-0.06883131
93	0xbd197b2d	-0.037470985
94	0xbe435309	-0.19074644
95	0xbda675e4	-0.081279546
96	0x3dc305b6	0.09522574
97	0x3bee4c09	0.0072722477
98	0xbec1aeec	-0.37828767
99	0x3e39fde6	0.18163261
100	0x3e4d2a11	0.20035578
101	0xbe833cf4	-0.2563244
102	0xbd3e2f9c	-0.046432123
103	0xbd83a726	-0.064283654
104	0xbe88e9d6	-0.26740903
105	0x3e81b01a	0.25329667
106	0x3dd44ba8	0.10365993
107	0x3d5f2cb1	0.05448598
108	0xbe1c22b4	-0.15247613
109	0xbd0518b5	-0.032494266
110	0x3e5e4ddb	0.21709387
111	0xbe7c295d	-0.24625154
112	0x3d51a947	0.051186826
113	0x3d8f8fd1	0.07009853
114	0x3d80818d	0.0627471
115	0x3e477597	0.1947845
116	0x3e3ef6a7	0.18648778
117	0xbdff738a	-0.12473209
118	0xbc4a66c4	-0.012353603
119	0x3e25b3a0	0.16181803
120	0xbd9b5279	-0.0758409
121	0x3e7688e8	0.24075663
122	0x3e2d4eb3	0.16924553
123	0xbe009e1f	-0.12560318
124	0xbe1fcc4e	-0.1560528
125	0x3e7e4d00	0.2483406
126	0x3d863e64	0.06554869
127	0x3bc7847e	0.0060887923
128	0xbddb3a59	-0.10704488
129	0xbde69da0	-0.11260533
130	0xbe3140dd	-0.173099
131	0x3e8074ad	0.25089017
132	0x3e2c6a9d	0.16837545
133	0x3df5d91b	0.120043
134	0x3c6d51cd	0.014484835
135	0xbd36cd69	-0.04462949
136	0xbd5e10a0	-0.054215074
137	0x3d8dba31	0.06920279
138	0x3e5c1e9f	0.21496056
139	0x3e55cdf5	0.20879348
140	0x3e25d8c7	0.16195975
141	0x3e7b6d26	0.24553356
142	0x3e11ac33	0.14225845
143	0x3c89fb7b	0.016843548
144	0x38e40e9c	0.000108746084
145	0xbcc9343b	-0.024561038
146	0x3be0fc3c	0.006866006
147	0x3daa1c26	0.0830615
148	0x3dba2007	0.0908814
149	0xbe767277	-0.24067102
150	0xbdb09079	-0.08621306
151	0xbc20432e	-0.009781642
152	0x3cd3903f	0.025825618
153	0x3d2a4975	0.04157396
154	0xbe40b1a0	-0.18817759
155	0xbd01a200	-0.031648636
156	0x3dcc8656	0.0998656
157	0xbcc8a9d0	-0.024495035
158	0x3dbbd109	0.0917073
159	0xbdf41a65	-0.11919097
160	0xbdc81074	-0.09768763
161	0x3e36aa04	0.17838293
162	0x3deed07e	0.116608605
163	0xbe0c02a2	-0.1367288
164	0x3d604adc	0.05475889
165	0xbe76f3ce	-0.24116442
166	0x3e3e89cb	0.18607251
167	0xbe8cd7e8	-0.27508473
168	0xbcdf8c11	-0.027288469
169	0xbe0ef8cb	-0.13962094
170	0xbdf9003d	-0.121582486
171	0xbe034632	-0.12819746
172	0xbd49cba1	-0.04926646
173	0x3d53c753	0.051703762
174	0x3e02e35b	0.12782042
175	0xbdba7644	-0.09104589
176	0x3e059973	0.13046817
177	0x3e17b9f7	0.14817034
178	0xbc8d3bf2	-0.017240498
179	0x3d9cb2f1	0.07651318
180	0xbe1b2273	-0.1514986
181	0xbdc6ef3e	-0.097136006
182	0x3da56dbc	0.08077571
183	0x3e47b128	0.19501173
184	0xbcedb1ba	-0.02901541
185	0xbdbaa803	-0.09114077
186	0x3e08c73d	0.13357253
187	0xbc4be37c	-0.012444373
188	0xbcf09840	-0.029369473
189	0xbdd962c5	-0.10614542
190	0x3ea39900	0.31952667
191	0xbd87609c	-0.06610224
192	0xbd0a0412	-0.033695288
193	0xbe9f8881	-0.31158832
194	0x3d609d32	0.054837413
195	0x3e829f58	0.25512195
196	0xbe219e42	-0.15783027
197	0xbea16e93	-0.31529674
198	0xbda8d4a4	-0.08243683
199	0xbe366ef9	-0.1781577
200	0xbe54bfad	-0.20776244
201	0xbcc0081b	-0.023441365
202	0x3da04f56	0.07827632
203	0x3c24f7c5	0.0100688385
204	0x3db945f5	0.09046546
205	0xbd58a1df	-0.052888747
206	0xbdce77f6	-0.100814745
207	0xbe2a1c9d	-0.16612478
208	0xbe00379a	-0.1252121
209	0xbe116cc5	-0.14201649
210	0x3e1fd27e	0.1560764
211	0x3e810881	0.252018
212	0x3e79887e	0.24368474
213	0xbc7b686b	-0.015344719
214	0xbdf4365a	-0.11924429
215	0xbdf0f39d	-0.117652155
216	0xbdb858d2	-0.09001316
217	0x3e39cbdc	0.18144172
218	0xbba50661	-0.005036161
219	0xbda7be42	-0.08190586
220	0x3d3fa57c	0.046788678
221	0x3e50ad89	0.20378698
222	0x3c2c8a2c	0.01053099
223	0xbdfebd35	-0.12438432
224	0x3da52b0c	0.08064851
225	0xbddcf9e8	-0.10789853
226	0x3e9b63d9	0.30349615
227	0x3d21c47b	0.03949402
228	0x3db38eb0	0.0876745
229	0x3b97513e	0.004617839
230	0xbd5a6fae	-0.053329162
231	0xbd999b90	-0.07500374
232	0x3e1d4ce5	0.15361364
233	0x3eaf4871	0.34234956
234	0x3dd87bd8	0.10570496
235	0xbc8e973c	-0.017406099
236	0x3e15cc5c	0.14628738
237	0x3e5d0927	0.21585523
238	0xbe0fe7bb	-0.14053242
239	0x3ddc2d39	0.10750813
240	0xbe0f8baa	-0.14018121
241	0xbe380e5f	-0.17974232
242	0xbb9bf893	-0.004759857
243	0xbe385341	-0.18000509
244	0xbda39377	-0.07987111
245	0xbbb0f560	-0.0054003447
246	0xbd663108	-0.056199104
247	0xbe191c96	-0.14952311
248	0xbe83bc22	-0.2572947
249	0x3e928123	0.28614148
250	0x3c5c17c9	0.013433405
251	0x3d6b8612	0.057500906
252	0xbd8c4547	-0.06849151
253	0xbca3cff8	-0.019996628
254	0x3d34cee9	0.044142637
255	0xbead769b	-0.3387955

lstm.weight_hh_l2 f4 [64, 16]
0	0xbe1eb16a	-0.15497366
1	0x3e50200a	0.20324722
2	0xbd8caf79	-0.06869406
3	0x3d2b4d4c	0.041821763
4	0x3bae62f4	0.0053218547
5	0xbd85a38b	-0.06525334
6	0x3e0f5e64	0.14000851
7	0xbe57c4cd	-0.21071167
8	0x3e206109	0.15662016
9	0x3d334ca1	0.04377425
10	0xbe6d849c	-0.23195118
11	0xbc8d3f71	-0.017242165
12	0xbe1a40e1	-0.15063812
13	0x3e6e2de2	0.2325969
14	0xbe8bd022	-0.2730723
15	0xbe19c00e	-0.1501467
16	0x3e4f563c	0.2024774
17	0xbd226e34	-0.03965588
18	0x3d527de2	0.051389582
19	0x3e9caeea	0.306022
20	0x3e73b290	0.23798585
21	0xbdc9d997	-0.09855955
22	0x3b5bc199	0.0033532141
23	0x3e0d85fc	0.13820642
24	0xbe017388	-0.12641728
25	0x3da4255d	0.08014939
26	0x3ca5af2b	0.020225128
27	0xbe36252d	-0.17787619
28	0x3e2f3c4b	0.17112844
29	0x3e857ef5	0.26073423
30	0x3d765b1c	0.060145482
31	0x3e9e083d	0.3086566
32	0x3db96680	0.090527534
33	0xbd45ef91	-0.04832417
34	0x3e28b9c8	0.1647712
35	0xbddf9399	-0.10916824
36	0x3d240381	0.040042404
37	0xbe854fb8	-0.26037383
38	0xbdcb8a4e	-0.09938489
39	0xbdd8154b	-0.10550936
40	0x3dad19bb	0.08452173
41	0xbce7fe91	-0.028319629
42	0xbe4fe30e	-0.20301458
43	0xbe950ed8	-0.29112887
44	0xbe6ad808	-0.22933972
45	0xbdfdc205	-0.12390522
46	0xbe357e88	-0.17724049
47	0x3d87014f	0.065920465
48	0xbd84d68f	-0.06486236
49	0x3dcbae6a	0.09945376
50	0x3cf077bc	0.029353969
51	0x3d4402b1	0.04785413
52	0x3d3c8e09	0.046033893
53	0xbd8db567	-0.069193654
54	0x3b37c190	0.0028038956
55	0xbe630a28	-0.22171843
56	0x3d9d8e41	0.076931484
57	0x3e246789	0.1605512
58	0xbe61ea19	-0.22061957
59	0xbd513322	-0.051074155
60	0xbe8212ce	-0.25404972
61	0x3c137e7a	0.009002322
62	0xbdf4b316	-0.119482204
63	0x3d686cda	0.056744434
64	0xbbc90f08	-0.006135825
65	0x3e2955d2	0.16536644
66	0xbcba8828	-0.022770002
67	0xbd513e93	-0.051085066
68	0x3d977542	0.07395412
69	0xbe7119af	-0.23544954
70	0x3d19915d	0.037492145
71	0x3debd69b	0.11515542
72	0xbe3561a9	-0.17713036
73	0xbe542615	-0.20717652
74	0x3ce94859	0.02847688
75	0xbe5a1600	-0.21297455
76	0xbcf0ef97	-0.02941112
77	0xbd8b77e4	-0.06809977
78	0x3ddbef61	0.10739017
79	0x3ccd5c95	0.02506856
80	0xbccd1d52	-0.025038395
81	0xbe525460	-0.20539999
82	0x3db68afc	0.08913228
83	0xbd083f59	-0.033263538
84	0x3e1e7fb0	0.15478396
85	0xbe9655ac	-0.29362237
86	0xbdc1bb2d	-0.09459529
87	0xbe8dfca4	-0.27731812
88	0xbe3636ed	-0.1779439
89	0x3de2ad0f	0.110681646
90	0x3e57377a	0.21017256
91	0x3e4324c5	0.19056995
92	0xbd2577fd	-0.040397633
93	0x3c87da5b	0.016583612
94	0xbd10d14a	-0.035355844
95	0x3e708199	0.23486938
96	0x3e956905	0.29181686
97	0x3ea2345b	0.3168057
98	0x3c23419d	0.009964374
99	0x3e01861d	0.12648816
100	0xbe1ea1d0	-0.15491414
101	0x3dc24ae8	0.094869435
102	0xbe72a355	-0.23695119
103	0x3c88f721	0.016719403
104	0xbe62bc9d	-0.22142263
105	0x3e10eef9	0.14153661
106	0x3d24b1d0	0.040208638
107	0xbe653af0	-0.22385764
108	0x3d68add3	0.056806397
109	0xbd109496	-0.035297953
110	0x3ea4c18a	0.3217891
111	0x3da618c4	0.081101924
112	0xbd4601d1	-0.048341576
113	0xbd3b4701	-0.04572201
114	0x3e95f465	0.2928802
115	0x3e9b2879	0.30304316
116	0x3db6e1be	0.08929776
117	0xbe6cce68	-0.23125613
118	0x3db0f8bc	0.08641192
119	0x3d521f48	0.051299363
120	0xbe591d7c	-0.21202654
121	0xbe9634eb	-0.29337248
122	0xbe710fed	-0.23541231
123	0x3da956bf	0.08268499
124	0xbd306e08	-0.043073684
125	0xbe141967	-0.14462815
126	0x3e5a60c1	0.21325971
127	0xbe3aba9c	-0.18235248
128	0x3d533fc0	0.05157447
129	0x3e91d354	0.28481543
130	0x3ea07d10	0.31345415
131	0xbdd57300	-0.10422325
132	0xbe4ff12d	-0.20306845
133	0xbe240649	-0.16018023
134	0x3dfb2162	0.12262227
135	0xbe6850aa	-0.22687021
136	0xbcc816a1	-0.024424853
137	0x3df573e1	0.11984993
138	0x3db80f72	0.08987321
139	0xbde870a5	-0.1134961
140	0xbcc5bfa9	-0.024139242
141	0x3d67256b	0.05643217
142	0x3e1f12e8	0.15534556
143	0xbd4fee6e	-0.050764494
144	0x3e2cb010	0.16864038
145	0x3df71922	0.120653406
146	0xbdce86d6	-0.10084312
147	0x3dfe96a9	0.1243108
148	0x3d39cb03	0.045359623
149	0xbe3d4a85	-0.18485458
150	0xbe01081d	-0.12600751
151	0x3dbee06f	0.09320151
152	0xba14ff36	-0.00056837813
153	0x3e34e7e6	0.17666587
154	0xbc4385a9	-0.0119337225
155	0x3dedea2d	0.11616931
156	0x3ddbeb0f	0.10738193
157	0x3de37847	0.111069255
158	0x3dd48d6a	0.10378535
159	0x3cdf4c3f	0.027258037
160	0x3e0a262f	0.13491128
161	0x3dac6a55	0.08418719
162	0x3e9068aa	0.28204852
163	0x3d460399	0.048343275
164	0x3cdae853	0.026722109
165	0xbddd6eda	-0.10812159
166	0xbe113d95	-0.14183648
167	0x3d815229	0.06314499
168	0xbe8690b4	-0.26282275
169	0xbe209046	-0.15680036
170	0x3ddb6f05	0.10714535
171	0x3e1bab95	0.15202172
172	0x3dc5f473	0.096657656
173	0x3dc3d908	0.0956288
174	0xbe115aa9	-0.1419474
175	0xbdefeb5b	-0.11714812
176	0x3e7a6c90	0.24455476
177	0x3ea97bf0	0.3310237
178	0xbdf82aef	-0.12117564
179	0xbdd4e469	-0.10395128
180	0xbe87bee5	-0.26512828
181	0x3ce977ed	0.028499568
182	0x3dfab5e7	0.12241726
183	0xbdd1005d	-0.102051474
184	0xbe65ae05	-0.22429664
185	0xbe0e7409	-0.13911451
186	0x3d620ec3	0.05518986
187	0xbe83eb85	-0.25765625
188	0xbea223af	-0.3166785
189	0x3d87376a	0.06602366
190	0x3dd659a7	0.104663186
191	0x3cb0b8c3	0.021572476
192	0xbd00b074	-0.03141828
193	0xbe033ba5	-0.12815721
194	0x3e3009d5	0.1719125
195	0x3cd47592	0.025934968
196	0x3d03cc10	0.03217703
197	0x3e2d206e	0.16906902
198	0xbe998142	-0.29981428
199	0xbda2483a	-0.079239324
200	0x3e2c84dc	0.16847557
201	0xbe0829bf	-0.13297175
202	0x3e2f8d9e	0.17143866
203	0x3d5af637	0.053457465
204	0xbbdae0d4	-0.0066796336
205	0x3e3ba108	0.18323147
206	0x3d7c173c	0.061545596
207	0xbe079e86	-0.13244066
208	0xbe451966	-0.1924797
209	0xbd028bb8	-0.031871527
210	0x3e3dab86	0.18522462
211	0x3d450f33	0.0481102
212	0xbd174370	-0.036929548
213	0xbda1cbd5	-0.07900206
214	0xbe349f4b	-0.1763889
215	0xbe05283d	-0.13003631
216	0x3b9ecd15	0.004846225
217	0xbdfa10a2	-0.12210204
218	0x3c059aee	0.008154614
219	0x3ce30af0	0.027715176
220	0xbe758d17	-0.23979603
221	0x3e5fc9e7	0.21854363
222	0x3bf297ee	0.0074033653
223	0xbba24472	-0.004952007
224	0x3e183c3c	0.14866728
225	0x3e6d2d40	0.23161793
226	0xbe01a70a	-0.12661377
227	0x3dd63202	0.10458757
228	0xbd1ff607	-0.03905299
229	0xbdd86591	-0.10566247
230	0x3dc16013	0.09442153
231	0x3e06b37a	0.13154402
232	0xbea5c5c5	-0.3237745
233	0xbdabd82f	-0.08390843
234	0xbdab0ca1	-0.08352018
235	0xbeacb6b9	-0.33733156
236	0xbd0f11ee	-0.03492921
237	0x3e89ee63	0.26939687
238	0x3d11b9df	0.03557765
239	0x3e9f1641	0.31071666
240	0xbe6f7a73	-0.23386554
241	0xbd5db900	-0.054131508
242	0x3eaa7c53	0.33297977
243	0x3bda5164	0.0066625345
244	0x3dc723db	0.09723636
245	0x3e2a756f	0.1664636
246	0x3de0fc0b	0.109855734
247	0xbe556c1b	-0.2084202
248	0xbd5b9901	-0.053612713
249	0x3db7372a	0.089460686
250	0x3e1bb625	0.15206201
251	0xbdd202b5	-0.102544226
252	0xbe08c924	-0.13357979
253	0x3d346ab7	0.044047084
254	0xbd64e969	-0.05588666
255	0xbdeebdd3	-0.116573

lstm.bias_ih_l2 f4 [64]
0	0xbdcc2b7b	-0.09969231
1	0x3dd59f61	0.1043079
2	0x3e047f10	0.12939095
3	0x3e14644d	0.14491387
4	0x3e95b6ee	0.29241127
5	0x3e257d51	0.16161086
6	0xbe45d2ff	-0.1931877
7	0x3dce4cf2	0.1007327
8	0x3e817391	0.25283483
9	0x3e66045a	0.22462597
10	0x3ea078e3	0.3134223
11	0xbd84d0c3	-0.06485131
12	0xbd342abb	-0.043986063
13	0xbe0e19b5	-0.13876994
14	0x3bd7e380	0.0065883994
15	0xbcecbd68	-0.02889891
16	0xbd9569c6	-0.07295565
17	0x39db4bdf	0.00041827463
18	0xbd9e1e30	-0.077206016
19	0xbe23c8ec	-0.15994614
20	0xbc302215	-0.010750313
21	0x3c39a876	0.011331668
22	0x3dacb19b	0.08432313
23	0xbd6d2642	-0.057897814
24	0x3e13707b	0.14398377
25	0x3e2b0b85	0.16703613
26	0xbd8cb3c7	-0.06870227
27	0x3db6562a	0.08903153
28	0x3c8c644c	0.017137669
29	0xbdf940c0	-0.12170553
30	0x3e7965cf	0.24355243
31	0xbe3caab9	-0.184245
32	0xbde13066	-0.109955594
33	0x3e310da9	0.17290367
34	0x3da5f424	0.08103207
35	0x3e2d2e1b	0.16912119
36	0xbe017e11	-0.12645747
37	0x3cfafac7	0.030637158
38	0xbe2ca171	-0.1685846
39	0x3dd29fb7	0.102843694
40	0xbe0c0e1e	-0.1367726
41	0xbe66a9d5	-0.22525723
42	0x3df1a782	0.11799528
43	0x3d760475	0.060062844
44	0xbe5fff0e	-0.2187464
45	0x3e6592a4	0.2241922
46	0xbe2c2ad3	-0.16813211
47	0xbd987acc	-0.07445297
48	0x3db3817a	0.0876493
49	0xbe1d2230	-0.15345073
50	0x3ea0cdb5	0.31406942
51	0x3e0e838d	0.1391737
52	0x3e40ba13	0.18820982
53	0x3e11c386	0.14234743
54	0xbdcde953	-0.10054269
55	0x3e36eab5	0.17862971
56	0x3e8ff016	0.2811286
57	0x3d2dd3db	0.04243837
58	0x3e3962a7	0.18104039
59	0xbcad1a5b	-0.021130731
60	0x3e64ee97	0.2235664
61	0x3e91945e	0.28433508
62	0x3c86a0c9	0.01643409
63	0xbd181283	-0.03712703

lstm.bias_hh_l2 f4 [64]
0	0x3d927b76	0.071524546
1	0x3dc21c49	0.09478051
2	0xbc9bef9c	-0.019035153
3	0xbada0782	-0.0016634318
4	0x3e809c8e	0.25119442
5	0xbdae17c7	-0.08500629
6	0xbe32fb04	-0.17478567
7	0xbdb2b666	-0.08726196
8	0x3e3a3a01	0.18186189
9	0x3ddb4ace	0.10707627
10	0x3e0e3be1	0.1389003
11	0xbdbd1fff	-0.092346184
12	0xbe0c36ea	-0.13692823
13	0x3e8dae55	0.27672067
14	0x3c8dead5	0.01732389
15	0xbd513337	-0.051074233
16	0xbdc21506	-0.09476666
17	0xbdf9632a	-0.12177117
18	0x3dbef6a0	0.09324384
19	0x3d045815	0.032310564
20	0x3ca36b52	0.019948635
21	0xbe1c7c50	-0.15281796
22	0xbcaab35d	-0.02083748
23	0xbe076e3f	-0.1322565
24	0x3d98aa82	0.07454397
25	0x3e2ca8ff	0.16861342
26	0x3daf3668	0.08555299
27	0x3d4bb486	0.049732707
28	0xbd7b11cb	-0.061296266
29	0x3b929462	0.004473255
30	0xbe281841	-0.16415502
31	0x3d116211	0.035493914
32	0xbdd6fd8f	-0.10497581
33	0x3d693a49	0.05694035
34	0x3e16eba6	0.1473833
35	0x3e0174a6	0.12642154
36	0x3deeba8c	0.11656675
37	0xbe29a289	-0.16565908
38	0xbdf07030	-0.11740148
39	0xbe7f9752	-0.24960068
40	0x3cd63fdf	0.026153503
41	0xbdaed5ba	-0.08536859
42	0x3d0aab02	0.033854492
43	0xbe37d987	-0.17954074
44	0x3e478cea	0.19487348
45	0x3e1870d5	0.14886792
46	0xbe3cc909	-0.18436064
47	0x3db1765c	0.086651534
48	0x3db8f94b	0.09031924
49	0x3e8ac8ab	0.27106223
50	0x3e8828f5	0.26593748
51	0x3dd3d934	0.103441626
52	0xbdf54310	-0.11975682
53	0x3e7607de	0.24026439
54	0x3e9a89d5	0.30183282
55	0x3e581a2c	0.21103734
56	0x3b028d80	0.0019920766
57	0x3e8b6ab9	0.2722986
58	0x3bcdd1de	0.0062811216
59	0x3e82e88d	0.25568047
60	0x3e755c79	0.23961057
61	0xbe448800	-0.19192505
62	0x3d879803	0.06620791
63	0xbd7c7a25	-0.061639924
