checkpoints/model_weights_epoch_30.pt (torch, 36335 bytes, 18 tensors)

lstm.weight_ih_l0 f4 [64, 1]
0	0x3e91c41e	0.28469938
1	0xbebaf202	-0.36512762
2	0xbd4afb83	-0.049556267
3	0xbdbdc1eb	-0.092655025
4	0xbdf4b579	-0.11948676
5	0xbee836b1	-0.45354226
6	0xbe30d647	-0.1726924
7	0x3d7e0b9c	0.06202279
8	0xbe989bb3	-0.2980629
9	0x3e966587	0.29374334
10	0xbe84e2e2	-0.25954348
11	0x3d3493bb	0.0440862
12	0xbd99c95f	-0.075091116
13	0xbeb7b9b9	-0.35883883
14	0xbe9414f7	-0.28922245
15	0xbd6b931f	-0.057513352
16	0x3db93e62	0.09045102
17	0xbe6d47f4	-0.23171979
18	0xbd34a5aa	-0.044103302
19	0xbeb17488	-0.3465922
20	0x3e735be1	0.23765518
21	0xbecdfe9a	-0.40233308
22	0xbe39cf0c	-0.18145388
23	0xbe016510	-0.12636209
24	0xbeed76ea	-0.46379787
25	0x3dcf9b42	0.10137035
26	0x3e8b770d	0.27239266
27	0xbe03d462	-0.12873986
28	0x3e7862fc	0.2425651
29	0xbd28f7d0	-0.041251957
30	0x3dc2194f	0.094774835
31	0xbee211ad	-0.4415411
32	0x3ebb08b0	0.36530066
33	0x3e1cc154	0.15308124
34	0x3d67a4c8	0.056553632
35	0xbe7e446a	-0.24830785
36	0x3e0e1484	0.13875014
37	0x3e825821	0.25457862
38	0x3e4d814b	0.20068853
39	0xbeb34e70	-0.3502078
40	0x3e612254	0.21985751
41	0xbe10eeef	-0.14153646
42	0xbeaa5aa0	-0.33272266
43	0x3c528d55	0.012851079
44	0x3e758b70	0.23978972
45	0xbe93fba4	-0.28902924
46	0x3eb56494	0.35428298
47	0xbd98cbb5	-0.07460729
48	0x3ea8eb60	0.32992077
49	0x3e30e596	0.1727508
50	0xbde1b795	-0.110213436
51	0x3d54820f	0.051881846
52	0x3eb3e498	0.3513534
53	0xbe3ec258	-0.18628824
54	0x3ec97b35	0.39351812
55	0x3e0f5ba8	0.13999808
56	0xbea4c5cb	-0.32182154
57	0x3eafcb5f	0.34334847
58	0x3e4ed23d	0.20197387
59	0xbe0896b4	-0.13338739
60	0xbd834660	-0.06409907
61	0x3d344776	0.044013463
62	0xbc36c48a	-0.011155257
63	0xbc9fe060	-0.01951617

lstm.weight_hh_l0 f4 [64, 16]
0	0xbd84e0db	-0.064882
1	0x3ede9447	0.43472502
2	0x3dc1e895	0.094681896
3	0x3e87cdb4	0.26524127
4	0x3e1cdb1c	0.15317959
5	0xbe957509	-0.29190853
6	0x3e6fe348	0.23426545
7	0xbe561c2d	-0.20909186
8	0xbe2c6343	-0.1683474
9	0xbceef5a3	-0.029169863
10	0xbd87c208	-0.066288054
11	0x3ec5f48c	0.38663137
12	0x3be82ed2	0.0070856595
13	0xbda7f84e	-0.08201657
14	0xbe079de6	-0.13243827
15	0x3eaa4311	0.33254293
16	0xbe266713	-0.16250257
17	0xbbf2575e	-0.007395669
18	0xbdb8087f	-0.089859955
19	0x3e88c6d6	0.267142
20	0xbe11b100	-0.14227676
21	0x3c8bba4f	0.017056612
22	0xbe5f3c96	-0.21800455
23	0x3df7da7f	0.12102222
24	0xbe094d5b	-0.13408415
25	0xbe8ba0a6	-0.27271003
26	0xbd90c7b3	-0.070693396
27	0x3caa1e33	0.020766353
28	0xbdc7285e	-0.09724496
29	0x3e00cebd	0.12578864
30	0xbd87ba33	-0.066273116
31	0x3eb34d4d	0.35019913
32	0x3ecd5cdd	0.40109912
33	0xbe42bc24	-0.19017082
34	0xbe3f10e8	-0.18658793
35	0xbe95234d	-0.29128495
36	0x3e04117e	0.12897298
37	0x3eb44bf7	0.35214207
38	0xbda8115d	-0.08206437
39	0xbd51c90e	-0.05121713
40	0xbcd56773	-0.026050305
41	0xbd78a7e6	-0.060706995
42	0xbe3c915a	-0.18414822
43	0xbe654eda	-0.2239336
44	0x3cdc6635	0.026904205
45	0xbdc10215	-0.09424225
46	0x3e2b2e8f	0.1671698
47	0xbeb51ba2	-0.35372645
48	0x3ea72372	0.3264423
49	0x3e891937	0.2677705
50	0x3e9af14c	0.3026222
51	0x3e1bb375	0.15205176
52	0x3ea10419	0.3144844
53	0xbeb32fd3	-0.34997424
54	0x3ed4d99a	0.41572267
55	0x3ddc4480	0.10755253
56	0x3beb68e6	0.0071841357
57	0xbc896874	-0.01677344
58	0xbd743572	-0.059621282
59	0x3ea52c1e	0.3226022
60	0x3eb507af	0.35357425
61	0x3dafc70d	0.08582888
62	0xbe9b5c15	-0.3034369
63	0x3eac68ea	0.33673793
64	0x3da50dfe	0.080593094
65	0xbde1aea8	-0.11019641
66	0x3e0bde2e	0.13658974
67	0xbc65d44e	-0.014027668
68	0xbd9bf86e	-0.076157436
69	0xbe17a35a	-0.14808407
70	0x3e067926	0.13132152
71	0x3e1c7b7a	0.15281478
72	0xbe4f9317	-0.20270954
73	0xbe7e597e	-0.24838826
74	0xbccd83cc	-0.02508726
75	0x3e78e7de	0.243072
76	0x3df7d902	0.12101938
77	0xbdc4161c	-0.095745295
78	0xbd24752f	-0.040150817
79	0x3dd0a286	0.10187249
80	0x3e690113	0.22754316
81	0x3dbdc890	0.0926677
82	0x3e4dc32e	0.20093986
83	0xbde7b35d	-0.11313508
84	0x3ea674ef	0.32511088
85	0xbc375aca	-0.011191079
86	0x3dbcb039	0.09213299
87	0xbe5a03fd	-0.21290584
88	0x3d3e4492	0.046452112
89	0xbeb7294e	-0.357737
90	0xbdce68e7	-0.10078602
91	0x3e21973f	0.15780352
92	0x3e8241a8	0.25440717
93	0x3e097b2d	0.13425894
94	0x3e11e669	0.14248051
95	0x3e126754	0.14297229
96	0xbdacacce	-0.084313974
97	0x3e821f45	0.25414482
98	0x3e08b7f5	0.13351424
99	0x3e97c216	0.29640263
100	0x3e89e304	0.26931012
101	0xbdd49ea4	-0.10381821
102	0x3d36409a	0.044495203
103	0xbd97f96a	-0.07420619
104	0xbd8a3c43	-0.06749775
105	0xbe88249a	-0.26590425
106	0x3dc109f2	0.09425725
107	0xbd28e467	-0.041233446
108	0x3e60eb10	0.21964669
109	0x3e45aa46	0.19303235
110	0x3d0f42a7	0.034975674
111	0xbda88953	-0.082293175
112	0x3e1e7f28	0.15478194
113	0x3d0e6e0b	0.034772914
114	0x3d8f71c1	0.07004119
115	0x3d90fe17	0.07079714
116	0x3dd7233b	0.105047666
117	0x3d93624a	0.071964815
118	0x3e05bd1c	0.13060421
119	0x3e05d06c	0.13067788
120	0x3c7e8761	0.0155352065
121	0xbe2e64ad	-0.17030592
122	0xbdfa7b9a	-0.122306064
123	0x3e4d1774	0.20028478
124	0x3ea462a3	0.32106504
125	0xbe42e0ea	-0.1903111
126	0xbe3e4d94	-0.18584281
127	0xbd8e7cb5	-0.0695738
128	0xbd3f9111	-0.046769205
129	0x3dff5e7d	0.12469194
130	0x3e7af91b	0.24509089
131	0xbdde7504	-0.10862163
132	0x3ea4457e	0.32084268
133	0xbe9c58e5	-0.3053657
134	0x3e960f41	0.29308513
135	0x3e257e9e	0.16161582
136	0xbdac4bd3	-0.084129
137	0x3d867546	0.06565337
138	0x3d8c3f2a	0.06847985
139	0x3e205539	0.1565751
140	0xbe7e8d9e	-0.2485871
141	0xbc1bd6f6	-0.0095117
142	0xbe9372a5	-0.28798404
143	0xbe13466c	-0.14382333
144	0xbe10579d	-0.14095922
145	0x3e8e853c	0.27836025
146	0xbe4f26da	-0.20229664
147	0x3dd622fb	0.10455891
148	0xbe13c969	-0.144323
149	0xbe117800	-0.14205933
150	0xbdfdd73c	-0.12394568
151	0x3e1e877f	0.15481375
152	0xbdeadd89	-0.11468036
153	0xbdb54261	-0.088505514
154	0xbe0996e0	-0.1343646
155	0x3e28b035	0.16473468
156	0x3df562cb	0.11981734
157	0x3e337092	0.17523411
158	0xbe42812e	-0.1899459
159	0xbe030a2a	-0.12796846
160	0x3ea2dfa5	0.31811252
161	0xbb8a8fd0	-0.0042285696
162	0x3d8e89b7	0.06959861
163	0x3e58180c	0.21102923
164	0x3e81d9d6	0.25361508
165	0xbdd6dcaf	-0.10491311
166	0x3e9ce7a6	0.30645484
167	0xbda572bc	-0.080785245
168	0xbd08e912	-0.0334254
169	0xbe3b9751	-0.18319441
170	0x3e3cf455	0.1845258
171	0x3e84ffd5	0.25976434
172	0x3e7161c7	0.23572455
173	0xbd6ba5fe	-0.05753135
174	0xbc818598	-0.015810773
175	0x3d4dfc29	0.050289307
176	0x3df68a37	0.12038081
177	0x3d872fd0	0.066009164
178	0x3e85d5e0	0.26139736
179	0x3e848044	0.2587911
180	0x3d917ef0	0.071042895
181	0xbe102b62	-0.14079049
182	0x3e94a6ca	0.290335
183	0xbc43c52b	-0.011948864
184	0xbd9a91e1	-0.075473554
185	0xbe3f0209	-0.1865312
186	0xbea09582	-0.31364065
187	0x3e5c26d7	0.21499191
188	0x3de01669	0.109417744
189	0x3e245865	0.16049345
190	0x3d854269	0.06506807
191	0xbe3893ed	-0.18025179
192	0xbc60e1f4	-0.013725746
193	0x3e2c2128	0.16809523
194	0x3dc1b29c	0.09457895
195	0x3d16e751	0.036841694
196	0xbd144c38	-0.0362055
197	0xbda53e25	-0.08068494
198	0xbe095bda	-0.13413945
199	0x3d9d9227	0.07693892
200	0xbd8453fd	-0.06461332
201	0xbcb57065	-0.02214832
202	0x3de07114	0.10959068
203	0x3e8d9b3c	0.27657497
204	0xbb835217	-0.0040075886
205	0x3e2b42c9	0.16724695
206	0xbe99a493	-0.30008373
207	0x3cab48e3	0.020908779
208	0x3cadbb70	0.021207541
209	0x3e2c8020	0.16845751
210	0xbdcc4e0f	-0.09975826
211	0x3debbd92	0.11510767
212	0x3eb94ba9	0.36190537
213	0x3d1ef79d	0.03881036
214	0x3dbed1ed	0.09317384
215	0xbeaa4c99	-0.33261564
216	0x3e0ff9c8	0.14060128
217	0xbd980ae9	-0.07423956
218	0xbe741fd5	-0.23840268
219	0x3e1473b4	0.14497262
220	0xbdaee217	-0.08539217
221	0xbe83b978	-0.2572744
222	0x3dbf0f7c	0.09329125
223	0x3cb41430	0.021982282
224	0x3df51b1e	0.11968063
225	0x3ea71531	0.32633355
226	0xbb82ee32	-0.0039956803
227	0x3e3d80d2	0.18506172
228	0x3d2f5667	0.04280701
229	0xbcd8dc58	-0.026472256
230	0x3d196c51	0.037456814
231	0x3db4cef6	0.08828537
232	0xbe876662	-0.264453
233	0xbee6dd20	-0.4509058
234	0xbe9304ae	-0.28714508
235	0x3e9055a3	0.28190336
236	0x3ecbf574	0.39835703
237	0x3c4dcedf	0.012561529
238	0x3e25cdad	0.1619174
239	0x3e9e0668	0.30864263
240	0x3ab581d7	0.0013847899
241	0xbd7e8c60	-0.06214559
242	0xbd089d4c	-0.033353135
243	0x3d85e5b1	0.06537951
244	0x39ad8a0b	0.0003309998
245	0xbd582510	-0.05276972
246	0x3c7296f3	0.014806497
247	0x3e01cdac	0.12676114
248	0xbe653b7c	-0.22385973
249	0xbcbf8704	-0.02337981
250	0x3daac917	0.08339136
251	0x3dd88715	0.1057264
252	0x3e07e54f	0.13271068
253	0x3e03c872	0.12869433
254	0xbe559001	-0.20855714
255	0xbe4aaa89	-0.19791616

lstm.bias_ih_l0 f4 [64]
0	0x3e4c9212	0.19977596
1	0x3e35f9a0	0.17771006
2	0xbe025638	-0.12728202
3	0x3cc7b1be	0.024376746
4	0x3e385f3b	0.18005078
5	0xbd8905ca	-0.06690557
6	0x3c2aa68e	0.010415686
7	0x3d63e99d	0.055642713
8	0x3d2599c6	0.040429853
9	0xbdae4dd0	-0.08510935
10	0xbcd5db7c	-0.026105635
11	0x3de612cc	0.11234054
12	0x3b344849	0.0027508906
13	0x3df3a4fd	0.118967034
14	0xbcbc6f05	-0.023002157
15	0x3db150a8	0.08657962
16	0x3aaa85d4	0.0013009855
17	0x3e158fb6	0.14605603
18	0x3e40d9d6	0.18833098
19	0x3e4b8b55	0.1987737
20	0x3e5ab6a4	0.21358734
21	0x3ce34eb9	0.027747499
22	0x3e82b7cd	0.25530854
23	0xbe541b0f	-0.20713447
24	0xbd895989	-0.067065306
25	0xbe71a267	-0.23597108
26	0xbd73c8ca	-0.05951766
27	0x3e84ed7c	0.25962436
28	0x3e222b04	0.15836722
29	0xbe40159c	-0.18758243
30	0x3cd677aa	0.026180107
31	0x3e08c1a9	0.13355125
32	0x3e8b3b2d	0.27193585
33	0x3e0dd0f7	0.13849245
34	0x3ddc90b8	0.107697904
35	0xbd7111b6	-0.05885478
36	0x3e592b9d	0.21208043
37	0xbe22830c	-0.15870303
38	0x3dd98100	0.10620308
39	0xbdaa2750	-0.083082795
40	0xbe5335e5	-0.20626028
41	0xbe8a0644	-0.26957905
42	0xbe0f37f4	-0.13986188
43	0x3e02849e	0.12745902
44	0x3da3bd95	0.07995144
45	0x3e1a6008	0.15075696
46	0xbc0e0c1a	-0.008669877
47	0x3e5d44b9	0.21608247
48	0x3e00d3b9	0.12580766
49	0x3d453964	0.048150435
50	0x3e783bbb	0.24241535
51	0x3deaa583	0.1145735
52	0xbdd523cb	-0.104072176
53	0xbd17c4e7	-0.037053015
54	0x3e1db87a	0.15402403
55	0xbe185f66	-0.14880142
56	0x3e804045	0.25049034
57	0x3e10fd0a	0.14159027
58	0xbde75c96	-0.11296956
59	0x3e18aea3	0.14910369
60	0xbd5f4324	-0.05450739
61	0xbdda4fe3	-0.106597684
62	0x3e8a2449	0.26980808
63	0x3dc727de	0.09724401

lstm.bias_hh_l0 f4 [64]
0	0x3c15a91d	0.009134558
1	0xbddccb40	-0.10780954
2	0x3dae4a53	0.0851027
3	0xbbf6b2c2	-0.007528634
4	0x3d93242a	0.07184632
5	0x3ddff016	0.10934465
6	0x3cd39b7f	0.025830982
7	0x3e61746d	0.22017069
8	0x3e8e0c3d	0.27743712
9	0x3e8ae7ab	0.27129874
10	0xbd05ff6d	-0.032714296
11	0x3e7d222d	0.24720068
12	0x3e83a8f3	0.25714836
13	0x3e0e90d7	0.1392244
14	0x3eac5bab	0.33663687
15	0xbd14c212	-0.036317892
16	0x3e141abf	0.14463328
17	0xbd43fc40	-0.047847986
18	0xbe3a23b0	-0.18177676
19	0x3e6b1a90	0.22959352
20	0x3d6d0b9a	0.057872392
21	0xbe63adb4	-0.22234231
22	0x3e5a8126	0.21338329
23	0xbdd4ee34	-0.10396996
24	0xbce774d5	-0.028253952
25	0xbd6e15ed	-0.05812638
26	0x3e4e5725	0.2015043
27	0xbb129bea	-0.0022370764
28	0xbe49daae	-0.19712326
29	0x3d04984b	0.0323718
30	0x3dfdc4d4	0.123910576
31	0x3e4eecdf	0.20207547
32	0xbe167e5a	-0.14696637
33	0x3d81e854	0.06343141
34	0x3e52e2f1	0.20594384
35	0x3c5ae60b	0.013360511
36	0x3db3c777	0.08778279
37	0x3d22637f	0.039645668
38	0x3e829065	0.2550079
39	0x3e34dce6	0.17662391
40	0x3dae44c4	0.0850921
41	0x3d693899	0.05693874
42	0x3e4dd9b2	0.20102575
43	0x3e5e4d17	0.21709095
44	0x3d01a27d	0.0316491
45	0x3db1325c	0.086521834
46	0xbe2cbcce	-0.16868898
47	0xbe2278db	-0.15866415
48	0x3ed875f8	0.42277503
49	0x3b5dd5aa	0.0033849278
50	0x3da222e2	0.079168096
51	0x3ebc385d	0.36761752
52	0x3e5391e3	0.2066112
53	0x3e15af5b	0.14617674
54	0xbe32cb8d	-0.17460461
55	0x3cb9e9ab	0.02269443
56	0xbd3fde30	-0.046842754
57	0x3de7217d	0.11285684
58	0x3e5dc143	0.21655755
59	0x3e028633	0.12746505
60	0x3ea7715e	0.3270368
61	0xbceae4eb	-0.02867361
62	0x3dffbb3e	0.124868855
63	0x3e3f2b44	0.18668848

lstm.weight_ih_l1 f4 [64, 16]
0	0x3d86e979	0.065875
1	0x3dfb2ffa	0.1226501
2	0x3e44af03	0.19207387
3	0x3eb234cd	0.3480591
4	0x3e8bc18c	0.27296102
5	0xbed08f81	-0.40734485
6	0x3db8e8c9	0.09028775
7	0xbe85c879	-0.2612951
8	0xbe4e5bc1	-0.20152189
9	0xbeb87b25	-0.36031452
10	0xbe793090	-0.24334931
11	0x3e436d06	0.19084558
12	0x3d0c08f8	0.03418824
13	0x3dd2e359	0.102972694
14	0x3e25637f	0.16151236
15	0x3dd13b97	0.10216444
16	0x3d7ef996	0.062249742
17	0x3ec9b667	0.39396974
18	0x3df7430f	0.12073337
19	0x3e675bdd	0.22593637
20	0x3e8ffc23	0.28122053
21	0xbdce91e5	-0.10086421
22	0xbe131510	-0.14363503
23	0x3deff631	0.11716879
24	0xbe919008	-0.284302
25	0xbc01547d	-0.007893679
26	0xbe44a804	-0.19204718
27	0x3e086b70	0.13322234
28	0x3e891cf8	0.26779914
29	0xbe6841f3	-0.22681408
30	0x3e43a153	0.19104509
31	0x3e0c250c	0.13686007
32	0xbe1354f3	-0.14387874
33	0x3e49a692	0.19692448
34	0x3e9f67ab	0.3113378
35	0x3dc4e707	0.096143775
36	0x3e095424	0.13411003
37	0xbd2c0492	-0.041996546
38	0x3e363326	0.17792949
39	0x3ed06cd1	0.4070802
40	0xbc9d743b	-0.019220462
41	0x3e624ef3	0.22100429
42	0xbddcb152	-0.10776009
43	0x3e4e7a19	0.20163764
44	0x3e093801	0.1340027
45	0x3de20733	0.110365294
46	0xbe4853c3	-0.19563203
47	0x3da9fef3	0.08300581
48	0x3e5d8cba	0.21635714
49	0x3e313b92	0.1730788
50	0x3e89d2e1	0.269187
51	0xbe766096	-0.24060282
52	0x3db368e1	0.087602384
53	0xbd9f6174	-0.077822596
54	0x3e783bb9	0.24241532
55	0x3c68e71b	0.014215256
56	0xbd876b70	-0.06612289
57	0x3d349521	0.044087533
58	0x3d0842f7	0.033266988
59	0x3e813720	0.2523737
60	0x3e8e3b67	0.27779695
61	0x3e144ed3	0.14483194
62	0x3e05c673	0.13063984
63	0x3db6dc32	0.08928718
64	0x3e9fa450	0.31180048
65	0x3eb07d01	0.3447037
66	0x3e64e832	0.223542
67	0xbc57a894	-0.013162751
68	0xbcb14fa2	-0.021644417
69	0x3e0b28bc	0.13589758
70	0x3e814090	0.2524457
71	0xbe0179d3	-0.12644129
72	0xbdb5633a	-0.088568166
73	0xbe011db5	-0.12608989
74	0xbe3ee728	-0.18642867
75	0x3d770d67	0.060315516
76	0x3e91bbfb	0.2846373
77	0xbe804203	-0.25050363
78	0x3ecba1d8	0.39771914
79	0x3e2a27ae	0.16616699
80	0x3ea553f0	0.32290602
81	0x3ab42493	0.001374381
82	0x3d7d2ae5	0.061808486
83	0x3dde445b	0.108528815
84	0xbd722d18	-0.059125036
85	0x3e96ead5	0.29476038
86	0xbd62fc5f	-0.05541646
87	0x3e159682	0.14608195
88	0x3e2561e8	0.1615063
89	0xbe3fa42e	-0.18714973
90	0xbe16a4bd	-0.1471128
91	0x3e8e18dd	0.27753344
92	0xbbdfb5b6	-0.0068270816
93	0xbddc7541	-0.10764552
94	0x3eb8977e	0.3605308
95	0xbe380ecd	-0.17974396
96	0x3c370c97	0.011172435
97	0x3c96533f	0.018350242
98	0x3e88f6f2	0.26750904
99	0xbe100ab6	-0.14066586
100	0xbdf6a9f7	-0.12044137
101	0x3e882a2e	0.2659468
102	0xbc1d6f8c	-0.009609114
103	0xbe9b9503	-0.30387124
104	0x3e753dc1	0.23949338
105	0xbea1c703	-0.31597146
106	0x3d9c1bd6	0.07622497
107	0x3d97abbc	0.074058026
108	0x3e23513d	0.15948959
109	0xbeb035b7	-0.3441598
110	0xbc192ba6	-0.0093487855
111	0xbcfb97ad	-0.030711973
112	0xbe886e22	-0.26646525
113	0x3e647600	0.22310638
114	0x3ea38d85	0.31943908
115	0x3e1bd576	0.15218148
116	0xbe505d78	-0.20348155
117	0xbe12efb4	-0.14349252
118	0x3e040bc5	0.12895115
119	0x3dc57221	0.09640909
120	0xbeae0441	-0.3398762
121	0x3d26ffb3	0.040771198
122	0x3e7c926f	0.24665235
123	0xbd613b9c	-0.05498849
124	0xbe80dc24	-0.25167954
125	0xba3c4c3a	-0.00071829895
126	0xbce2d51e	-0.027689513
127	0x3eb3c00a	0.35107452
128	0xbe06192f	-0.13095544
129	0x3eaa5e11	0.33274892
130	0x3e4728e0	0.19449186
131	0xbe812b86	-0.25228518
132	0x3d01aa1e	0.031656377
133	0xbe5a6730	-0.21328425
134	0xbe1e258b	-0.15444009
135	0xbde23a06	-0.11046223
136	0x3d530be8	0.051525027
137	0xbde3eac1	-0.1112876
138	0x3d8bc24c	0.068241686
139	0x3dbfaf98	0.09359664
140	0x3cdee9af	0.027211038
141	0xbeaabbd6	-0.33346432
142	0xbd080964	-0.03321208
143	0x3ec257fe	0.37957758
144	0x3e38c650	0.180444
145	0x3dbb30a0	0.09140134
146	0xbe37fee5	-0.17968328
147	0xbd36bccb	-0.04461364
148	0x3e3925a7	0.1808077
149	0xbdf6b498	-0.12046164
150	0x3e38efef	0.18060277
151	0xbe090227	-0.13379727
152	0xbe12811d	-0.14307065
153	0xbebb8ce4	-0.3663093
154	0xbd0769b3	-0.033059787
155	0x3e8c3bdc	0.2738942
156	0xba28faa1	-0.0006446038
157	0xbecaec64	-0.39633477
158	0x3e6372fc	0.22211832
159	0xbdb7731e	-0.08957504
160	0xbe9e6f04	-0.30944073
161	0x3cc0305c	0.02346056
162	0x3e83d852	0.25750977
163	0xbe218b2e	-0.15775749
164	0xbc4a79e9	-0.012358167
165	0xbe7087bc	-0.23489279
166	0x3dab92c7	0.08377605
167	0x3dfb7226	0.122776315
168	0xbe1fe6b8	-0.15615356
169	0x3c602e61	0.013682933
170	0xbde5b06c	-0.112152904
171	0xbe2ef765	-0.17086561
172	0xbddf5e3a	-0.10906644
173	0x3ebcd09a	0.368779
174	0xbc11e573	-0.008904803
175	0x3d0a6b7d	0.033793915
176	0x3e625613	0.22103147
177	0x3e61cf57	0.2205175
178	0x3d87e709	0.06635863
179	0x3dbb47d6	0.09144561
180	0xbd39ae91	-0.045332495
181	0xbc138abb	-0.009005244
182	0xbda271b5	-0.07931844
183	0xbe53c26a	-0.20679632
184	0x3d314c5c	0.043285713
185	0x3d84f2d1	0.06491626
186	0xbdccee90	-0.1000644
187	0xbe30cc55	-0.17265446
188	0x3dd91e1d	0.10601447
189	0xbdee1546	-0.11625151
190	0x3d99de7b	0.07513138
191	0x3e940fc4	0.28918278
192	0xbe8cbbe6	-0.27487105
193	0xbe805e27	-0.25071833
194	0x3ec56b8a	0.38558608
195	0xbccd44ea	-0.025057275
196	0x3e455d8f	0.19273971
197	0xbd94b5ea	-0.0726126
198	0xbe4c16b2	-0.19930533
199	0xbce98618	-0.028506324
200	0x3d0132ad	0.03154247
201	0x3e1c068a	0.1523687
202	0xbdda46fe	-0.10658072
203	0x3e3621c6	0.17786321
204	0xbd6dea24	-0.058084622
205	0x3e5d4672	0.21608904
206	0x3dc9a660	0.09846187
207	0x3e8ca457	0.2746913
208	0x3e43e0ea	0.19128767
209	0xbc0e464d	-0.008683753
210	0x3e525d12	0.20543316
211	0x3d68f436	0.056873523
212	0x3e597c0c	0.21238726
213	0x3d41d11c	0.047318563
214	0x3da873b9	0.08225197
215	0x3c5f1d28	0.013617791
216	0xbe3a8e80	-0.18218422
217	0xbc2d7a4a	-0.010588238
218	0xbe2a92bf	-0.16657542
219	0x3d030d09	0.031994853
220	0xbde77eb3	-0.11303463
221	0x3dccb1b0	0.09994829
222	0xbd11a6b2	-0.035559364
223	0xbc60ed14	-0.013728399
224	0x3daa9b94	0.083304554
225	0x3e378f9b	0.17925875
226	0xbc65c62e	-0.0140243005
227	0x3e242476	0.16029534
228	0x3e816798	0.25274348
229	0xbe3dd47e	-0.1853809
230	0x3dc923fb	0.09821316
231	0xbde3c2c7	-0.11121135
232	0x3e165239	0.14679803
233	0xbe14b2f5	-0.14521392
234	0xbdeaabb2	-0.114585295
235	0xbd56706c	-0.052353308
236	0x3e757f7d	0.23974414
237	0xbd01b69f	-0.0316683
238	0x3c231987	0.009954817
239	0x3e7e97c0	0.24862576
240	0xbd4655fb	-0.04842184
241	0x3d8da276	0.069157526
242	0xbd605d33	-0.05477638
243	0xbe55bd25	-0.20872934
244	0xbd8d7450	-0.069069505
245	0x3e96101d	0.29309168
246	0xbb05824a	-0.0020371848
247	0xbe5a11c7	-0.21295844
248	0xbd241d98	-0.040067285
249	0xbeb45e88	-0.35228372
250	0xbcac1ab7	-0.021008832
251	0x3e9b7a7e	0.30366892
252	0x3e45ea01	0.19327547
253	0xbeda874c	-0.42681348
254	0xbce2a1f2	-0.027665112
255	0x3e834801	0.25640872

lstm.weight_hh_l1 f4 [64, 16]
0	0x3d612538	0.054967135
1	0xbeaeff15	-0.34178987
2	0x3e05cb73	0.13065891
3	0x3db0991c	0.08622953
4	0x3de1612d	0.11004863
5	0xbdbd0349	-0.09229142
6	0xbd42e5ef	-0.047582563
7	0xbe9ebd78	-0.31003928
8	0x3d3a126a	0.045427717
9	0xbd8e2acd	-0.06941757
10	0xbdaac90a	-0.083391264
11	0x3e8d2ab0	0.2757163
12	0xbd7d9734	-0.061911777
13	0xbd44ec96	-0.04807719
14	0xbdfade49	-0.12249429
15	0x3e0c7b83	0.13718991
16	0x3e890f43	0.26769456
17	0xbe5b5d80	-0.21422386
18	0x3e85bfea	0.2612298
19	0x3e49eead	0.19719954
20	0x3d5d6c09	0.05405811
21	0x3e717113	0.2357829
22	0x3e0a2fe0	0.13494825
23	0xbe97dc30	-0.29660177
24	0x3d474fb4	0.048659995
25	0xbd3a8a47	-0.045542028
26	0xbe9b252f	-0.30301806
27	0xbdfbb298	-0.122899234
28	0x3db58fb9	0.088653035
29	0xbd500d37	-0.050793853
30	0x3e1abe7f	0.15111731
31	0xbe87fdea	-0.2656091
32	0xbc505e2c	-0.012717765
33	0xbeb35cf0	-0.35031843
34	0x3e8c5dc3	0.27415285
35	0x3e279afe	0.16367719
36	0x3ebe6515	0.37186494
37	0xbe864d14	-0.2623068
38	0x3d7b503a	0.061355807
39	0xbe8c6a2a	-0.27424747
40	0xbe3e3528	-0.18574965
41	0x3e0a8504	0.13527304
42	0x3d54c3c8	0.051944524
43	0x3dcaf660	0.099102736
44	0x3e80c347	0.25148985
45	0x3b7a424b	0.0038186486
46	0x3e17083c	0.14749235
47	0xbdee66fa	-0.11640735
48	0x3dce82a1	0.10083509
49	0xbdfb7240	-0.12277651
50	0xbd81999e	-0.06328128
51	0x3e758b0a	0.2397882
52	0xbdb13880	-0.08653355
53	0xbdc03c96	-0.09386556
54	0x3ec35ca4	0.38156617
55	0x3d941ee5	0.07232455
56	0xbeb12119	-0.34595564
57	0x3e952375	0.29128614
58	0xbdc18b70	-0.09450424
59	0x3e02406a	0.12719885
60	0xbc8269d9	-0.015919613
61	0x3e323cf6	0.17406067
62	0xbd6afbbe	-0.057368986
63	0xbeb2cc3d	-0.34921446
64	0x3eb11249	0.34584263
65	0xbe67beb7	-0.22631346
66	0xbe63d5d0	-0.22249532
67	0x3c297437	0.010342649
68	0x3de7f269	0.11325533
69	0xbe1dfa88	-0.15427601
70	0x3d5a7e87	0.053343322
71	0x3e3e3e46	0.18578443
72	0xbdde6718	-0.10859507
73	0xbcb8cee1	-0.022559585
74	0x3df40448	0.11914879
75	0x3e234edd	0.15948053
76	0x3d648b33	0.055796813
77	0x3e4e3d9e	0.20140693
78	0xbdc92ac3	-0.09822609
79	0xbdbf3ef7	-0.093381815
80	0xbd5518e9	-0.05202571
81	0xbe8d91b4	-0.27650225
82	0x3dc73c2e	0.09728275
83	0x3d3ebaa0	0.0465647
84	0xbe38709b	-0.18011706
85	0xbe8037a5	-0.25042453
86	0xbda5ce7f	-0.08096027
87	0xbdb52f9d	-0.08846972
88	0x3ddcaf45	0.107756175
89	0xbe01bb3d	-0.12669082
90	0xbdd68173	-0.10473909
91	0x3d8048af	0.06263863
92	0xbe748b33	-0.23881225
93	0xbddeeb0a	-0.10884674
94	0xbd52203f	-0.051300284
95	0xbc08a2ec	-0.008339625
96	0xbd7a7fba	-0.061156966
97	0xbe672f95	-0.22576745
98	0x3e2e4039	0.17016686
99	0xb9b1cd4d	-0.00033913032
100	0x3dbb0cd2	0.09133305
101	0xbd06277b	-0.032752495
102	0x3e2d7320	0.16938448
103	0x3df31431	0.118690856
104	0xbdeca8e0	-0.11555648
105	0x3e9b60f9	0.30347422
106	0x3dcde9e3	0.10054376
107	0x3e875e5f	0.26439187
108	0x3de2fed6	0.11083762
109	0xbe20ad78	-0.15691173
110	0x3e34cd2f	0.17656396
111	0xbe5eddd3	-0.21764307
112	0xbda00174	-0.07812777
113	0xbd99a61b	-0.07502385
114	0xbc687440	-0.014187872
115	0x3d79e617	0.061010446
116	0x3e7287a0	0.2368455
117	0xbe48002a	-0.19531313
118	0x3e78a5ab	0.24281947
119	0x3dadf1d2	0.08493389
120	0x3e58e31e	0.21180388
121	0x3e2d6ea1	0.16936733
122	0xbd7daf45	-0.06193473
123	0x3d11f88d	0.035637427
124	0x3e51689f	0.20450066
125	0x3d760e8f	0.060072478
126	0x3d805276	0.06265728
127	0x3d3b62fe	0.045748703
128	0xbe18dca3	-0.14927916
129	0x3dfab210	0.12240994
130	0x3d1d02e4	0.038332835
131	0x3dda00b9	0.10644669
132	0x3d9948f5	0.074846186
133	0xbe0ec9a1	-0.13944103
134	0xbd23730f	-0.03990465
135	0x3d13a939	0.036050055
136	0xbd4f5631	-0.050619308
137	0xbdb631e2	-0.08896233
138	0x3da19758	0.07890195
139	0x3e393ace	0.18088838
140	0x3d0a4c3d	0.033764113
141	0xbdddb25e	-0.108250365
142	0x3d93c5f4	0.07215491
143	0xbe9251dc	-0.2857808
144	0x3e6d3a6c	0.23166817
145	0x3ad16cb3	0.001597783
146	0xbe2813d6	-0.16413817
147	0x3df60134	0.12011948
148	0x3e0a1ce9	0.13487591
149	0xbe0f74ba	-0.14009371
150	0xbdb02ef7	-0.08602708
151	0xbe4e3a57	-0.20139442
152	0xbe8a4697	-0.2700698
153	0xbe328bdc	-0.17436165
154	0x3bb1d0ba	0.0054264935
155	0x3e2b3ac8	0.16721642
156	0xbc0f17ab	-0.00873367
157	0x3e5a1729	0.21297897
158	0x3e1260b1	0.14294697
159	0x3e0a9f5a	0.1353735
160	0x3cc4ffaf	0.0240477
161	0x3c30e1aa	0.01079599
162	0xbc72a6fc	-0.01481032
163	0x3e896e20	0.2684183
164	0x3e3c1444	0.18367106
165	0x3db10575	0.08643619
166	0xbd7c7aeb	-0.06164066
167	0x3cabefc6	0.020988356
168	0xbec5524a	-0.38539344
169	0xbe006551	-0.12538649
170	0xbe61bc93	-0.22044592
171	0xbdfcbfff	-0.12341308
172	0xbdea2bb3	-0.11434116
173	0x3e3da81c	0.1852116
174	0xbdaf5f12	-0.08563055
175	0x3a2ceba6	0.00065963937
176	0xbd5109d5	-0.051034767
177	0x3e53006a	0.20605627
178	0xbe8da5eb	-0.27665648
179	0x3df6cdda	0.12050982
180	0x3d994172	0.07483186
181	0x3deb2f8a	0.11483677
182	0xbe417c74	-0.18895131
183	0xbdcc759c	-0.0998337
184	0xbe1a5605	-0.15071876
185	0x3d19dcd9	0.037564132
186	0xbe7b7579	-0.24556531
187	0xbd632d60	-0.055463195
188	0xbd9c852e	-0.076425895
189	0xbe12c327	-0.14332257
190	0xbe3b8aaf	-0.18314622
191	0xbe4ac2da	-0.19800892
192	0x3e2fcbf5	0.17167647
193	0xbe56a28f	-0.20960449
194	0x3e9dde89	0.30833843
195	0xbd4bef96	-0.049789034
196	0x3e425a68	0.189798
197	0xbea7719a	-0.3270386
198	0x3e6051c6	0.21906194
199	0xbdeb9ea6	-0.11504869
200	0xbdbbe551	-0.09174598
201	0x3cfe97c8	0.031078234
202	0xbe5b0bab	-0.2139117
203	0xbc1ba274	-0.009499181
204	0xbd424f67	-0.047439005
205	0x3e217920	0.15768862
206	0x3ee22db4	0.44175494
207	0xbe64b9d3	-0.22336511
208	0x3e8b8a87	0.27254125
209	0x3d493180	0.049119473
210	0xbe5bf7f8	-0.21481311
211	0xbd52dcab	-0.051479977
212	0xbcf0024f	-0.029297976
213	0xbe432e64	-0.19060665
214	0x3e225ccc	0.15855712
215	0xbca77c7d	-0.020445103
216	0xbe88896b	-0.26667342
217	0xbd3c931e	-0.04603874
218	0x3e0bb87d	0.13644595
219	0x3e25c761	0.16189338
220	0x3d5843f9	0.0527992
221	0x3d130b28	0.03589931
222	0xbd051898	-0.032494158
223	0xbe245078	-0.16046321
224	0x3e3cfcce	0.18455812
225	0x3dee07f8	0.11622614
226	0x3e2ee7bf	0.17080592
227	0x3eb2a117	0.34888527
228	0x3e71692e	0.23575279
229	0xbdefef8c	-0.11715612
230	0x3e7b682f	0.24551462
231	0xbe92b43c	-0.28653133
232	0xbe92afc1	-0.28649715
233	0x3be766e6	0.007061827
234	0x3d23ac40	0.039959192
235	0xbd9f319f	-0.07773136
236	0x3dd44be5	0.10366038
237	0x3cc859a3	0.024456805
238	0x3cc17928	0.023617342
239	0xbea7af3d	-0.32750884
240	0x3e7fff59	0.24999751
241	0xbe537b98	-0.20652616
242	0xbe5c9809	-0.21542372
243	0x3d2901bf	0.04126143
244	0x3e0f788e	0.14010832
245	0x3ce7dd0c	0.028303646
246	0x3d720372	0.059085317
247	0xbd1dcb83	-0.038524162
248	0x3cd3dc48	0.025861874
249	0x3e7967b4	0.24355966
250	0x3db3a72a	0.087721184
251	0xbdf40061	-0.11914135
252	0xbd9aefc6	-0.075652644
253	0xbd192284	-0.037386432
254	0xbd3f1ed3	-0.046660256
255	0x3df1486e	0.11781393

lstm.bias_ih_l1 f4 [64]
0	0x3e18c8fd	0.14920421
1	0x3ea47e7d	0.32127753
2	0x3db99c84	0.09063056
3	0x3db79b22	0.08965136
4	0x3c95e02e	0.018295374
5	0x3e96d858	0.29461932
6	0xbdf9bb2c	-0.12193903
7	0xbd105fab	-0.035247486
8	0xbd44ca55	-0.04804452
9	0x3e8eb79d	0.2787446
10	0x3cfe0b82	0.031011347
11	0xbdaa9cbe	-0.083306774
12	0x3dc73292	0.097264424
13	0x3e081990	0.13291001
14	0x3d457f5e	0.04821717
15	0xbda4ea33	-0.080524825
16	0x3e011a0e	0.12607595
17	0xbe3b923c	-0.18317503
18	0xba829e24	-0.0009965342
19	0x3e8eda1a	0.27900773
20	0xbd2eda4b	-0.04268865
21	0x3e2ac0d4	0.1667512
22	0xbd2e25b4	-0.042516425
23	0x3c88ce97	0.016700072
24	0x3d67e1d1	0.05661184
25	0x3da3ad8a	0.07992084
26	0xbcf578dd	-0.029964859
27	0x3e0fe8a0	0.14053583
28	0xbe2b3511	-0.16719462
29	0xbe286bb5	-0.16447337
30	0x3e5160a9	0.20447029
31	0xbe204581	-0.15651514
32	0x3e209125	0.15680368
33	0x3e159279	0.14606656
34	0xbd6e0eee	-0.058119707
35	0xbdd64c71	-0.10463799
36	0x3e5d5184	0.21613127
37	0x3e303461	0.17207481
38	0x3dad0158	0.08447522
39	0xbdccaa1f	-0.099933855
40	0x3d55454f	0.05206805
41	0x3d9fc394	0.078009754
42	0xbe0e6957	-0.13907371
43	0x3d339e81	0.043852333
44	0xbde39f2c	-0.11114344
45	0x3e3cdabd	0.18442817
46	0x3bc9f4cb	0.006163215
47	0x3e3f5cd8	0.18687761
48	0x3eb8b5e8	0.36076283
49	0x3e535596	0.20638117
50	0x3e6e4a06	0.23270425
51	0x3dd09314	0.10184303
52	0x3da4c377	0.080450945
53	0x3e0407c5	0.12893589
54	0x3cd82a16	0.026387256
55	0xbc54ea14	-0.012995262
56	0xbd7bea39	-0.06150267
57	0x3e21d081	0.15802194
58	0x3e94fa4c	0.2909721
59	0x3d84589c	0.064622134
60	0xbda298cb	-0.07939299
61	0x3da67017	0.08126848
62	0xbde8b304	-0.113622695
63	0xbd97f8da	-0.074205115

lstm.bias_hh_l1 f4 [64]
0	0x3e2c3458	0.16816843
1	0x3d068220	0.03283894
2	0xbdc8419e	-0.097781405
3	0xbe0218d9	-0.12704791
4	0x3e045883	0.1292439
5	0x3d272c9a	0.04081402
6	0xbd328d89	-0.04359201
7	0xbdfdb37f	-0.12387752
8	0x3e0d261a	0.13784066
9	0x3ce87861	0.028377714
10	0x3e846705	0.25859848
11	0xbe67edef	-0.22649358
12	0x3e8ccf02	0.27501684
13	0x3e7fb0d9	0.24969806
14	0xbdb3a1de	-0.08771108
15	0x3ba7ae25	0.005117195
16	0x3e6c9288	0.23102772
17	0x3cb8d2e6	0.022561502
18	0xbe3a1245	-0.18171032
19	0xbc220c1b	-0.0098905815
20	0x3e8cf08b	0.2752727
21	0x3d8b4035	0.06799356
22	0xbe52cf4c	-0.2058689
23	0x3d9cd54c	0.07657871
24	0xbdb07129	-0.086153336
25	0x3c402196	0.0117267575
26	0xbe344f06	-0.1760827
27	0x3ca1f4fe	0.019770142
28	0xbe2c2867	-0.16812287
29	0xbc4afc48	-0.01238925
30	0x3e0420c5	0.12903126
31	0x3de9551a	0.11393185
32	0x3e55cfde	0.20880076
33	0xbded6980	-0.11592388
34	0x3e08d535	0.13362582
35	0x3e894016	0.26806706
36	0x3e40ccf3	0.18828182
37	0xbe8290a1	-0.25500968
38	0x3dd191d0	0.1023289
39	0xbccf60c3	-0.025314694
40	0xbdf06ecb	-0.11739882
41	0x3e5a493d	0.21317
42	0xbdddbe19	-0.10827274
43	0x3e5443b4	0.20728952
44	0x3e68f912	0.22751263
45	0x3ddb93d7	0.107215576
46	0xbdc36da8	-0.095424
47	0xbe39576c	-0.18099755
48	0x3e5d0922	0.21585515
49	0x3db4194a	0.08793886
50	0x3e3fb572	0.1872156
51	0xbe0e274e	-0.13882181
52	0x3e4dc8c2	0.20096114
53	0x3e1ffac3	0.15623002
54	0x3d8cc374	0.06873217
55	0xbd97b75e	-0.074080214
56	0x3ea76453	0.3269373
57	0x3e46e839	0.19424523
58	0xbe4ca9ac	-0.199866
59	0x3e2d46fc	0.1692161
60	0xbd5d8894	-0.05408533
61	0xbd198fdf	-0.03749072
62	0xbde23222	-0.11044718
63	0xbcf96118	-0.030441806

lstm.weight_ih_l2 f4 [64, 16]
0	0xbe58b428	-0.21162474
1	0x3e1a2829	0.15054382
2	0x3e6c6509	0.23085417
3	0x3e01adbc	0.1266393
4	0xbdd74273	-0.10510721
5	0xbcd41281	-0.02588773
6	0x3e73acf4	0.23796445
7	0xbe54cc7e	-0.20781133
8	0x3d4953b5	0.049152095
9	0xbe4eac97	-0.20183025
10	0xba722086	-0.0009236414
11	0xbe3032b6	-0.17206845
12	0x3d89ba25	0.067249574
13	0x3e0df65a	0.13863507
14	0xbd982256	-0.07428424
15	0xbe106c18	-0.14103734
16	0xbdee1e3f	-0.11626863
17	0xbd64024a	-0.055666246
18	0x3c4eb910	0.0126173645
19	0x3ea6a015	0.32544008
20	0x3e85802a	0.26074344
21	0x3a97f269	0.001159263
22	0x3dec9e0a	0.11553581
23	0x3b483fcf	0.003055561
24	0x3b607bef	0.0034253558
25	0x3c7e424d	0.015518737
26	0xbe1bf362	-0.15229562
27	0x3e803b3e	0.25045198
28	0x3bf41dbc	0.0074498337
29	0x3e85ab8d	0.26107445
30	0xbdc115d0	-0.094279885
31	0xbe8ea524	-0.27860367
32	0x3e05f521	0.1308179
33	0x3d906535	0.07050554
34	0x3e9dd7dc	0.3082875
35	0x3cbb7e2a	0.022887308
36	0xbcb0c972	-0.021580432
37	0xbea5de1f	-0.32396027
38	0x3e9deec6	0.30846232
39	0xbe71ec66	-0.23625335
40	0xbe6a6a60	-0.22892141
41	0x3e039da0	0.12853098
42	0x3d3d4e74	0.046217397
43	0xbd8c951b	-0.06864377
44	0x3e34a595	0.1764129
45	0x3da6309d	0.08114741
46	0x3e5cf96c	0.21579522
47	0x3bdca81d	0.006733908
48	0xbe819fc5	-0.25317207
49	0x3cdc68f8	0.026905522
50	0x3ec7e086	0.39038485
51	0xbda06a4b	-0.07832774
52	0x3dc012db	0.093785964
53	0x3e02c1de	0.12769267
54	0x3dc01d84	0.0938063
55	0x3cc3ba21	0.023892464
56	0x3e553069	0.20819248
57	0xbe30e76d	-0.17275782
58	0xbe4898d3	-0.19589548
59	0x3e6cd5a9	0.2312838
60	0x3d814519	0.063120075
61	0xbe7ee9b8	-0.24893844
62	0xbd684c8e	-0.056713633
63	0x3d9b2e54	0.07577196
64	0xbbb581c4	-0.005539151
65	0xbe9017fd	-0.28143302
66	0x3d354e8a	0.044264354
67	0x3d65d233	0.056108665
68	0x3e1a3be3	0.15061907
69	0x3dd3d520	0.10343385
70	0xbd1c713e	-0.038193934
71	0xbe9fa8ee	-0.3118357
72	0xbe7b5898	-0.24545515
73	0xbd2d161a	-0.042257406
74	0xbe2e9769	-0.17049946
75	0x3e5835f4	0.21114331
76	0x3e0c65d3	0.13710718
77	0x3e05a245	0.13050182
78	0x3d55ff88	0.052245647
79	0x3d897af0	0.067129016
80	0xb9caf514	-0.0003871104
81	0xbd4e951c	-0.05043517
82	0x3ef1aa2b	0.4720014
83	0x3e363c3c	0.17796415
84	0x3e4376bf	0.19088267
85	0x3e4bad80	0.19890404
86	0xbca256a2	-0.0198167
87	0xbecd9656	-0.4015376
88	0x3e2e6943	0.17032342
89	0xbdf88305	-0.12134365
90	0xbec0345b	-0.37539944
91	0xbe20cea1	-0.15703823
92	0x3c86a837	0.016437633
93	0xbd2a798f	-0.041619834
94	0xbe282572	-0.16420534
95	0xbdcd13cb	-0.10013541
96	0x3e0ae152	0.13562515
97	0xbcb9cfa2	-0.022682015
98	0xbeca0a91	-0.39461187
99	0x3e4e2f97	0.20135342
100	0x3e62f0fc	0.2216224
101	0xbe9601fb	-0.29298386
102	0xbb5f8530	-0.0034106486
103	0xbb1d1742	-0.0023970162
104	0xbe9abe05	-0.30223098
105	0x3e8fb1f1	0.28065446
106	0x3e0b54fe	0.1360664
107	0x3da35a3c	0.07976195
108	0xbe5a7716	-0.2133449
109	0x3bb6aa21	0.00557448
110	0x3e809bb0	0.2511878
111	0xbe92936e	-0.28628105
112	0x3d5cf020	0.05393994
113	0x3d9121f8	0.07086557
114	0x3cf94e28	0.030432776
115	0x3e3a87ea	0.1821591
116	0x3e342d11	0.17595316
117	0xbe021934	-0.12704927
118	0xbc69290e	-0.01423098
119	0x3e581ea4	0.21105438
120	0xbd9c44e4	-0.07630327
121	0x3e6d5b88	0.23179448
122	0x3e501e04	0.2032395
123	0xbe08d30f	-0.13361762
124	0xbe42c976	-0.19022164
125	0x3e7e620b	0.24842088
126	0x3d835d9a	0.064143375
127	0x3bb6b541	0.0055758064
128	0xbe040bb2	-0.12895086
129	0xbe2d6296	-0.16932139
130	0xbd7c2939	-0.06156275
131	0x3e9a65cd	0.30155793
132	0x3e4d6e35	0.20061572
133	0x3e098970	0.13431334
134	0x3d54b9ee	0.05193513
135	0xbe3c6d0f	-0.18400978
136	0xbc3d4071	-0.011551009
137	0x3e040d56	0.12895712
138	0x3db339cb	0.087512575
139	0x3e8e66f5	0.27812925
140	0x3e8b06dd	0.27153674
141	0x3e86b28c	0.26308095
142	0x3e20a0a5	0.15686281
143	0xbab69af1	-0.0013931674
144	0xbd01a4b9	-0.031651232
145	0xbd5384bf	-0.05164027
146	0x3db2cbc1	0.08730269
147	0x3dd95dc1	0.10613585
148	0x3dd6a07c	0.10479829
149	0xbe7a1b65	-0.24424513
150	0xbd8689a7	-0.06569224
151	0xbdc62f42	-0.096769825
152	0x3d47dd5e	0.048795097
153	0x3d740e37	0.05958387
154	0xbe7203e1	-0.23634292
155	0xba8113fb	-0.0009847874
156	0x3e22e924	0.15909249
157	0xbc715282	-0.014729144
158	0x3debc0cb	0.11511382
159	0xbe11c73e	-0.14236161
160	0xbdb9e683	-0.0907717
161	0x3e2c4c9a	0.16826096
162	0x3e10f30b	0.14155214
163	0xbdfd9dfc	-0.12383649
164	0x3d887fd2	0.06665005
165	0xbe831d31	-0.2560821
166	0x3e505143	0.20343499
167	0xbe8e1b45	-0.2775518
168	0xbd360339	-0.044436667
169	0xbe052334	-0.1300171
170	0xbdf6adea	-0.1204489
171	0xbdf609ba	-0.12013574
172	0xbd671d35	-0.05642434
173	0x3d872ba3	0.0660012
174	0x3e147787	0.14498721
175	0xbde36511	-0.11103261
176	0x3dff4698	0.124646366
177	0x3e197709	0.14986815
178	0xbd111f9f	-0.035430547
179	0x3d4fc574	0.050725415
180	0xbe37fae5	-0.17966802
181	0xbda926f5	-0.082593836
182	0x3d9d7c5c	0.07689735
183	0x3e2f086c	0.17093056
184	0x3b370474	0.0027926238
185	0xbdd25b63	-0.10271337
186	0x3e0f8764	0.14016491
187	0xbc984e86	-0.01859213
188	0xbd6e9b9f	-0.05825388
189	0xbde3603c	-0.111023396
190	0x3e9ab334	0.30214846
191	0xbd5e4835	-0.05426808
192	0xbc799eb0	-0.015235588
193	0xbeacea8b	-0.33772692
194	0x3dade4d9	0.08490915
195	0x3e8ded3b	0.27720055
196	0xbe0c3a94	-0.13694221
197	0xbeaee140	-0.34156227
198	0xbd3d2e99	-0.046187017
199	0xbe2e817c	-0.17041582
200	0xbe6fc8ca	-0.23416439
201	0xba98ea80	-0.0011666566
202	0x3dbccbf1	0.09218586
203	0x3d012475	0.03152891
204	0x3d855d51	0.06511939
205	0xbcc34b9c	-0.023839764
206	0xbd8ab369	-0.06772501
207	0xbe4e3c65	-0.20140226
208	0xbdecbb8a	-0.11559208
209	0xbe2de373	-0.16981296
210	0x3e466976	0.19376168
211	0x3e8c5ba7	0.27413675
212	0x3e866d3e	0.2625522
213	0xbcd57a4c	-0.026059292
214	0xbdbb3698	-0.09141272
215	0xbe202e98	-0.15642774
216	0xbdc0e431	-0.09418524
217	0x3e535297	0.20636974
218	0xbcad7c8f	-0.021177558
219	0xbd69773c	-0.056998476
220	0x3d83526e	0.064122066
221	0x3e66bffa	0.22534171
222	0x3d02a3f1	0.031894628
223	0xbe193bde	-0.14964244
224	0x3d7caf47	0.061690595
225	0xbe03d41d	-0.12873884
226	0x3ebd0966	0.36921233
227	0x3d7bddcb	0.061490815
228	0x3dde18ec	0.10844597
229	0x3ab46769	0.0013763729
230	0xbd2221fe	-0.0395832
231	0xbe18ff36	-0.14941105
232	0x3e23b6f9	0.15987767
233	0x3eb8c0f8	0.36084723
234	0x3d878a8b	0.06618222
235	0x3bf41506	0.0074487953
236	0x3e4cb9a0	0.19992685
237	0x3e622c81	0.2208729
238	0xbdfceb97	-0.12349623
239	0x3dbef132	0.09323348
240	0xbe09757c	-0.13423723
241	0xbe545d40	-0.20738697
242	0x3d1dcc45	0.038524885
243	0xbe2e77be	-0.17037866
244	0xbd93c603	-0.07215502
245	0xbc86a389	-0.016435402
246	0xbcd73630	-0.026270956
247	0xbe60f853	-0.21969728
248	0xbe840cf2	-0.25791126
249	0x3e9d0256	0.30665845
250	0x3a6b1034	0.0008966953
251	0x3da571a4	0.08078316
252	0xbd8546c9	-0.06507642
253	0xba7fd847	-0.0009759706
254	0x3d8296d3	0.06376424
255	0xbeba56cf	-0.36394355

lstm.weight_hh_l2 f4 [64, 16]
0	0xbe545fc5	-0.20739658
1	0x3e14e559	0.14540614
2	0xbd54cfeb	-0.0519561
3	0x3daccc9b	0.08437463
4	0x3cce18de	0.025158342
5	0xbe00ec89	-0.12590231
6	0x3dfd3289	0.123631544
7	0xbe70df18	-0.23522604
8	0x3e163703	0.14669423
9	0x3c602ab8	0.01368206
10	0xbe655ba2	-0.22398236
11	0xbd65673f	-0.056006666
12	0xbe2a5456	-0.16633734
13	0x3e78d92f	0.24301599
14	0xbe90c2d6	-0.28273648
15	0xbe0cc6d1	-0.13747717
16	0x3dcc8f9b	0.09988328
17	0xbddd6355	-0.10809962
18	0x3d932e52	0.07186569
19	0x3ecfc4b7	0.4057977
20	0x3e7d97e1	0.24764968
21	0xbe65d83f	-0.22445773
22	0xbd1f9273	-0.038958024
23	0x3dca4cb0	0.09877908
24	0xbe09994c	-0.13437384
25	0xb887af10	-6.4699096e-05
26	0x3cc1db8e	0.023664262
27	0xbe6093f1	-0.21931435
28	0x3e0953f6	0.13410935
29	0x3ea467e0	0.321105
30	0x3d619ae8	0.05507937
31	0x3eacc5ce	0.33744663
32	0x3d917e38	0.071041524
33	0xbe0a6ea0	-0.13518763
34	0x3e176fb0	0.14788699
35	0xbd817e73	-0.063229464
36	0x3db995be	0.09061764
37	0xbeab1f98	-0.33422542
38	0xbe341a6b	-0.17588203
39	0xbe25355a	-0.16133633
40	0x3d070aaa	0.032969154
41	0xbd4ec28d	-0.050478507
42	0xbe7af1fb	-0.2450637
43	0xbebfbeea	-0.37450343
44	0xbe8eef2e	-0.27916855
45	0xbdafe4c9	-0.08588559
46	0xbe0752c4	-0.13215166
47	0x3e03c421	0.12867786
48	0xbdd7090b	-0.10499772
49	0x3d9e27d2	0.07722439
50	0x3cf6304f	0.030052332
51	0x3da838dc	0.0821397
52	0x3cec6076	0.02885459
53	0xbdf8ba1c	-0.121448725
54	0xbc77c7d0	-0.015123323
55	0xbe70cb6b	-0.23515098
56	0x3d9e9751	0.07743705
57	0x3e1001dc	0.1406321
58	0xbe62c8c4	-0.22146899
59	0xbd72e816	-0.059303366
60	0xbe88ee70	-0.26744413
61	0x3ce450b5	0.027870515
62	0xbe026de7	-0.12737237
63	0x3d6b5bb2	0.057460494
64	0x3c5041eb	0.012711029
65	0x3de1f22d	0.110325195
66	0xbc3e789f	-0.011625438
67	0x3c6849b4	0.014177728
68	0x3d1c2b4d	0.038127232
69	0xbea8ef0a	-0.32994872
70	0xbd06a846	-0.03287532
71	0x3d43a9bd	0.047769297
72	0xbe833cda	-0.25632364
73	0xbe85bcd9	-0.26120642
74	0xbd146e73	-0.036238145
75	0xbe956ab0	-0.2918296
76	0xbdca5fc1	-0.09881545
77	0x39f307f4	0.00046354497
78	0x3e4a1cba	0.19737521
79	0x3dcabb55	0.09899012
80	0xbdada336	-0.08478396
81	0xbe89676c	-0.26836717
82	0x3da647da	0.08119173
83	0x3d0c330f	0.03422838
84	0x3e32113b	0.17389385
85	0xbec1d5cb	-0.37858424
86	0xbe11b3cd	-0.14228745
87	0xbea7376c	-0.3265947
88	0xbe534105	-0.20630272
89	0x3d780a59	0.060556743
90	0x3e482b11	0.19547679
91	0x3e0f2218	0.1397785
92	0xbda02374	-0.07819262
93	0x3d7291ea	0.059221186
94	0xbcdc71eb	-0.02690979
95	0x3e8b48c2	0.27203947
96	0x3eb33357	0.35000107
97	0x3ec1900d	0.37805215
98	0x3d2a86be	0.041632406
99	0x3df3c04f	0.11901914
100	0xbe7f24b4	-0.24916345
101	0x3de30d3e	0.1108651
102	0xbe8d6aa8	-0.27620435
103	0xbc40e27d	-0.011772749
104	0xbe785eb6	-0.2425488
105	0x3dd71c2d	0.10503421
106	0xba41aece	-0.00073884137
107	0xbe7e0034	-0.24804765
108	0x3c81996b	0.015820226
109	0x3b8d11a2	0.0043050805
110	0x3ebdcea9	0.37071732
111	0x3ddf1372	0.10892381
112	0xbd0ae60c	-0.033910796
113	0xbd881f53	-0.066465996
114	0x3e871509	0.26383236
115	0x3e908bab	0.28231558
116	0x3dde8025	0.108642854
117	0xbe5e5acb	-0.21714322
118	0x3dae20f0	0.08502376
119	0x3d6e9f1b	0.058257204
120	0xbe52e853	-0.20596437
121	0xbe87bd7e	-0.2651176
122	0xbe722b81	-0.23649408
123	0x3da97f90	0.08276284
124	0xbd1b9bdc	-0.037990436
125	0xbe279dd2	-0.16368797
126	0x3e4e77a7	0.20162831
127	0xbe402d81	-0.18767358
128	0xbd922d33	-0.07137527
129	0x3e91085c	0.2832669
130	0x3edbff75	0.42968336
131	0x3c602c33	0.013682413
132	0xbe527815	-0.2055362
133	0xbe84f41f	-0.259675
134	0x3e076078	0.13220394
135	0xbe5e7b01	-0.2172661
136	0x3d392c1b	0.045208078
137	0xbc30ed72	-0.010798799
138	0x3e302ca4	0.17204529
139	0xbda59c1d	-0.08086417
140	0x3a0dbb7b	0.000540666
141	0x3e01ac11	0.12663294
142	0x3debba92	0.11510195
143	0xbd7d9343	-0.061908018
144	0x3dca23a9	0.09870083
145	0x3d1474dd	0.036244262
146	0xbdcea87b	-0.10090729
147	0x3e3a6c02	0.18205264
148	0x3dccf39d	0.10007403
149	0xbe8dd963	-0.27704915
150	0xbe1d5e21	-0.15367939
151	0x3daae9ba	0.08345361
152	0x3cb129e7	0.021626426
153	0x3e1da945	0.15396602
154	0x3bb26c80	0.005445063
155	0x3db5068a	0.08839138
156	0x3ddff986	0.10936265
157	0x3df96feb	0.1217955
158	0x3d9874bb	0.074441396
159	0x3d122395	0.035678465
160	0x3e1dc389	0.15406622
161	0x3d852fb2	0.06503238
162	0x3e9d1d3f	0.30686375
163	0x3d37343b	0.044727545
164	0x3c5a7776	0.013334146
165	0xbdc4ad6f	-0.09603392
166	0xbe1b6d51	-0.1517842
167	0x3d1db80d	0.038505603
168	0xbe96be66	-0.29442137
169	0xbe27eb51	-0.1639836
170	0x3da76dca	0.081752375
171	0x3dfee1e4	0.12445429
172	0x3d930a2d	0.07179675
173	0x3dd39442	0.10331012
174	0xbdd42417	-0.10358446
175	0xbdbe0b19	-0.092794605
176	0x3e432305	0.19056328
177	0x3ecc2464	0.39871514
178	0xbdb74ebe	-0.08950566
179	0xbdd677a3	-0.10472038
180	0xbeb2a7c2	-0.34893614
181	0x3d21b347	0.039477613
182	0x3e0479c1	0.1293707
183	0xbd92d69b	-0.07169839
184	0xbe22dc8a	-0.15904441
185	0xbe276ce2	-0.16350129
186	0x3db72525	0.08942632
187	0xbe57d262	-0.21076348
188	0xbe9a447d	-0.30130377
189	0x3d997718	0.074934185
190	0x3d8951b5	0.067050375
191	0xbc8a0d7f	-0.016852139
192	0xbb907937	-0.004408981
193	0xbe0c37f7	-0.13693224
194	0x3e4641ac	0.1936099
195	0x3d131f8c	0.035918757
196	0xbae4e3ec	-0.0017462946
197	0x3e1ddf56	0.15417227
198	0xbeabbbbf	-0.33541676
199	0xbde0e440	-0.10981035
200	0x3e123503	0.14278035
201	0xbe220bf8	-0.15824878
202	0x3e0da01c	0.13830608
203	0x3ca90b01	0.02063513
204	0xbd258d79	-0.040418122
205	0x3e533bad	0.20628233
206	0x3dd99d2a	0.1062568
207	0xbdcff565	-0.10154227
208	0xbe7471e7	-0.23871575
209	0xbd439610	-0.047750533
210	0x3e5e8557	0.21730553
211	0x3dabbd72	0.08385743
212	0xbd634f74	-0.055495694
213	0xbe0b9c87	-0.13633929
214	0xbe4b2113	-0.19836836
215	0xbe103bec	-0.14085358
216	0x3cb5a61c	0.022173934
217	0xbe24e3fa	-0.16102591
218	0x3c53a826	0.012918508
219	0x3cab47a2	0.02090818
220	0xbe7f1688	-0.24910939
221	0x3e766871	0.24063279
222	0x3c061e9d	0.00818601
223	0x3adc2a24	0.0016797227
224	0x3da658a5	0.08122376
225	0x3e1968be	0.14981362
226	0xbdff9061	-0.1247871
227	0x3e235abb	0.1595258
228	0x3c4471d9	0.011990034
229	0xbe3b8a4a	-0.18314472
230	0x3da96b72	0.08272447
231	0x3dfdedd2	0.12398876
232	0xbea422c6	-0.3205778
233	0xbddc3a91	-0.10753358
234	0xbd8f1e86	-0.06988244
235	0xbeb5c961	-0.35505202
236	0xbd04f666	-0.032461546
237	0x3e8b5393	0.272122
238	0x3c95df6b	0.01829501
239	0x3ea3df10	0.3200612
240	0xbe9677c4	-0.2938825
241	0xbd78a07e	-0.060699932
242	0x3eacf8a0	0.33783436
243	0x3d77d263	0.060503375
244	0x3d93e0be	0.072206005
245	0x3dbea49e	0.09308742
246	0x3db158ba	0.086595014
247	0xbe553b14	-0.20823318
248	0xbca246ff	-0.019809244
249	0x3d4f2ca8	0.050579697
250	0x3e253138	0.16132057
251	0xbdc5a8ba	-0.09651323
252	0xbe0c777f	-0.13717459
253	0x3d6c3197	0.05766448
254	0xbd85d427	-0.065346055
255	0xbdfb1fb6	-0.12261908

lstm.bias_ih_l2 f4 [64]
0	0xbd986d26	-0.074426934
1	0x3e3bee8a	0.18352714
2	0x3e288b4f	0.16459392
3	0x3e2c30af	0.16815446
4	0x3eafaecd	0.3431305
5	0x3e59ff7b	0.21288864
6	0xbe3a689e	-0.18203971
7	0x3dad7814	0.08470169
8	0x3eb7f2a9	0.35927323
9	0x3e8554da	0.260413
10	0x3e9ff14d	0.31238785
11	0xbd73d6f4	-0.059531167
12	0xbd0a3ac4	-0.03374745
13	0xbde696f0	-0.11259258
14	0x3d1de488	0.038548023
15	0x3b92cbef	0.004479877
16	0xbdafda10	-0.08586514
17	0xb957f9cc	-0.00020597054
18	0xbd94596f	-0.072436206
19	0xbe071138	-0.13190162
20	0xbc59d171	-0.013294564
21	0x3d181179	0.03712604
22	0x3db13623	0.08652904
23	0xbdafc301	-0.08582116
24	0x3e272dc6	0.16326055
25	0x3e3c67b5	0.18398936
26	0xbdd2c9f6	-0.10292427
27	0x3d790399	0.060794447
28	0xba9726ca	-0.0011531946
29	0xbe08b09a	-0.13348618
30	0x3e5e0d06	0.21684656
31	0xbe45b6ed	-0.19308062
32	0xbdc402e9	-0.095708676
33	0x3e334eab	0.17510478
34	0x3daf8b40	0.08571482
35	0x3e40e2eb	0.18836562
36	0xbdff58fb	-0.124681436
37	0x3cdfec25	0.027334282
38	0xbe1d927c	-0.1538791
39	0x3dcf0f5c	0.101103514
40	0xbe12368a	-0.14278618
41	0xbe78cfc2	-0.24298003
42	0x3df282c1	0.118413456
43	0x3d242ee8	0.040083796
44	0xbe591ab6	-0.21201596
45	0x3e6e3430	0.23262095
46	0xbe207d22	-0.15672734
47	0xbd683643	-0.056692373
48	0x3e067503	0.13130574
49	0xbdb13fa7	-0.08654719
50	0x3eb0bddc	0.3451985
51	0x3e29c2c4	0.16578203
52	0x3e6bcd9b	0.23027651
53	0x3e56ab17	0.20963703
54	0xbdaebde7	-0.08532315
55	0x3e27b588	0.16377842
56	0x3ebc07e8	0.36724782
57	0x3db6af03	0.089200996
58	0x3e3f5d47	0.18687926
59	0xbbd67104	-0.006544234
60	0x3e6be362	0.23035958
61	0x3e9f26be	0.31084245
62	0x3d571392	0.052508898
63	0xba7dab90	-0.0009676749

lstm.bias_hh_l2 f4 [64]
0	0x3dc639cb	0.09678992
1	0x3e322cff	0.17399977
2	0x3c847226	0.016167711
3	0x3cb0c294	0.021577157
4	0x3e9a946d	0.30191365
5	0xbd0a26f9	-0.033728573
6	0xbe2790a4	-0.1636377
7	0xbdd38b44	-0.10329297
8	0x3e939c1b	0.28830037
9	0x3e124ac7	0.14286338
10	0x3e0d2cc0	0.13786602
11	0xbdb23ab8	-0.08702606
12	0xbe01bae8	-0.12668955
13	0x3e9b1576	0.3028981
14	0x3d49dd81	0.04928351
15	0xbc90f60a	-0.017695446
16	0xbddc8550	-0.10767615
17	0xbdfaaa77	-0.12239545
18	0x3dc8bb5f	0.09801363
19	0x3d7736d2	0.060355015
20	0x3c8e93a5	0.017404387
21	0xbe021276	-0.12702355
22	0xbc98a14b	-0.018631598
23	0xbe24062d	-0.16017981
24	0x3dc0251d	0.09382079
25	0x3e3e052f	0.18556665
26	0x3d524076	0.051331006
27	0x3cb017ae	0.021495666
28	0xbda2fe94	-0.07958713
29	0xbbef734c	-0.0073074456
30	0xbe43710a	-0.1908609
31	0x3cda6297	0.02665834
32	0xbdb9d012	-0.090728894
33	0x3d723e53	0.05914147
34	0x3e1bb73a	0.15206614
35	0x3e152976	0.14566597
36	0x3df25db9	0.118342824
37	0xbe2d0460	-0.168962
38	0xbdd25245	-0.10269598
39	0xbe80afc0	-0.25134087
40	0x3ca4fc61	0.020139875
41	0xbdd32196	-0.103091404
42	0x3d0c618a	0.034272708
43	0xbe4c4ee3	-0.19951968
44	0x3e4e7142	0.20160392
45	0x3e211260	0.15729666
46	0xbe311b58	-0.17295587
47	0x3dd5d60c	0.10441217
48	0x3e0930e8	0.13397563
49	0x3ead09d9	0.33796576
50	0x3e98191c	0.29706657
51	0x3e052bcc	0.13004988
52	0xbd9f1bf1	-0.07769001
53	0x3e9d77bb	0.3075541
54	0x3ea254b5	0.3170525
55	0x3e48e4ff	0.19618605
56	0x3db473cc	0.08811149
57	0x3ea35bf7	0.319061
58	0x3c469323	0.012120041
59	0x3e8a6071	0.27026704
60	0x3e7c5143	0.24640374
61	0xbe29633f	-0.16541766
62	0x3dd1799e	0.10228275
63	0xbcd0bca1	-0.02548057
